mymodel/amakano2plus.onnx (onnx, 81142 bytes, 30 tensors)

conv_head.weight f2 [12, 3, 3, 3]
000000 ce a6 10 36 7f af bc a4 a0 a9 c3 2c a9 a4 87 a9
       -0.02658 0.379 -0.1171 -0.0185 -0.04395 0.0744 -0.0182 -0.04318
000010 97 a7 6d 27 8c b9 aa 32 bf 29 08 2d 94 ac 9f 9e
       -0.02965 0.029 -0.6934 0.2083 0.0449 0.0786 -0.07153 -0.006466
000020 61 2b a4 20 15 9e fc 31 42 ad 50 a6 ca 9a 52 21
       0.05765 0.00906 -0.00594 0.187 -0.08215 -0.02466 -0.003315 0.01039
000030 7b 1b 91 a7 fc 1c be 29 1f 23 91 28 02 34 fc b9
       0.003653 -0.02956 0.004868 0.04486 0.01391 0.03568 0.2505 -0.748
000040 0e 2c 77 2c 8f 35 5e a5 8a 2d 66 9b 27 2c 3b 31
       0.06335 0.06976 0.3474 -0.02097 0.08655 -0.003613 0.0649 0.1635
000050 fc bc 36 2e 5b 1d 67 34 8b 2c 4e 20 36 30 a3 a5
       -1.246 0.09705 0.00523 0.2751 0.071 0.00841 0.1316 -0.02202
000060 23 35 1b bc d4 2d 0e 28 29 36 04 a8 ab 1d 33 24
       0.321 -1.026 0.09106 0.03168 0.385 -0.03137 0.005535 0.0164
000070 fd 2b da 2e 95 35 a9 b8 bc 29 86 ab da 29 77 2a
       0.0624 0.10706 0.3489 -0.5825 0.0448 -0.05878 0.04572 0.0505
000080 3d b0 00 2d 6c 2f 3b 37 81 b8 0e 2a c0 ab 5d 20
       -0.1324 0.0781 0.11597 0.452 -0.563 0.0473 -0.06055 0.00852
000090 43 a7 0d b0 32 2e 18 2e 20 39 ec b8 d6 2b a7 9d
       -0.02837 -0.1266 0.0968 0.0952 0.6406 -0.615 0.06122 -0.00552
0000a0 83 ae 38 26 ff a2 f3 31 6e b1 cf b8 fc 35 77 a5
       -0.10175 0.02429 -0.013664 0.1859 -0.1697 -0.601 0.374 -0.02135
0000b0 7c a6 cb 30 1c 1c bf 1c 2a aa 5c 23 a3 b8 e7 32
       -0.02533 0.1498 0.004013 0.004635 -0.04816 0.01437 -0.5796 0.2157
0000c0 f5 2c dc 22 06 9f 99 a8 1c 30 77 20 0e a5 c6 b5
       0.07745 0.0134 -0.00686 -0.03592 0.1284 0.00872 -0.01974 -0.3608
0000d0 43 36 54 94 aa 94 f6 aa 57 a9 f8 ae cc 2c 5f ae
       0.3914 -0.001057 -0.001139 -0.05438 -0.04172 -0.1089 0.07495 -0.09955
0000e0 59 33 30 2d 6e 24 c5 26 97 24 90 af 4a b2 73 2a
       0.2296 0.08105 0.0173 0.02644 0.01793 -0.11816 -0.1965 0.05038
0000f0 b7 b4 0b 38 53 30 53 a9 19 a9 9f 2c 06 b1 1c b4
       -0.2947 0.5054 0.1351 -0.0416 -0.03983 0.0722 -0.157 -0.2568
000100 0c 9e dc b2 50 38 db 1b 12 23 23 2a 7f 25 fc 23
       -0.005905 -0.2144 0.539 0.003836 0.01381 0.04794 0.02147 0.015594
000110 d7 a4 55 99 ae 1c b2 b1 c9 1b e4 22 70 1f b0 a0
       -0.0189 -0.002604 0.00457 -0.178 0.003801 0.01346 0.007263 -0.009155
000120 42 ac 33 2e 47 1e 1c a8 c8 3b d3 1e e7 a8 1b ac
       -0.0665 0.09686 0.00613 -0.0321 0.9727 0.006664 -0.0383 -0.06415
000130 35 22 b5 2a c0 ad 5d a2 89 26 17 bb fa 9b 20 28
       0.01212 0.0524 -0.08984 -0.01243 0.02553 -0.886 -0.003895 0.03223
000140 d0 2a c2 9d 5e a8 fa ad ee 28 73 ad 11 37 a0 ab
       0.05322 -0.005623 -0.03412 -0.0934 0.0385 -0.08514 0.4417 -0.05957
000150 4a af 61 b3 fc 9a 20 98 5c 24 50 9e 8a ab a8 1e
       -0.1139 -0.2306 -0.00341 -0.002014 0.01703 -0.006165 -0.0589 0.0065
000160 97 27 b6 a4 50 2b 59 2d 67 94 c1 29 1f ac 82 2d
       0.02965 -0.0184 0.05713 0.08356 -0.001075 0.04495 -0.0644 0.08606
000170 1f 2d c8 a4 d0 2e a0 2b 6f ad fd a8 3f b1 d5 ab
       0.08 -0.01868 0.10645 0.05957 -0.0849 -0.03897 -0.164 -0.0612
000180 36 2e 85 31 d9 a9 cc 19 4f 21 21 a5 33 a7 92 a1
       0.09705 0.1725 -0.0457 0.00283 0.01037 -0.02003 -0.02812 -0.01088
000190 94 a9 46 a9 3b 36 ec ad bd ac 52 ae ca a4 9f a6
       -0.04358 -0.0412 0.3894 -0.0925 -0.07404 -0.09875 -0.0187 -0.02586
0001a0 85 a7 8f 28 60 a8 f5 25 aa 2c 7c 1a 2f a8 8c a4
       -0.02937 0.0356 -0.03418 0.02327 0.0729 0.003166 -0.03268 -0.01776
0001b0 1a ad 95 b3 95 ab 4b 17 80 ae b3 af 33 26 35 36
       -0.0797 -0.2369 -0.05923 0.0017805 -0.10156 -0.1203 0.02422 0.388
0001c0 25 2a 7f a9 3c b4 1e 22 4e 18 e2 ad ff a6 f2 a1
       0.048 -0.04294 -0.2646 0.01195 0.002102 -0.0919 -0.02733 -0.01161
0001d0 ce 36 3a 1e 00 2d e7 b1 62 9c 3f 21 17 b4 e4 ad
       0.4253 0.00608 0.0781 -0.1844 -0.00428 0.01025 -0.2556 -0.09204
0001e0 23 95 39 37 e2 a6 60 ae 6d 39 e5 ae 3e 2b ca b6
       -0.001254 0.4514 -0.02689 -0.0996 0.678 -0.1077 0.05658 -0.4243
0001f0 9a ab 55 a1 0e a8 06 9d c3 ac 9e 36 44 af 73 a8
       -0.0594 -0.010414 -0.03168 -0.004906 -0.0744 0.4136 -0.1135 -0.03476

conv_head.bias f2 [12]
000000 5c 2e 32 9a 17 ac 47 1d d7 b4 50 2a 04 2c 2b 2b
       0.09937 -0.003025 -0.0639 0.005154 -0.3025 0.04932 0.06274 0.056
000010 18 32 2a 09 18 a9 21 9f
       0.1904 0.0001576 -0.0398 -0.00696

conv_mid.0.weight f2 [12, 24, 3, 3]
000000 bc 1d 7c 28 9b 93 d3 9a 99 2c 6a ab 65 26 8a 1f
       0.0056 0.03503 -0.0009284 -0.003332 0.07184 -0.05792 0.02498 0.007362
000010 e3 25 32 30 b3 ad ba 31 44 a8 79 31 33 ac 08 14
       0.023 0.1311 -0.08905 0.179 -0.03333 0.171 -0.0656 0.000984
000020 11 a4 52 2d d0 b0 4f 31 81 27 ac 31 48 ae 60 2b
       -0.01588 0.0831 -0.1504 0.1659 0.02931 0.1772 -0.09814 0.05762
000030 31 ab 59 aa ef a8 91 2c c2 27 03 aa 67 a7 15 2f
       -0.05618 -0.0496 -0.03854 0.07135 0.0303 -0.04697 -0.02892 0.11066
000040 b1 29 53 ac 97 21 67 20 89 a4 08 28 c6 ae 14 2b
       0.04446 -0.06757 0.01092 0.0086 -0.01772 0.0315 -0.10583 0.0553
000050 20 a8 5d 30 8c 26 f4 a9 96 ab 87 18 42 ad b7 24
       -0.03223 0.1364 0.02557 -0.0465 -0.05927 0.00221 -0.08215 0.01842
000060 0b a6 7b 21 39 a8 9d ab 00 28 9f a8 73 a6 0c 96
       -0.0236 0.010704 -0.033 -0.05948 0.03125 -0.0361 -0.02519 -0.001476
000070 d5 ac b2 19 bf ab 87 a5 0c 9a cb ab 0d a4 7f aa
       -0.0755 0.00278 -0.06052 -0.02159 -0.002953 -0.06088 -0.01582 -0.05075
000080 5f 29 90 ac 92 2c 5e af 8c 1c 58 91 1c 2a ce 26
       0.04196 -0.0713 0.0714 -0.1151 0.00444 -0.0006523 0.04773 0.02658
000090 9b 2b 71 b2 83 2f 0e 2d 56 aa 92 23 db 98 5d 89
       0.05942 -0.2013 0.1174 0.079 -0.0495 0.014786 -0.00237 -0.0001637
0000a0 25 a5 86 2d b4 ac d2 20 3f 26 b2 32 98 28 47 30
       -0.0201 0.0863 -0.0735 0.009415 0.0244 0.2092 0.0359 0.1337
0000b0 a7 ab f4 2e 10 aa 3a 2d 1a ac 5f 2c d2 ad 34 29
       -0.05978 0.10864 -0.04736 0.08167 -0.0641 0.0683 -0.09094 0.04065
0000c0 6e a4 60 a6 0e 29 07 a8 f1 29 6e aa 6a 9c 37 a8
       -0.0173 -0.0249 0.0395 -0.03146 0.04642 -0.05023 -0.00431 -0.03293
0000d0 e5 27 36 25 2e a7 92 a0 c0 20 c9 ab b0 14 78 2c
       0.03084 0.02036 -0.02805 -0.00893 0.00928 -0.06082 0.001144 0.0698
0000e0 e8 2d 90 a3 f4 29 a8 29 45 29 72 af b4 35 5b b2
       0.0923 -0.01477 0.0465 0.0442 0.04117 -0.11633 0.3564 -0.1986
0000f0 29 2c 4c b5 fc 32 32 a8 34 29 a7 a4 f0 33 c4 b5
       0.065 -0.331 0.2183 -0.03278 0.04065 -0.01817 0.248 -0.3604
000100 cd a8 a5 b3 a5 35 fd 23 94 2c d4 ac 02 a2 79 a9
       -0.0375 -0.2389 0.3528 0.0156 0.07153 -0.07544 -0.011734 -0.04276
000110 2d 31 6d ae a4 2e 51 b2 49 2c e8 25 ec a7 a8 a6
       0.1617 -0.1004 0.10376 -0.1974 0.06696 0.02307 -0.03094 -0.026
000120 a2 2c 0f b1 31 2f d2 af dd 32 45 af 18 a3 ea a6
       0.0724 -0.1581 0.11237 -0.1222 0.2145 -0.1136 -0.013855 -0.02701
000130 9d 25 91 a2 ce 24 38 a8 90 2b 22 a8 5f 1c 99 27
       0.02193 -0.012825 0.01877 -0.03296 0.05908 -0.0323 0.00427 0.02968
000140 e5 aa 2d 28 40 9e c8 9d 93 a4 19 20 ff 2a d3 19
       -0.05386 0.03262 -0.006104 -0.005646 -0.01787 0.008 0.05466 0.002844
000150 b0 a8 b6 a1 67 a4 2b ac 57 af 6f a0 2e 2a 49 32
       -0.03662 -0.011154 -0.0172 -0.0651 -0.1147 -0.00866 0.04828 0.1964
000160 a3 a8 07 a8 82 26 7e a4 24 29 33 a6 b3 a9 ba aa
       -0.03622 -0.03146 0.02542 -0.01755 0.04016 -0.02422 -0.04453 -0.05255
000170 3e 2b db 1b 5b 1e 78 29 e3 a5 f1 a6 e5 31 4e a3
       0.05658 0.003836 0.006207 0.04272 -0.023 -0.02711 0.1842 -0.01427
000180 df 2d 1a b4 c6 31 63 a9 29 31 c6 af cd 26 69 b2
       0.09174 -0.2563 0.1804 -0.04208 0.1613 -0.12146 0.02657 -0.2003
000190 08 2e 12 ac f4 33 8a ae 65 aa b2 a7 50 24 d9 21
       0.09424 -0.0636 0.2485 -0.1022 -0.04996 -0.03006 0.01685 0.01142
0001a0 23 a8 5c 1b 84 24 51 a0 70 a5 0b 27 d2 a3 2b 28
       -0.03232 0.003593 0.01764 -0.00843 -0.02124 0.02751 -0.015274 0.03256
0001b0 5b 28 16 2d 05 2c c0 a4 ab 30 2a 29 1c 2b 14 b5
       0.03403 0.07947 0.0628 -0.01855 0.1459 0.04034 0.05554 -0.3174
0001c0 c8 28 07 22 72 a7 dc 1f ad 25 9e 2c 01 21 ca a5
       0.03735 0.01177 -0.02908 0.007675 0.02217 0.07214 0.00977 -0.02261
0001d0 fc 18 13 28 5a 26 26 28 df 2a cc 26 01 af ce 26
       0.002434 0.03183 0.02481 0.0324 0.05368 0.02655 -0.10944 0.02658
0001e0 9f 1e b3 a9 2e 29 c9 a8 a1 09 00 25 a3 ac af 2b
       0.006466 -0.04453 0.04047 -0.03738 0.0001718 0.01953 -0.07245 0.06003
0001f0 5b 25 2c a4 83 25 7d 28 4e 29 20 27 e4 2e 44 9e
       0.02092 -0.0163 0.02153 0.03506 0.04144 0.02783 0.10767 -0.00612

conv_mid.0.bias f2 [12]
000000 df a3 d7 27 5d a1 44 2c 38 20 78 2f 69 ae 49 27
       -0.01537 0.03062 -0.010475 0.06665 0.00824 0.1167 -0.10016 0.02846
000010 a2 a1 f8 28 ab 14 2a a8
       -0.011 0.03882 0.00114 -0.03253

conv_mid.1.weight f2 [12, 24, 3, 3]
000000 48 88 1e 9e 6c 1e b7 2e 06 34 49 a7 8c 34 18 2f
       -0.0001307 -0.005974 0.00627 0.1049 0.2515 -0.02846 0.2842 0.11084
000010 bf 24 e9 a7 49 a2 70 20 d4 a9 d9 31 9b a5 b1 a5
       0.01854 -0.0309 -0.012276 0.00867 -0.04553 0.1827 -0.0219 -0.02223
000020 1a 96 b1 26 fe a4 43 a4 95 22 7d 95 5f 30 4f aa
       -0.00149 0.02614 -0.0195 -0.01665 0.012856 -0.00134 0.1366 -0.0493
000030 95 22 13 ac 46 a0 1e 0c b2 a5 41 28 32 93 44 2c
       0.012856 -0.06366 -0.00835 0.0002513 -0.02225 0.03323 -0.0008783 0.06665
000040 05 9c 6b a0 46 28 25 10 82 1e 7e a8 8b 1a 8f a9
       -0.003925 -0.00863 0.0334 0.000506 0.006355 -0.0351 0.003195 -0.04343
000050 0a 31 44 21 a6 a9 58 a7 74 a9 9a a3 5b ab 14 a5
       0.1575 0.010284 -0.04413 -0.02869 -0.0426 -0.01485 -0.05746 -0.01984
000060 ca 20 f8 26 97 ad 1f 14 a1 a9 07 26 0e 9d e6 a7
       0.00935 0.02722 -0.08734 0.001006 -0.04398 0.02354 -0.004936 -0.03085
000070 24 b0 eb 26 a5 a8 7c b9 e9 25 74 ad 89 af 2a a8
       -0.1294 0.02702 -0.0363 -0.6855 0.02309 -0.0852 -0.11774 -0.03253
000080 48 2b e5 24 07 a3 ac 2e e1 a3 34 2c 6c a8 48 a4
       0.0569 0.01912 -0.013725 0.10425 -0.01539 0.0657 -0.03455 -0.01672
000090 7d ad 14 28 f8 28 c5 a9 33 b4 f3 b0 a3 30 b2 af
       -0.08575 0.03186 0.03882 -0.04507 -0.2625 -0.1547 0.1449 -0.12024
0000a0 7b 9d c0 2e 01 2c 3a 2c fb 2c e5 33 0e 2f 18 2d
       -0.005352 0.10547 0.06256 0.06604 0.0778 0.2467 0.1102 0.0796
0000b0 8d 2d bf 2b 7d ab 5a aa 3e b0 ee ab 54 a9 01 0c
       0.08673 0.06052 -0.0585 -0.04962 -0.1326 -0.06195 -0.04163 0.0002444
0000c0 58 b0 e9 15 53 b0 dc 28 c8 ab b9 1e 27 20 80 aa
       -0.1357 0.001443 -0.1351 0.03796 -0.0608 0.006565 0.00811 -0.05078
0000d0 7c a2 85 ad f4 2d 9f 1f 64 13 03 a3 c8 ad 8e a9
       -0.012665 -0.08624 0.093 0.007442 0.000902 -0.013695 -0.09033 -0.0434
0000e0 90 b0 18 2c ee ae c5 a0 b0 22 b5 1e 36 2a a7 ac
       -0.1426 0.06396 -0.1083 -0.009315 0.01306 0.00655 0.04852 -0.0727
0000f0 04 a5 bb a4 8f ac 35 a3 a0 28 ba 2b ff a8 34 a6
       -0.01959 -0.01848 -0.0712 -0.01408 0.03613 0.06036 -0.03903 -0.02423
000100 44 a0 13 23 db ac 31 ac 20 a9 0e 2e 1c a2 dc 29
       -0.00833 0.01382 -0.07587 -0.0655 -0.04004 0.0946 -0.01193 0.04578
000110 94 ac 3b 28 ab 26 c4 af 3b b0 e4 25 13 26 ff a1
       -0.07153 0.03305 0.02605 -0.12134 -0.1322 0.02301 0.02373 -0.01171
000120 f9 28 5c a9 15 19 30 2c 87 af 91 80 a3 aa 12 2f
       0.03885 -0.04187 0.002481 0.0654 -0.1176 -8.64e-06 -0.05185 0.1105
000130 ab a6 3f 98 4c ad c5 a3 5a a4 87 29 45 ab 7a a8
       -0.02605 -0.002073 -0.08276 -0.015175 -0.017 0.04318 -0.0568 -0.03497
000140 df a8 0a 90 c6 a0 99 1d d4 2b 19 16 9c a3 63 ac
       -0.03806 -0.000493 -0.00932 0.005466 0.06116 0.001489 -0.01486 -0.06854
000150 f8 10 71 25 5e 26 a9 2b 23 ad e1 1a 23 30 81 ac
       0.0006065 0.02126 0.02487 0.05984 -0.08026 0.003359 0.1293 -0.0704
000160 b0 1d 44 ac fb 2d e6 a8 9c ae cb ad 55 a3 22 9d
       0.005554 -0.06665 0.09344 -0.03827 -0.1033 -0.0905 -0.01432 -0.005013
000170 20 31 c7 26 b5 a6 d1 a9 40 b0 35 2c 03 30 04 30
       0.1602 0.02647 -0.0262 -0.04544 -0.1328 0.06573 0.1254 0.1255
000180 24 31 83 2d d2 2c 5a 31 5d 2e 32 2e 5e a5 57 a5
       0.1606 0.0861 0.0753 0.1672 0.0994 0.0968 -0.02097 -0.02086
000190 96 ab 63 aa ce aa b6 ab 4c ac f6 ae a9 2a 60 a7
       -0.05927 -0.0499 -0.05316 -0.06024 -0.06714 -0.10876 0.05203 -0.02881
0001a0 23 21 55 29 93 2d d5 a6 d7 a8 8d ac 0d 23 ad 96
       0.01003 0.04166 0.0871 -0.02669 -0.0378 -0.0711 0.01377 -0.00163
0001b0 04 1c 95 a4 40 9e f5 1e 35 25 38 a6 35 a6 97 a4
       0.00392 -0.0179 -0.006104 0.006794 0.02034 -0.02429 -0.02425 -0.01793
0001c0 90 12 06 1c b7 2d 6d a8 64 26 5f 30 ba 26 2a a0
       0.000801 0.00393 0.0893 -0.03458 0.02496 0.1366 0.02628 -0.00813
0001d0 82 2b 4d a5 85 a3 f2 aa 71 16 54 9b 9e ad 0a 29
       0.05865 -0.0207 -0.01469 -0.05426 0.001573 -0.003578 -0.08777 0.03937
0001e0 48 24 3a 2a ac 26 61 a1 9c 2c 5f 28 2e 29 cd 34
       0.01672 0.04865 0.02606 -0.010506 0.072 0.03415 0.04047 0.3
0001f0 ce a5 c6 a4 13 a3 be 25 a5 2a a2 20 c6 a4 55 b0
       -0.02267 -0.01865 -0.01382 0.02243 0.0519 0.00905 -0.01865 -0.1354

conv_mid.1.bias f2 [12]
000000 80 a9 f9 25 67 a4 07 1e 35 1d 9b a0 6a 2a c1 a7
       -0.04297 0.02333 -0.0172 0.005886 0.005085 -0.008995 0.0501 -0.03029
000010 d3 21 fb 1f 56 a4 e5 1d
       0.011375 0.007793 -0.01694 0.005756

conv_mid.2.weight f2 [12, 24, 3, 3]
000000 1a a7 ce 19 4e ab 95 24 03 24 51 2c c7 ac 19 b0
       -0.02774 0.002834 -0.05707 0.0179 0.01567 0.06744 -0.07465 -0.128
000010 77 ab b0 a6 84 a5 1f 28 63 a9 69 33 f6 b0 02 aa
       -0.05832 -0.02612 -0.02155 0.0322 -0.04208 0.2316 -0.155 -0.04694
000020 58 27 88 2b ae 25 13 1d 71 2c 65 a1 b3 ab 48 2b
       0.02869 0.05884 0.02219 0.004955 0.0694 -0.01054 -0.06015 0.0569
000030 d6 a8 3e 2e b8 94 76 2c 9b 2c 80 29 59 25 99 a7
       -0.03778 0.09753 -0.001152 0.0697 0.07196 0.04297 0.02089 -0.02968
000040 96 ad 83 ac 50 ac d1 1e 13 b4 2e 32 ab 18 50 ae
       -0.0873 -0.0705 -0.0674 0.006657 -0.2546 0.1931 0.00228 -0.09863
000050 b3 29 3b ae aa 2f bf af 12 ac 10 a3 89 ad d3 1a
       0.04453 -0.09735 0.11975 -0.12103 -0.0636 -0.013794 -0.0865 0.003332
000060 1f 20 54 2d 89 aa 0d a5 6e b2 bd 98 e7 2b 1c 25
       0.00805 0.08325 -0.05106 -0.01973 -0.2009 -0.002314 0.06174 0.01996
000070 2e a0 b8 a5 20 2c 52 a6 8c ad 9e ac f7 2c 4c ac
       -0.00816 -0.02234 0.06445 -0.02469 -0.0867 -0.07214 0.0776 -0.06714
000080 66 b1 cd 32 3f ab d5 34 75 2d 0d a9 db 2b bc a0
       -0.1687 0.2125 -0.0566 0.302 0.08527 -0.03946 0.06137 -0.00925
000090 2d 2e d5 30 01 a4 47 ad c8 31 e0 ad c9 2d 9c 29
       0.0965 0.151 -0.01564 -0.08246 0.1807 -0.0918 0.0904 0.04382
0000a0 02 21 9f 1d 8b 30 3f b1 b1 ad 45 b1 24 b2 db 2d
       0.00978 0.00549 0.142 -0.164 -0.0889 -0.1647 -0.1919 0.0915
0000b0 a3 30 87 17 41 2c 8f aa 90 ac 2b ac 62 30 f2 23
       0.1449 0.001838 0.06647 -0.05124 -0.0713 -0.0651 0.137 0.01552
0000c0 d8 ab 04 27 87 24 6f 29 2e af 12 a8 2c ac 79 b6
       -0.06128 0.0274 0.01768 0.04245 -0.1122 -0.0318 -0.0652 -0.4045
0000d0 c0 a5 08 ac cc b4 dd ac 41 b0 92 23 88 30 89 ac
       -0.02246 -0.063 -0.2998 -0.076 -0.1329 0.014786 0.1416 -0.07086
0000e0 5d 38 75 28 da 33 d9 2e 0b 2a 9e 31 21 a7 24 31
       0.5454 0.03482 0.2454 0.107 0.0472 0.1755 -0.02785 0.1606
0000f0 43 32 10 b7 bf 28 14 30 25 a8 88 2a 2b 28 25 16
       0.1957 -0.4414 0.03708 0.1274 -0.03238 0.05103 0.03256 0.0015
000100 9f ac 53 aa 55 30 d8 23 e2 2c ca ab c2 ad c7 a1
       -0.0722 -0.0494 0.1354 0.01532 0.0763 -0.06085 -0.08997 -0.011284
000110 5f a6 bf af 13 b0 89 a0 92 2e 68 26 b4 a3 06 a0
       -0.02489 -0.12103 -0.1273 -0.00886 0.10266 0.02502 -0.015045 -0.00786
000120 25 25 ab ad 92 28 39 2f 48 b0 f1 a8 72 b1 71 29
       0.0201 -0.08856 0.0357 0.11285 -0.1338 -0.0386 -0.1702 0.0425
000130 0e ac b6 30 9b 30 32 2c d8 96 f0 b0 18 2f 56 a7
       -0.06335 0.1472 0.1439 0.06555 -0.001671 -0.1543 0.11084 -0.02866
000140 32 2c 58 32 02 ac f0 2d 26 af ef 26 3a b0 ba 20
       0.06555 0.1982 -0.0626 0.0928 -0.1117 0.02708 -0.1321 0.00923
000150 45 22 0d 2d c5 ae d6 a9 f9 2f 58 ac a1 aa c4 ac
       0.012245 0.0789 -0.1058 -0.0456 0.1246 -0.0679 -0.0518 -0.07446
000160 34 2d f9 26 e7 2a e8 aa f7 a4 f6 24 54 27 71 9c
       0.0813 0.02724 0.05392 -0.05396 -0.0194 0.01938 0.02863 -0.004337
000170 f2 ae 3e 9a 1d a7 88 2b f8 a7 f4 ac 1b a2 58 28
       -0.1085 -0.003048 -0.02779 0.05884 -0.03113 -0.0774 -0.011925 0.03394
000180 c5 2e 7c 31 db 31 5c a2 3a 2f e7 a9 af 31 01 30
       0.1058 0.1714 0.183 -0.01242 0.1129 -0.0461 0.1776 0.1251
000190 ae 2d fc a4 12 b4 35 32 b5 23 d6 23 21 34 27 a0
       0.08875 -0.01947 -0.2544 0.194 0.01505 0.015305 0.258 -0.00811
0001a0 4d 29 dd 2c 37 2d b8 27 66 26 20 a6 d8 af 88 a8
       0.0414 0.076 0.0815 0.03015 0.025 -0.02393 -0.12256 -0.0354
0001b0 57 98 bd 27 7d 21 b3 a2 c3 ab df 1a 04 28 2e a9
       -0.00212 0.03023 0.01072 -0.013084 -0.06064 0.003355 0.03137 -0.04047
0001c0 a0 a4 91 27 cd 29 55 26 5b 1c 1b b0 c9 a6 dc a2
       -0.01807 0.02956 0.04532 0.02473 0.004253 -0.1283 -0.0265 -0.0134
0001d0 2b 20 87 9e 24 26 38 26 61 1d ae 19 96 a2 a5 2c
       0.00814 -0.006374 0.02399 0.02429 0.005253 0.002773 -0.01286 0.0726
0001e0 d4 ad 80 2f 6c 29 4f 1d c4 1a f5 24 7e 23 fa 2c
       -0.09106 0.1172 0.04236 0.005184 0.003304 0.01936 0.01463 0.07776
0001f0 ac a6 ae a4 12 a7 1d 20 e1 24 d6 8d 5b 2d 15 ad
       -0.02606 -0.01828 -0.02762 0.00803 0.01906 -0.0003562 0.0837 -0.0794

conv_mid.2.bias f2 [12]
000000 1f a8 52 00 13 9c 84 22 e0 15 ad 23 74 1c f1 a2
       -0.0322 4.9e-06 -0.00398 0.012726 0.001434 0.01499 0.00435 -0.01356
000010 21 21 d5 9b 5e 82 8f 18
       0.01002 -0.003824 -3.61e-05 0.002226

conv_mid.3.weight f2 [12, 24, 3, 3]
000000 18 ac ac 2a 0c 24 02 a9 73 af 3e 2d 05 ab 04 2e
       -0.06396 0.05212 0.01581 -0.03912 -0.1164 0.0819 -0.05484 0.094
000010 ce 2b eb 2e ff 30 83 2e 86 32 bb 30 c7 2d cd 2d
       0.06097 0.1081 0.1561 0.10175 0.2039 0.1478 0.0903 0.09064
000020 04 2d 1d 29 1e 2d 02 ac 11 28 38 9e b5 33 7d 2d
       0.07837 0.03995 0.07996 -0.0626 0.03177 -0.006073 0.2408 0.08575
000030 d4 27 69 ac 05 1f 96 22 3b 27 08 29 e2 b0 7d b5
       0.03058 -0.0689 0.006855 0.01286 0.02824 0.0393 -0.1526 -0.343
000040 01 af ed a9 88 24 6d a9 e2 a2 81 20 9c aa 31 2c
       -0.10944 -0.0463 0.0177 -0.0424 -0.01344 0.0088 -0.05164 0.0655
000050 53 2d 71 2a 7d a9 10 26 f8 1c e3 8f e0 9a 79 2a
       0.0832 0.05032 -0.04288 0.02368 0.004852 -0.0004814 -0.003357 0.05057
000060 fb 23 1f b2 7f aa b5 a9 34 aa ed ac 27 2a 2c ae
       0.01559 -0.1913 -0.05075 -0.0446 -0.04846 -0.07697 0.04807 -0.09644
000070 ec 2b 45 2d 94 b4 b7 a0 1c 24 0b af 32 b0 cc a2
       0.0619 0.08234 -0.2861 -0.00921 0.01605 -0.11005 -0.1311 -0.013275
000080 40 2a 04 a3 ad ae 05 28 ac b1 a5 ae 9d b2 c5 ae
       0.04883 -0.0137 -0.1043 0.0314 -0.1772 -0.1038 -0.2067 -0.1058
000090 65 a9 7d a7 45 24 90 ae 79 a2 db ae 0b ab 7b ac
       -0.04214 -0.02925 0.01668 -0.10254 -0.01264 -0.1071 -0.05502 -0.07
0000a0 45 24 69 94 5c 32 d1 2e 13 2d af 31 b8 ab f3 ac
       0.01668 -0.001077 0.1987 0.1065 0.0793 0.1776 -0.0603 -0.07733
0000b0 93 af f7 9c 34 31 02 28 ba 2a 4c 2f 32 30 26 25
       -0.11835 -0.00485 0.1626 0.0313 0.05255 0.114 0.1311 0.02011
0000c0 9f 29 d5 26 92 22 c5 29 d7 2a c3 25 c4 2d ae 24
       0.0439 0.02669 0.01283 0.04507 0.05344 0.0225 0.0901 0.01828
0000d0 25 a1 90 2c d3 a5 1d a1 3c a1 5a 9d 77 27 ef 24
       -0.01005 0.0713 -0.02275 -0.00999 -0.01022 -0.005226 0.02916 0.01927
0000e0 9e 32 63 ab df 26 02 a8 44 ad 13 26 b1 25 a4 1d
       0.2068 -0.0577 0.02684 -0.0313 -0.0823 0.02373 0.02223 0.00551
0000f0 08 a2 9b ad 84 ae 7c a1 48 18 8a 23 51 b0 8e a8
       -0.01178 -0.0876 -0.1018 -0.01071 0.00209 0.014725 -0.1349 -0.03558
000100 86 a9 90 a5 fc b4 46 ae 26 ad e3 26 61 aa 17 25
       -0.04315 -0.02173 -0.3115 -0.098 -0.08044 0.0269 -0.04984 0.01988
000110 de a9 ce ad f3 27 0a 35 09 ae a9 9c 0b a1 45 af
       -0.04584 -0.0907 0.03105 0.315 -0.0943 -0.00455 -0.00985 -0.1136
000120 16 a5 a8 28 1a a6 14 9a 38 b2 d7 a8 40 2d 73 2d
       -0.01987 0.03638 -0.02383 -0.002968 -0.1943 -0.0378 0.08203 0.08514
000130 40 1a 40 27 93 a8 7c 2d d8 9c f3 38 1e 2a b5 24
       0.003052 0.02832 -0.03574 0.0857 -0.00473 0.6187 0.0478 0.01839
000140 74 27 75 30 7f 2a f0 27 2b ae bc ad 18 37 45 ae
       0.02911 0.1393 0.05075 0.031 -0.0964 -0.0896 0.4434 -0.09796
000150 f8 25 df a9 24 31 26 2c d2 a7 66 25 6f 2f 05 ad
       0.02332 -0.04587 0.1606 0.0648 -0.03055 0.02109 0.11615 -0.0784
000160 d2 24 85 2e 22 2e ca 2c 67 93 41 28 e8 a8 39 1c
       0.01883 0.10187 0.0958 0.0748 -0.0009036 0.03323 -0.03833 0.004124
000170 3d a8 64 30 78 29 01 2e cf a6 96 2d 25 b1 d9 a8
       -0.0331 0.1372 0.04272 0.0938 -0.0266 0.0873 -0.1608 -0.03787
000180 8c 1c 2b 28 cd 31 07 28 1f 2b 06 2c e1 a8 16 b0
       0.00444 0.03256 0.1813 0.03146 0.05563 0.06287 -0.03812 -0.1277
000190 ff 23 34 af a7 b0 8a a4 2a 25 76 9f fb 2a 7e ae
       0.01562 -0.11255 -0.1454 -0.01773 0.02017 -0.007286 0.05453 -0.10144
0001a0 04 b2 c8 a8 27 b0 8a b7 f3 a9 18 ae 2b 30 6f a8
       -0.188 -0.03735 -0.1298 -0.4712 -0.04648 -0.0952 0.1302 -0.03464
0001b0 97 25 c8 24 54 ac 5b 2a 9c ac 77 ab 79 ac ad 30
       0.02184 0.01868 -0.0676 0.04965 -0.072 -0.05832 -0.0699 0.1461
0001c0 69 a8 b7 2e 2f 2d 3e 2b d5 2a b9 34 c2 2e ff a4
       -0.03445 0.1049 0.081 0.05658 0.05338 0.2952 0.1056 -0.01952
0001d0 ef a6 64 28 21 2e 95 32 5d 24 e6 a9 6c a9 21 ac
       -0.02708 0.0343 0.09576 0.2057 0.01704 -0.04608 -0.04236 -0.0645
0001e0 92 27 1c ab d5 ac 3b 2f 26 2c 80 9c 5c a4 0a 31
       0.02957 -0.05554 -0.0755 0.113 0.0648 -0.004395 -0.01703 0.1575
0001f0 00 29 60 1a 93 30 2e 2b 2b a6 c7 2a 07 2c f6 1a
       0.03906 0.003113 0.143 0.0561 -0.0241 0.05295 0.0629 0.003399

conv_mid.3.bias f2 [12]
000000 7d 98 aa a0 cc 9e 20 25 a0 25 e2 26 d9 1c 1e 1e
       -0.002192 -0.00911 -0.006638 0.02002 0.02197 0.02689 0.004734 0.005974
000010 71 a0 68 1a 9c a0 74 a8
       -0.008675 0.003128 -0.009 -0.0348

conv_mid.4.weight f2 [12, 24, 3, 3]
000000 07 ad 37 2a 68 ac 37 2a a2 29 68 8f 15 aa 29 21
       -0.07855 0.04855 -0.06885 0.04855 0.044 -0.000452 -0.04752 0.01008
000010 1c 9c c3 a7 09 2a 79 9f 6f 2d 1b 31 be 28 c8 a5
       -0.004013 -0.03032 0.04715 -0.007298 0.0849 0.1595 0.03705 -0.02258
000020 47 8c 5d 9c dc a5 06 a7 3b a8 65 a5 f1 94 a8 ad
       -0.000261 -0.00426 -0.02289 -0.02744 -0.03305 -0.02107 -0.001206 -0.0884
000030 15 94 1e 21 e1 b0 78 95 f6 97 1c aa 5a ad 7c 33
       -0.000997 0.009995 -0.1525 -0.001335 -0.001944 -0.04773 -0.0836 0.2339
000040 7c 99 75 23 54 20 c0 8f e1 24 6f 24 a3 ac eb 28
       -0.002678 0.014565 0.00845 -0.000473 0.01906 0.01732 -0.07245 0.03842
000050 aa a4 49 26 ac 2b eb 2d 23 a2 de a9 6e a9 1c b0
       -0.01822 0.02455 0.05994 0.09247 -0.011986 -0.04584 -0.04242 -0.1284
000060 c4 ab 8c 31 e1 b1 31 25 74 a4 51 aa cd 99 49 2c
       -0.06067 0.1733 -0.1837 0.02028 -0.0174 -0.04935 -0.002832 0.06696
000070 af a8 ee a6 ab b2 13 2e e8 ac 1f 29 1e b1 3a ae
       -0.0366 -0.02707 -0.2084 0.0949 -0.07666 0.04 -0.1599 -0.0973
000080 3a 2c d4 ac 6d 2f 2b aa 64 9a ba aa ea 20 0b ab
       0.06604 -0.07544 0.116 -0.0482 -0.00312 -0.05255 0.0096 -0.05502
000090 33 9c b0 ac a0 29 1b a9 2b 2f 76 aa be 1e b4 a9
       -0.0041 -0.07324 0.04395 -0.0399 0.112 -0.05048 0.006584 -0.04456
0000a0 66 2c bb 27 cc a9 35 b0 89 a7 c6 23 61 a0 2e 23
       0.0687 0.0302 -0.0453 -0.1315 -0.02943 0.01518 -0.00855 0.01402
0000b0 ec 28 e3 a8 45 24 98 27 7c 2d 12 2f 02 9e 95 2b
       0.03845 -0.03818 0.01668 0.02966 0.0857 0.1105 -0.005867 0.05923
0000c0 fd aa 0f 28 00 a9 38 24 3d 30 72 a4 3a 28 24 b3
       -0.0546 0.0317 -0.03906 0.01648 0.1324 -0.01736 0.03302 -0.2231
0000d0 7e 2c eb a6 05 2f 88 21 4b 30 a9 b2 f9 30 43 af
       0.0702 -0.02702 0.1097 0.0108 0.1342 -0.2081 0.1554 -0.11346
0000e0 76 30 d3 ae 3f 2a 93 ab 6b 26 d0 28 0d ac 02 12
       0.1394 -0.1066 0.0488 -0.05917 0.02507 0.0376 -0.0633 0.0007334
0000f0 4c aa 98 ab fc 24 4a 2a 76 27 57 9d 18 ad 58 ae
       -0.0492 -0.05933 0.01947 0.04913 0.02914 -0.005215 -0.0796 -0.0991
000100 ca 2c 25 29 64 31 47 b5 b8 aa 01 b0 8d 31 ee 30
       0.0748 0.0402 0.1685 -0.3298 -0.0525 -0.1251 0.1735 0.154
000110 be 2c cc 2c 29 2a 74 b0 02 31 c4 27 42 30 c5 b0
       0.0741 0.07495 0.04813 -0.1392 0.1565 0.03033 0.133 -0.149
000120 ef 29 3f a5 95 2d e0 ac 43 2c 1c ac c6 22 72 ac
       0.04636 -0.0205 0.0872 -0.0762 0.0666 -0.0642 0.01323 -0.06946
000130 f3 aa bf 2c c9 aa 1c 2e fd 2c 1d a7 b6 2b a3 a5
       -0.0543 0.07416 -0.053 0.09546 0.07794 -0.02779 0.06024 -0.02202
000140 df ab d4 2b b7 29 77 a7 67 2b 66 2c 22 30 b3 a6
       -0.0615 0.06116 0.04465 -0.02916 0.05783 0.0687 0.1292 -0.02617
000150 d7 2b 81 27 ba 2d 76 2c 0a a3 01 20 65 ab c4 2e
       0.06125 0.02931 0.0895 0.0697 -0.01375 0.00782 -0.05777 0.1057
000160 4a 24 09 ac 00 ad b8 2d cc a9 fa 2d 51 ad 67 a4
       0.01675 -0.06305 -0.0781 0.08936 -0.0453 0.0934 -0.08307 -0.0172
000170 fa 28 2e a8 21 26 b6 ad 85 a8 93 ac c6 a1 ba 30
       0.03888 -0.03265 0.02394 -0.08923 -0.0353 -0.0715 -0.01128 0.1477
000180 7a 27 60 2f 3d a7 50 2a 13 b1 43 2e 74 af 1b 28
       0.0292 0.11523 -0.02827 0.04932 -0.1586 0.09784 -0.11646 0.03207
000190 71 ab 2c 29 56 a2 ee 9e e8 28 8a 20 3d 20 64 9f
       -0.05814 0.0404 -0.012375 -0.006767 0.03833 0.008865 0.00828 -0.007217
0001a0 5b b0 29 a6 a3 2b 8e 24 e3 a3 90 24 47 aa 7f aa
       -0.1361 -0.02406 0.05966 0.01779 -0.0154 0.01782 -0.04904 -0.05075
0001b0 7e 28 00 30 66 28 3f 89 78 1d c6 a5 4a ab 87 2b
       0.0351 0.125 0.03436 -0.0001601 0.00534 -0.02255 -0.05695 0.0588
0001c0 35 1a 1f 26 fd af f1 a8 f0 2d a4 36 0e 26 c3 ad
       0.00303 0.02391 -0.1248 -0.0386 0.0928 0.415 0.02365 -0.09
0001d0 3b 2f 06 a5 36 ad ed af 5c ad fb 2d c9 a9 29 aa
       0.113 -0.01962 -0.0814 -0.12384 -0.08374 0.09344 -0.0452 -0.04813
0001e0 b7 a5 14 9f eb 20 aa 2d 40 24 c9 32 4f a4 fa 23
       -0.02232 -0.006912 0.009605 0.0885 0.0166 0.212 -0.01683 0.01558
0001f0 5e b0 7a 1f 07 ac fe 2b c4 28 1e af d4 ae 84 a3
       -0.1365 0.0073 -0.0629 0.06244 0.03723 -0.1112 -0.1067 -0.01468

conv_mid.4.bias f2 [12]
000000 30 9d 1a 9d 0e 9d b0 a1 2f a1 05 9d 2d 9d 30 21
       -0.005066 -0.004982 -0.004936 -0.01111 -0.010124 -0.0049 -0.005054 0.01013
000010 48 9d 44 21 16 8e e7 a1
       -0.005157 0.010284 -0.0003715 -0.01153

conv_mid.5.weight f2 [12, 24, 3, 3]
000000 47 a7 7e 31 48 32 f4 ad 86 2a da 2d 03 aa 02 a8
       -0.02843 0.1716 0.1963 -0.093 0.05096 0.09143 -0.04697 -0.0313
000010 10 a5 f1 26 0c 29 76 a6 02 29 e1 a5 99 ac be a7
       -0.01978 0.02711 0.03943 -0.02524 0.03912 -0.02296 -0.07184 -0.03024
000020 29 a1 a0 2f 99 aa b6 ac 05 27 d0 a6 9e 1d 6f 2c
       -0.01008 0.11914 -0.05154 -0.0736 0.02742 -0.02661 0.005486 0.0693
000030 f9 ac 62 9c 12 2c 59 a9 8e a9 c5 2c 56 a9 58 ae
       -0.0777 -0.00428 0.0636 -0.04178 -0.0434 0.0745 -0.0417 -0.0991
000040 a4 ae 99 a5 fb a3 b5 22 ed ae 95 b4 88 19 7b af
       -0.10376 -0.02187 -0.01559 0.0131 -0.1082 -0.2864 0.0027 -0.1169
000050 7b 2d 6d 30 13 b0 81 2d b4 21 1e a0 72 af e8 ab
       0.08563 0.1383 -0.1273 0.086 0.01114 -0.00804 -0.11633 -0.06177
000060 5c a8 58 aa 6e af 70 1a 2f 2e 44 a2 b0 24 ef b0
       -0.03406 -0.04956 -0.1161 0.003143 0.0966 -0.01224 0.01831 -0.1542
000070 06 b0 eb a1 21 b5 2c b4 a5 a7 57 ad 5d b0 60 ac
       -0.1257 -0.01156 -0.3206 -0.2607 -0.02986 -0.08344 -0.1364 -0.06836
000080 f5 a5 c5 23 83 30 c6 ab 8c 2a fd a4 68 a4 c9 29
       -0.02327 0.015175 0.141 -0.06073 0.05115 -0.01949 -0.01721 0.0452
000090 c8 aa 21 a5 23 2a 7d a8 09 34 34 b5 6c a5 26 b0
       -0.05298 -0.02003 0.04794 -0.03506 0.2522 -0.3252 -0.02118 -0.1296
0000a0 1f ac 87 a0 dd 25 e1 aa 05 ab 73 2e d6 2c 2e 2c
       -0.0644 -0.00884 0.0229 -0.05374 -0.05484 0.10077 0.07556 0.0653
0000b0 de 29 13 a9 5a 28 fa ac 3a 9b 7f a9 ba aa 6c a3
       0.04584 -0.03964 0.034 -0.07776 -0.003529 -0.04294 -0.05255 -0.014496
0000c0 68 23 a8 ab 1a 9c 02 ad 76 1c 5a 22 a2 29 61 34
       0.014465 -0.0598 -0.004005 -0.07825 0.004356 0.012405 0.044 0.2737
0000d0 5d 33 b2 2d a8 a3 36 24 2e 2e 74 b0 a2 ac 6f 30
       0.2301 0.089 -0.01495 0.01645 0.09656 -0.1392 -0.0724 0.1385
0000e0 14 2a 11 1e 1d 30 f5 2f 3d 2c 43 a7 eb a2 3c 2a
       0.0475 0.005924 0.1285 0.1243 0.0662 -0.02837 -0.01351 0.0487
0000f0 0a 28 69 2a 3e 30 96 25 b7 2b ad ae 6b 28 80 2c
       0.03156 0.05008 0.1326 0.02182 0.06027 -0.1043 0.03452 0.0703
000100 ef aa 20 28 0a 30 05 b0 e5 1a d6 26 38 ae 05 2d
       -0.05417 0.03223 0.1262 -0.1256 0.003366 0.0267 -0.09717 0.0784
000110 eb 24 d6 a6 1f 29 5b a7 c5 29 6e 1c 55 a8 a3 24
       0.01921 -0.0267 0.04 -0.02873 0.04507 0.004326 -0.03384 0.01811
000120 89 24 ea 25 b5 a5 fc 30 79 26 52 b0 24 30 76 28
       0.01772 0.0231 -0.0223 0.1558 0.02528 -0.135 0.1294 0.03485
000130 b1 28 78 21 97 28 6d a7 02 a2 fb 26 37 ac 8d 25
       0.03665 0.01068 0.03586 -0.029 -0.011734 0.02727 -0.06586 0.02168
000140 3d ae b3 ab 63 b0 c9 2c 30 2c c9 ab 59 30 1c 32
       -0.0975 -0.06015 -0.1371 0.07477 0.0654 -0.06082 0.1359 0.1909
000150 58 a8 5f 9b 25 2c de ac 33 2f a2 a9 9e a8 1d 2c
       -0.03394 -0.0036 0.06476 -0.07605 0.1125 -0.044 -0.03607 0.0643
000160 3e b0 4d 2c 6d 29 46 ac 0e 28 94 2d 41 28 fd ab
       -0.1326 0.0672 0.0424 -0.0668 0.03168 0.08716 0.03323 -0.0624
000170 05 b1 21 33 88 9d a2 32 c5 2d f7 30 5b 27 60 9b
       -0.1569 0.2228 -0.0054 0.2073 0.09015 0.1552 0.02873 -0.003601
000180 31 31 27 b5 82 2a 24 2e 83 24 d2 29 17 2b 24 31
       0.1622 -0.322 0.05084 0.09595 0.01762 0.04547 0.0554 0.1606
000190 68 aa af 2d 81 2d 87 30 95 20 e2 2f 32 31 08 2b
       -0.05005 0.0888 0.086 0.1415 0.00895 0.12317 0.1624 0.05493
0001a0 38 a9 1a af 71 9e 82 b5 b8 ac 41 a7 2b 9c 21 23
       -0.04077 -0.11096 -0.00629 -0.3442 -0.0737 -0.02834 -0.00407 0.01392
0001b0 3f 23 fd 2d bb 2a 51 27 54 2d 62 2c 7d a8 77 aa
       0.01415 0.09357 0.05258 0.02858 0.08325 0.0685 -0.03506 -0.0505
0001c0 1f 24 ef 9d ba aa 1a 1b b4 a6 cd af 57 29 f7 96
       0.0161 -0.005795 -0.05255 0.003468 -0.02618 -0.1219 0.04172 -0.0017
0001d0 b7 28 73 26 0b a5 ee ab 96 a5 5a 2c 23 a0 8a a8
       0.03683 0.02519 -0.0197 -0.06195 -0.02182 0.068 -0.00808 -0.03546
0001e0 83 2b 43 21 75 28 e2 aa e1 ac 88 a9 11 24 4c 28
       0.0587 0.01028 0.03482 -0.05377 -0.07623 -0.0432 0.01588 0.03357
0001f0 77 2c 22 24 24 ac a1 a3 34 a0 14 1a 51 27 66 a1
       0.06976 0.01614 -0.0647 -0.0149 -0.00821 0.002968 0.02858 -0.010544

conv_mid.5.bias f2 [12]
000000 2a a1 c8 1e 61 20 2d 1c 52 16 e8 22 b7 19 80 a9
       -0.010086 0.006622 0.00855 0.004078 0.001543 0.01349 0.00279 -0.04297
000010 f3 a4 72 94 d6 22 e0 1b
       -0.01933 -0.001085 0.01335 0.003845

conv_mid.6.weight f2 [12, 24, 3, 3]
000000 91 28 6e 2c d6 2f cd a7 7f b0 9c 2a d7 26 df 9a
       0.03568 0.0692 0.12244 -0.03047 -0.1405 0.05164 0.02672 -0.003355
000010 54 92 57 30 ed a6 e5 2a bc 2e 3e b1 47 26 84 a4
       -0.0007725 0.1356 -0.02705 0.05386 0.1052 -0.1638 0.02452 -0.01764
000020 98 96 86 20 6f a8 22 ac c0 29 b4 af 20 af a1 a9
       -0.00161 0.008835 -0.03464 -0.0646 0.04492 -0.12036 -0.1113 -0.04398
000030 ba b0 f3 b0 bd a8 7a 2a 2f 2c c6 28 2f af 3f b1
       -0.1477 -0.1547 -0.03702 0.0506 0.06537 0.0373 -0.11224 -0.164
000040 a2 2c fa aa 13 ac 4b 27 93 ac 11 ad 3a a8 2f a7
       0.0724 -0.0545 -0.06366 0.02849 -0.0715 -0.07916 -0.03302 -0.02806
000050 34 35 25 ac ca 9f 18 15 9d ae 25 1e 3a 23 44 2b
       0.3252 -0.06476 -0.007607 0.001244 -0.10333 0.006 0.014114 0.05676
000060 cd a7 3c 2e b5 2b c8 a7 0d b1 21 2f 65 20 80 2b
       -0.03047 0.0974 0.0602 -0.0304 -0.1578 0.1114 0.00858 0.0586
000070 e4 25 47 2a 8e 31 51 2b ec a1 c2 2c 10 2c 47 8f
       0.02301 0.04904 0.1736 0.05716 -0.011566 0.07434 0.0635 -0.0004442
000080 12 2c c8 a2 d1 a1 ed a6 70 ac 70 a4 0e a8 97 97
       0.0636 -0.013245 -0.01136 -0.02705 -0.06934 -0.01733 -0.03168 -0.001853
000090 37 ae b9 12 96 2d 84 2b 91 26 64 a5 36 1b f8 29
       -0.0971 0.0008206 0.0873 0.05872 0.02565 -0.02106 0.003521 0.04663
0000a0 9a 9d e0 ad a6 b1 6b b0 a4 b1 17 b4 28 b2 f0 b1
       -0.00547 -0.0918 -0.1765 -0.1381 -0.1763 -0.2556 -0.1924 -0.1855
0000b0 99 b0 ce ac 97 1d 18 2f 62 a2 a4 27 c8 29 bd a6
       -0.1437 -0.0751 0.00546 0.11084 -0.01247 0.02985 0.04517 -0.02632
0000c0 a6 a9 12 a6 40 21 5b 2e ce a6 6b 2e b2 2b 70 a9
       -0.04413 -0.02371 0.010254 0.0993 -0.02658 0.1003 0.06012 -0.04248
0000d0 c1 30 43 30 26 2b 2a 31 34 ac 7a a8 c4 ae 20 29
       0.1486 0.1332 0.05585 0.1614 -0.0657 -0.03497 -0.1057 0.04004
0000e0 df 32 dc ac 2e 90 d4 ab 8f a9 23 9c 3d aa 93 27
       0.2147 -0.0759 -0.00051 -0.06116 -0.04343 -0.00404 -0.04874 0.02959
0000f0 63 2a c3 2e ca a0 63 2a b8 27 68 2d a6 03 15 2a
       0.0499 0.10565 -0.00935 0.0499 0.03015 0.0845 5.57e-05 0.04752
000100 51 25 e4 25 8a b0 ec 25 c8 20 90 2a 0b 25 1a a8
       0.02077 0.02301 -0.1418 0.02313 0.00934 0.05127 0.0197 -0.03204
000110 be a6 06 18 a3 28 6e 24 71 2b 69 28 06 2c ce a8
       -0.02634 0.001965 0.03622 0.0173 0.05814 0.03445 0.06287 -0.03754
000120 18 2a ce 2c 34 29 ed 26 54 b4 96 2b fb 2b 05 2c
       0.0476 0.0751 0.04065 0.02705 -0.2705 0.05927 0.06235 0.0628
000130 c4 29 b1 2c 44 29 71 a8 88 ad 9e ac c1 29 84 21
       0.04504 0.0733 0.04114 -0.0347 -0.0864 -0.07214 0.04495 0.01077
000140 29 20 0c ad 73 2e 04 29 4d 2e f3 2e 69 ab 7a 30
       0.008125 -0.07886 0.10077 0.03918 0.09845 0.1086 -0.0579 0.1399
000150 36 2f cd 25 38 1e 36 25 04 9d 41 26 d0 22 31 af
       0.1127 0.02266 0.006073 0.02036 -0.004898 0.02443 0.013306 -0.11237
000160 0c 1d 35 a5 b3 29 4e 27 50 2a 2b ac a9 a3 78 29
       0.00493 -0.02034 0.04453 0.02853 0.04932 -0.0651 -0.01496 0.04272
000170 83 a6 09 a7 bf 1c 19 a8 1b 9a de a4 52 ad f7 a5
       -0.02544 -0.02748 0.004635 -0.032 -0.002981 -0.01901 -0.0831 -0.0233
000180 56 ab a2 2c 72 ab 93 1d 4a a9 1a 25 c9 27 60 ae
       -0.0573 0.0724 -0.05817 0.005444 -0.04132 0.01993 0.03041 -0.0996
000190 86 2c e1 2e 21 aa ba 9a 2d 2c d4 a6 22 29 a1 ae
       0.0707 0.1075 -0.04788 -0.003284 0.06525 -0.02667 0.0401 -0.1036
0001a0 f0 26 73 ae 50 2c 15 30 d2 aa 2d ad 5c 29 24 b0
       0.0271 -0.10077 0.0674 0.1276 -0.05328 -0.0809 0.04187 -0.1294
0001b0 92 25 0e 2c c8 2a e1 2c 28 31 45 a4 d4 a7 8c a8
       0.02176 0.06335 0.05298 0.07623 0.1611 -0.01668 -0.03058 -0.03552
0001c0 f9 28 5d a3 17 2e 05 2b bd a9 1f 31 df ab 76 32
       0.03885 -0.01438 0.09515 0.05484 -0.04483 0.16 -0.0615 0.2019
0001d0 ab 2d f1 2a ec a8 a0 2f 51 27 36 aa 41 ab 8e 2f
       0.08856 0.05423 -0.03845 0.11914 0.02858 -0.04852 -0.05667 0.11804
0001e0 f1 ac 08 ae 16 2a 41 b1 93 b3 b4 31 f3 2c 87 27
       -0.0772 -0.09424 0.04755 -0.1642 -0.2367 0.1782 0.07733 0.0294
0001f0 65 af 21 27 42 28 f2 ac e4 31 75 2e 9a a3 88 33
       -0.11554 0.02785 0.03326 -0.0773 0.1841 0.1009 -0.01485 0.2354

conv_mid.6.bias f2 [12]
000000 0a 24 cf 94 a8 9e 4c 19 57 a7 0d 1d cc 15 14 8c
       0.01578 -0.001174 -0.0065 0.002586 -0.02867 0.004932 0.001415 -0.000249
000010 90 9e 7e a0 2a 99 a5 9b
       -0.00641 -0.00877 -0.002522 -0.003733

conv_mid.7.weight f2 [12, 24, 3, 3]
000000 c5 ac 08 9e bb 2a 7b 2a e0 a6 87 a3 65 25 58 32
       -0.0745 -0.00589 0.05258 0.05063 -0.02686 -0.0147 0.02107 0.1982
000010 47 af c4 a5 ac af 12 ad 3d 28 0c b2 00 26 80 ad
       -0.1137 -0.02252 -0.1199 -0.0792 0.0331 -0.189 0.02344 -0.08594
000020 a7 b2 f3 28 97 2a 88 31 b5 2d a4 a7 e1 2c 1c ac
       -0.2079 0.03867 0.05148 0.1729 0.0892 -0.02985 0.07623 -0.0642
000030 bb 2f 2a a8 e0 a8 1e 21 a9 21 47 b1 21 a3 64 b2
       0.1208 -0.03253 -0.0381 0.009995 0.011055 -0.1649 -0.01392 -0.1997
000040 dc 29 9e a0 57 a6 ca 31 b5 a3 7e ab 2b a7 2a ae
       0.04578 -0.00902 -0.02477 0.1809 -0.01505 -0.05853 -0.028 -0.0963
000050 14 b4 a4 33 40 a5 2e 2c 38 ab 06 9d 41 95 2b 30
       -0.255 0.2388 -0.02051 0.0653 -0.0564 -0.004906 -0.001283 0.1302
000060 2e a3 48 2e 43 a9 cc 2d 13 b1 c6 ab 81 2c 5f 30
       -0.01402 0.09814 -0.0411 0.0906 -0.1586 -0.06073 0.0704 0.1366
000070 b7 18 a0 a9 67 a8 8b aa e3 a5 e0 29 b3 24 12 a6
       0.002302 -0.04395 -0.0344 -0.05112 -0.023 0.0459 0.01836 -0.02371
000080 ab 2c ab a8 97 2c 9f ac 3b ae 66 9d 06 af 05 25
       0.07294 -0.03647 0.0717 -0.0722 -0.09735 -0.005272 -0.10974 0.0196
000090 8f a8 9e 30 f6 2c 6b 2e e2 a6 1a a5 2c 24 d9 a7
       -0.0356 0.1443 0.0775 0.1003 -0.02689 -0.01993 0.0163 -0.03065
0000a0 7f a7 c2 26 1d 26 d3 2c 88 a0 6f 2e 1a ad f4 29
       -0.02928 0.0264 0.02388 0.0754 -0.00885 0.1005 -0.0797 0.0465
0000b0 69 29 8f 28 57 28 ee 2d 20 1b 1f a9 8c ac 44 a8
       0.04227 0.0356 0.0339 0.09265 0.003479 -0.04 -0.07104 -0.03333
0000c0 84 2a 60 33 a5 2a 34 a4 5e 2b bd 26 41 2c 15 32
       0.0509 0.2305 0.0519 -0.01642 0.05756 0.02632 0.06647 0.1901
0000d0 24 35 1b a0 24 22 0f b1 d4 2e a7 af 69 2b 25 ac
       0.3213 -0.00802 0.01199 -0.1581 0.1067 -0.11957 0.0579 -0.06476
0000e0 4f a0 71 31 8e 29 69 92 32 99 22 a4 61 24 4e 2f
       -0.008415 0.17 0.0434 -0.0007825 -0.002537 -0.01614 0.0171 0.11414
0000f0 cf 2e 55 34 fb 2f 20 25 70 2e 68 28 b7 ad 31 28
       0.1064 0.2708 0.1247 0.02002 0.1006 0.03442 -0.0893 0.03275
000100 e8 a6 18 a0 a5 b0 03 30 b8 ae 17 30 8c af b1 25
       -0.02698 -0.007996 -0.1451 0.1254 -0.105 0.1278 -0.1179 0.02223
000110 fa ab c5 2a fc a9 c3 2c d4 b0 28 ae e9 ac 93 27
       -0.06232 0.0529 -0.04675 0.0744 -0.1509 -0.0962 -0.0767 0.02959
000120 ae 27 d4 2f 2b 22 5d 30 e5 32 15 b2 af af f7 ac
       0.03 0.1223 0.01205 0.1364 0.2155 -0.1901 -0.12006 -0.0776
000130 15 30 49 20 b9 24 05 b1 a3 b3 5a b3 2d 2d da b0
       0.1276 0.00837 0.01845 -0.1569 -0.2386 -0.2297 0.0809 -0.1516
000140 ab 9d 51 9c 88 ac 43 b0 e2 31 69 2c 0b 30 5e 2f
       -0.005535 -0.004215 -0.0708 -0.1332 0.1838 0.0689 0.1263 0.1151
000150 ad 2a ba 2d fb b0 d3 20 fe 25 8b ad a2 24 89 2d
       0.05215 0.0895 -0.1556 0.00942 0.0234 -0.0866 0.0181 0.0865
000160 c7 b0 0a a8 11 af 5c 2f 59 a9 cf 20 a7 ac 9c 2c
       -0.1493 -0.03156 -0.1104 0.115 -0.04178 0.00939 -0.0727 0.072
000170 fa ae f0 ab 04 27 ab 9a be 31 14 a8 99 28 45 ad
       -0.109 -0.062 0.0274 -0.003256 0.1794 -0.03186 0.03592 -0.08234
000180 08 a6 8a ac 5a b0 31 ad fd ac df 31 ef 9c 32 25
       -0.02356 -0.0709 -0.136 -0.0811 -0.07794 0.1835 -0.004818 0.0203
000190 68 28 93 20 ac 32 2e 95 93 2a 33 aa ec 21 53 24
       0.03442 0.008934 0.2085 -0.001265 0.05136 -0.04843 0.011566 0.01689
0001a0 0e a9 5e ab f2 a8 e6 b1 94 a7 7f a8 cb a9 24 2d
       -0.0395 -0.05756 -0.03864 -0.1843 -0.0296 -0.03513 -0.04526 0.0803
0001b0 10 aa cf a6 12 ac ba a9 d6 ac 4c 27 58 97 c1 24
       -0.04736 -0.0266 -0.0636 -0.04474 -0.07556 0.0285 -0.001793 0.01857
0001c0 7d aa d2 25 6d 28 4d 2c ef a7 09 2c 9a a0 f3 29
       -0.0507 0.02274 0.03458 0.0672 -0.03099 0.06305 -0.00899 0.04648
0001d0 59 1c c1 1c 3b af 93 1e e9 ac 20 b2 3a b1 c0 27
       0.004246 0.004642 -0.113 0.00642 -0.0767 -0.1914 -0.1633 0.03027
0001e0 c9 b1 0b b0 fc ac 8e 1e 41 2c e9 26 67 ab ec ab
       -0.1808 -0.1263 -0.0779 0.0064 0.06647 0.027 -0.05783 -0.0619
0001f0 1b a0 98 20 ca a6 f2 aa b6 a4 86 a0 9e 26 22 ae
       -0.00802 0.00897 -0.02652 -0.05426 -0.0184 -0.008835 0.02585 -0.0958

conv_mid.7.bias f2 [12]
000000 db 1e 12 a4 2e a1 0f 99 55 1c af a4 05 14 ab 20
       0.006695 -0.0159 -0.01012 -0.00247 0.00423 -0.0183 0.000981 0.00912
000010 ad 1d 8f 99 50 24 9d a5
       0.005543 -0.002714 0.01685 -0.02193

conv_mid.8.weight f2 [12, 24, 3, 3]
000000 f3 97 5f a8 0c a9 74 2f 05 a4 dd af 2f ad dc b2
       -0.001941 -0.03415 -0.03943 0.11646 -0.0157 -0.12286 -0.081 -0.2144
000010 55 ae 11 29 58 b1 58 a2 cc 29 25 b3 a8 a2 6e a0
       -0.09894 0.03958 -0.167 -0.01239 0.0453 -0.2233 -0.013 -0.00865
000020 63 2f 18 ac fc aa 9c a9 b3 9e 95 b1 13 30 dc ac
       0.1154 -0.06396 -0.05457 -0.04382 -0.006542 -0.1744 0.1273 -0.0759
000030 79 a9 80 ac 66 a7 9d aa ff a1 8e 22 7c 30 5c 34
       -0.04276 -0.0703 -0.0289 -0.05167 -0.01171 0.0128 0.1401 0.2725
000040 e1 2c 1f 30 15 30 ef 2a dc ad 8c 2a 32 2c b4 ab
       0.07623 0.1288 0.1276 0.05417 -0.09155 0.05115 0.06555 -0.06018
000050 ab 1c 04 82 eb a8 22 28 7f a8 7a 28 3b 2d b8 b0
       0.00456 -3.076e-05 -0.03842 0.0323 -0.03513 0.03497 0.0817 -0.1475
000060 7e 2d 34 aa 60 a9 ff ac a0 2d 54 1e 2f 9e 00 a9
       0.0858 -0.04846 -0.042 -0.07806 0.0879 0.00618 -0.00604 -0.03906
000070 ea a3 0b af 99 a9 42 24 84 28 64 ad 1b 2c f8 a6
       -0.01546 -0.11005 -0.04373 0.01663 0.03528 -0.0842 0.06415 -0.02722
000080 8f 26 c1 a8 4c b0 1c a4 5f ac 98 b1 7b a8 42 26
       0.02562 -0.03714 -0.1343 -0.01605 -0.0683 -0.1748 -0.035 0.02444
000090 f5 30 2e 2a 80 a6 09 2e 04 ab d7 a2 d8 22 29 28
       0.1549 0.04828 -0.02539 0.0943 -0.0548 -0.01336 0.01337 0.0325
0000a0 a6 24 7c 28 9c a8 1b 2d e5 a9 a4 ae 6f aa e0 2d
       0.01816 0.03503 -0.036 0.0798 -0.04605 -0.10376 -0.05026 0.0918
0000b0 69 a2 17 2c 21 a5 2a b0 e8 a9 6d 29 da 2e 4a ad
       -0.01252 0.0639 -0.02003 -0.1301 -0.04614 0.0424 0.10706 -0.08264
0000c0 b9 28 37 31 81 aa 5f 2c c3 2e db 2e c9 2e 61 9e
       0.0369 0.163 -0.0508 0.0683 0.10565 0.1071 0.106 -0.00623
0000d0 2d 29 ef 2c 97 a8 8d 2c 4a 2c cb 2f b0 1b 1b 34
       0.04044 0.0771 -0.03586 0.0711 0.067 0.12177 0.003754 0.2566
0000e0 63 b4 da 26 e7 28 8f 2d 4a 2d ec a8 82 26 69 a3
       -0.2742 0.02676 0.0383 0.08685 0.08264 -0.03845 0.02542 -0.01447
0000f0 67 29 10 26 f8 a7 36 2e 20 ad f0 29 58 2c b4 2e
       0.0422 0.02368 -0.03113 0.09705 -0.0801 0.0464 0.0679 0.10474
000100 8b 2a 7d 30 52 a4 7d 2c 48 30 1c 2e fe 18 b6 2e
       0.05112 0.1403 -0.01688 0.0701 0.1338 0.09546 0.002438 0.10486
000110 6a 21 a6 a8 a5 32 85 32 64 28 da 1a 8b af a5 2c
       0.010574 -0.03632 0.2076 0.2037 0.0343 0.003345 -0.11786 0.0726
000120 38 2f 43 a7 00 ae d5 2f 91 2a f2 a8 31 30 85 2f
       0.1128 -0.02837 -0.09375 0.1224 0.0513 -0.03864 0.131 0.1175
000130 60 ad 8e a6 ea 1f d4 28 80 a6 73 b0 04 2c f7 1f
       -0.084 -0.0256 0.00773 0.03772 -0.02539 -0.139 0.06274 0.00778
000140 5a 9d 1e 2a 65 a4 2e ae 39 21 7e a9 b3 2d 50 a7
       -0.005226 0.0478 -0.01717 -0.09656 0.0102 -0.0429 0.08905 -0.02856
000150 53 a7 b0 9b 8d 29 65 a4 15 2b 48 a8 30 2c 3c 2c
       -0.02861 -0.003754 0.04337 -0.01717 0.05533 -0.03345 0.0654 0.06616
000160 e9 2c db 30 5f 2c 6c 2c 6d b3 99 b4 53 b2 5f b1
       0.0767 0.1517 0.0683 0.0691 -0.232 -0.2874 -0.1976 -0.1678
000170 1a 2c 02 ae f9 ac 51 ac 89 a9 83 2f a3 2c 70 93
       0.0641 -0.0939 -0.0777 -0.06744 -0.04324 0.1174 0.07245 -0.000908
000180 c4 35 08 2b c9 2a 68 30 6f 31 9a a1 35 26 77 aa
       0.3604 0.05493 0.053 0.1377 0.1698 -0.01094 0.02425 -0.0505
000190 24 2e 8a 9f b3 b0 7c 2d aa aa 1d b0 03 22 02 a9
       0.09595 -0.007362 -0.1469 0.0857 -0.05206 -0.1285 0.01174 -0.03912
0001a0 c0 23 56 ab ac b0 74 b0 12 29 63 ad 52 20 d0 a8
       0.01514 -0.0573 -0.146 -0.1392 0.0396 -0.08417 0.00844 -0.0376
0001b0 9c 90 53 aa d6 1c 9c 29 ab 1c 1f 1d 1d a8 1d a8
       -0.0005627 -0.0494 0.004723 0.04382 0.00456 0.005 -0.03214 -0.03214
0001c0 73 ab e3 20 6b aa 0f a8 1b 2d c1 b1 7e a8 cc 24
       -0.0582 0.009544 -0.05014 -0.0317 0.0798 -0.1798 -0.0351 0.01874
0001d0 69 a6 74 a8 ba a1 22 8f 5a 28 ff aa 06 a2 4c ad
       -0.02504 -0.0348 -0.011185 -0.0004354 0.034 -0.05466 -0.011765 -0.08276
0001e0 47 23 0f a7 f0 1f f4 24 04 24 3c 2e c7 b2 15 ac
       0.01421 -0.02757 0.00775 0.01935 0.01569 0.0974 -0.2118 -0.0638
0001f0 85 29 f5 a8 79 28 c5 a1 c4 15 77 23 4f 25 16 aa
       0.04312 -0.03873 0.03494 -0.01127 0.001408 0.01458 0.02074 -0.04755

conv_mid.8.bias f2 [12]
000000 a2 16 23 83 6b 92 4f 14 7d a5 c0 93 63 94 a4 97
       0.001619 -4.786e-05 -0.0007834 0.001052 -0.02144 -0.000946 -0.001071 -0.001865
000010 5b 9f 2b 9b a5 9b ec 16
       -0.007183 -0.0035 -0.003733 0.00169

conv_mid.9.weight f2 [12, 24, 3, 3]
000000 d2 2e 3e af b3 a5 9f ae eb b2 4a b3 99 23 b0 af
       0.10657 -0.11316 -0.02226 -0.10345 -0.2162 -0.2278 0.01484 -0.1201
000010 f2 b0 53 a5 3a a5 44 99 39 26 d4 31 82 a9 d8 ac
       -0.1545 -0.0208 -0.02042 -0.002571 0.0243 0.1821 -0.04303 -0.0757
000020 ba 1e ca 30 aa 1f 20 2b 1c 9e c8 1e 32 30 06 a9
       0.00657 0.1497 0.007484 0.05566 -0.005966 0.006622 0.1311 -0.03925
000030 51 a9 8c 23 29 a4 86 2a 21 22 ec 94 20 28 dd ac
       -0.04153 0.01474 -0.01625 0.05096 0.01197 -0.001202 0.03223 -0.076
000040 79 2d 26 29 80 2d 04 a6 be 28 99 24 89 2c 09 26
       0.0855 0.04022 0.08594 -0.0235 0.03705 0.01796 0.07086 0.02357
000050 a0 a4 a4 ab 1b 29 a3 2b 5b 30 e0 ab 99 26 d7 a6
       -0.01807 -0.0597 0.0399 0.05966 0.1361 -0.06152 0.02577 -0.02672
000060 1e a9 8e aa 6e a8 fc b0 dc a0 99 a9 51 2c 03 32
       -0.03998 -0.0512 -0.0346 -0.1558 -0.00949 -0.04373 0.06744 0.1879
000070 ed 30 50 32 5c 33 49 31 5f 30 fe 32 1f 30 6b a5
       0.1539 0.1973 0.23 0.1652 0.1366 0.2185 0.1288 -0.02116
000080 94 22 c6 ad aa 25 0c 35 4c ad d6 aa 7b 28 fb ac
       0.01285 -0.0902 0.02213 0.3154 -0.08276 -0.0534 0.035 -0.0778
000090 b9 27 f6 2f cb 30 f5 a4 76 2b 41 22 89 a9 71 2e
       0.03017 0.1244 0.1498 -0.01936 0.0583 0.012215 -0.04324 0.10065
0000a0 34 28 e9 a3 3d 26 25 ab 22 ad e9 ad 0b aa a2 a6
       0.03284 -0.01545 0.02437 -0.05582 -0.0802 -0.09235 -0.0472 -0.02591
0000b0 46 ac 01 aa f7 28 99 a9 1a 98 1c 2d 57 a7 ec a6
       -0.0668 -0.0469 0.0388 -0.04373 -0.002003 0.07983 -0.02867 -0.02704
0000c0 7a a4 04 a4 c7 2c 89 a9 43 a2 0f a9 cc a7 90 aa
       -0.01749 -0.01569 0.07465 -0.04324 -0.01223 -0.03952 -0.03046 -0.05127
0000d0 5f ad 7b 2f 00 90 cf 24 dc a6 c7 21 f3 28 e1 ad
       -0.0839 0.1169 -0.0004883 0.01878 -0.0268 0.011284 0.03867 -0.09186
0000e0 13 32 e6 2d 63 28 1f 26 7d ab 7a a8 a0 31 dd a9
       0.1898 0.09216 0.03427 0.02391 -0.0585 -0.03497 0.1758 -0.0458
0000f0 67 2a ee ae 88 31 8e 2f 58 1e 70 b1 49 26 43 9c
       0.05002 -0.1083 0.1729 0.11804 0.006195 -0.1699 0.02455 -0.00416
000100 39 29 e7 22 92 1b 08 2e ff a4 a0 ad bb a9 7f aa
       0.0408 0.01348 0.003696 0.09424 -0.01952 -0.0879 -0.04477 -0.05075
000110 c3 a8 16 a9 5d 26 5c ac 95 21 9f ab 7d a8 e9 29
       -0.0372 -0.03973 0.02486 -0.0681 0.0109 -0.05954 -0.03506 0.04617
000120 9c a7 ce 93 15 b0 5c b0 93 b4 b0 af c9 b1 d8 af
       -0.02972 -0.0009527 -0.1276 -0.1362 -0.286 -0.1201 -0.1808 -0.12256
000130 73 ac 3b 29 0f aa f9 2c 77 a7 2e ab ae 28 5b 11
       -0.0695 0.04086 -0.04733 0.0777 -0.02916 -0.0561 0.03656 0.0006537
000140 72 1c 8c 2d bc a9 a9 ae 4f a4 29 ae 5d 9d 67 20
       0.00434 0.0867 -0.0448 -0.10406 -0.01683 -0.09625 -0.005238 0.0086
000150 f6 ac fc ae 1c ab 17 25 34 2c 87 1c c2 aa 00 ad
       -0.0775 -0.10913 -0.05554 0.01988 0.0657 0.00442 -0.0528 -0.0781
000160 a4 2d 16 96 cf 2e 72 a6 a2 23 ce a6 9e aa d2 a2
       0.08813 -0.001486 0.1064 -0.02518 0.01491 -0.02658 -0.0517 -0.01332
000170 c5 32 93 22 4c 29 0b b0 b7 21 69 25 13 aa 9f 2c
       0.2115 0.01284 0.04138 -0.1263 0.01116 0.02113 -0.04745 0.0722
000180 05 31 6e 2d a2 28 25 2e 1d 32 16 2f b5 2a a6 af
       0.1569 0.08484 0.0362 0.096 0.191 0.1107 0.0524 -0.1195
000190 3d b0 9a ab 82 21 95 22 3a 2a 8d a8 cf 1c 92 9f
       -0.1324 -0.0594 0.01076 0.012856 0.04865 -0.03555 0.004696 -0.007393
0001a0 c6 2e 45 a3 0b 2c a6 2a 42 31 d4 ab 93 2e 9a a5
       0.10583 -0.0142 0.0632 0.05194 0.1643 -0.06116 0.1027 -0.02188
0001b0 da 1f 32 af 65 25 d3 ad 14 af 0e aa 40 a6 ff ab
       0.007668 -0.1124 0.02107 -0.091 -0.1106 -0.0473 -0.02441 -0.06247
0001c0 c6 16 04 2d 00 29 e7 2c 14 2d 29 2d bf 27 c2 a6
       0.001654 0.07837 0.03906 0.0766 0.07935 0.0806 0.03026 -0.0264
0001d0 de a8 88 ab 5d 2d 3f 2e cd 28 db a9 3b 24 34 ac
       -0.03802 -0.05884 0.0838 0.0976 0.0375 -0.04575 0.01653 -0.0657
0001e0 b1 2c f6 2a 62 25 47 2c 69 1f ac a0 3c 22 e4 b1
       0.0733 0.05438 0.02103 0.06683 0.007236 -0.009125 0.01218 -0.1841
0001f0 09 21 3d 2b b5 29 44 14 0f 24 03 2c 2c 9e 34 a5
       0.009834 0.05655 0.0446 0.001041 0.01585 0.0627 -0.006027 -0.02032

conv_mid.9.bias f2 [12]
000000 0a a7 be 1b ca 1d 05 15 e3 98 19 9d 3c 97 23 1d
       -0.0275 0.00378 0.005653 0.001225 -0.002386 -0.00498 -0.001766 0.005016
000010 23 a0 92 a7 47 20 17 a1
       -0.00808 -0.02957 0.008354 -0.00994
