mymodel/amakano_v2.onnx (onnx, 81142 bytes, 30 tensors)

conv_head.weight f2 [12, 3, 3, 3]
00000000: eca6 ce33 0927 5b2b 5b21 1a32 9fa3 ffb0
00000010: 4eac 6eb0 0db2 bd2c 8aaf fd2a ce9d 5a9d
00000020: a42b 6699 e329 8aa8 51aa d828 b8aa 7dad
00000030: 302d 502d 6326 b52d 1529 5827 6633 63b9
00000040: 742e 3faa 2b34 fca9 b9ab 0a2e 74a8 3730
00000050: 61bb 6c32 1da9 e434 f023 c9ab 6531 a8ab
00000060: 4c35 60ba 3e32 ffac 5835 65ac 60ad a126
00000070: 212c e62e 7e38 8fb9 e92a 61a1 6120 caa9
00000080: a6ad d5a9 3631 d238 53ba 4ca2 6b2d f9ad
00000090: 46a5 17a1 5425 0830 2639 0aba 0d29 692c
000000a0: a4b0 91aa a2a7 db33 3ab3 bcb8 3b36 8c27
000000b0: 3aa9 fb31 cf20 0d28 f7ac eca4 2cb8 8c31
000000c0: 592e 9fa8 00aa ef25 a72c 932d b41d feb6
000000d0: 3336 4d25 1dac 3f24 1cac a5b0 c52e e6b2
000000e0: df32 6b2c 55a5 282f c82b 0cb2 13b4 472b
000000f0: 9cb5 7d36 622d cd28 a42f 5428 92b0 fcb2
00000100: 02ac 5ab2 e437 4827 272c fe30 122a cb16
00000110: 7ca4 979c b6a5 44b0 22a3 761c d1a4 f7a0
00000120: e0a6 6429 7f24 9326 383c 11a6 6fa8 8120
00000130: 4928 1824 e5a4 46a7 8b0c 9cbb db2a 0726
00000140: 8024 eaa8 3cae e0ad 4a27 70b1 6435 f2ad
00000150: 04b2 c5b3 21a4 d3ac 572a 36b0 8cb0 ed32
00000160: bc2e 61aa 7b2c beac f82a 5d2f 6ba9 002f
00000170: 6435 fe26 2d32 af2e aea2 c5a7 8fb2 c2b0
00000180: bc2f de34 d12a 0e29 25ab 84ac 88b2 78a2
00000190: 38a3 b818 2538 7c30 e7b1 fab3 87ac dfb4
000001a0: f4af be1f e4b2 6739 bb32 04b1 5eb0 5dad
000001b0: 12ac 85b4 1ea9 4728 fbb1 42b0 ca27 4a37
000001c0: 862d f4a6 93b2 49a6 342c d9b2 3ead 49a9
000001d0: a838 fa27 ef2a 7bb1 2524 8a20 a0b4 f3ad
000001e0: 56ad 9537 dba5 c028 cc3a 1baf 8528 a7b8
000001f0: 24b2 57ad 1e28 8ea2 7bac de37 b0b0 9da7
-0.02704 0.2439 0.02748 0.05746 0.01046 0.1907 -0.014885 -0.1561
-0.06726 -0.1384 -0.1891 0.07404 -0.1178 0.0546 -0.00567 -0.005226
0.0597 -0.002636 0.046 -0.03546 -0.04935 0.03784 -0.0525 -0.08575
0.08105 0.083 0.02495 0.0892 0.0397 0.02869 0.2312 -0.6733
0.1008 -0.0488 0.2605 -0.04675 -0.06033 0.09436 -0.0348 0.1317
-0.9224 0.2007 -0.03995 0.3057 0.0155 -0.06082 0.1686 -0.0598
0.331 -0.797 0.1951 -0.07806 0.334 -0.06866 -0.084 0.0259
0.0645 0.1078 0.5615 -0.695 0.054 -0.010506 0.00855 -0.04523
-0.08826 -0.04556 0.1628 0.6025 -0.7905 -0.0123 0.08466 -0.0933
-0.0206 -0.00994 0.02081 0.126 0.6436 -0.755 0.03946 0.0689
-0.145 -0.0513 -0.02982 0.2455 -0.2258 -0.592 0.3894 0.02948
-0.04083 0.1869 0.00939 0.03165 -0.0776 -0.01923 -0.5215 0.1733
0.0992 -0.0361 -0.04688 0.02318 0.0727 0.0871 0.00557 -0.437
0.3875 0.0207 -0.0643 0.01659 -0.0642 -0.1451 0.1058 -0.2156
0.2147 0.06903 -0.02083 0.1118 0.0608 -0.189 -0.2546 0.05685
-0.3506 0.4055 0.0841 0.0375 0.1194 0.0338 -0.1428 -0.2183
-0.0626 -0.1985 0.4932 0.02844 0.0649 0.156 0.04742 0.001658
-0.01752 -0.004482 -0.02231 -0.1333 -0.01393 0.004356 -0.01881 -0.0097
-0.02686 0.0421 0.01756 0.02568 1.055 -0.0237 -0.03464 0.0088
0.03348 0.01599 -0.01912 -0.02841 0.0002773 -0.951 0.05356 0.02354
0.01758 -0.0384 -0.0974 -0.0918 0.02847 -0.1699 0.337 -0.0929
-0.188 -0.2428 -0.01613 -0.0754 0.04953 -0.1316 -0.1421 0.2164
0.1052 -0.04984 0.07 -0.0741 0.05444 0.11505 -0.04233 0.1094
0.337 0.02731 0.193 0.10443 -0.01305 -0.03035 -0.205 -0.1487
0.12085 0.3042 0.05325 0.0395 -0.05582 -0.07056 -0.2041 -0.012634
-0.0141 0.002304 0.518 0.1401 -0.1844 -0.2493 -0.07074 -0.3044
-0.12427 0.00756 -0.2153 0.6753 0.2103 -0.1567 -0.1365 -0.0838
-0.0636 -0.2825 -0.03998 0.03342 -0.1869 -0.133 0.03043 0.4556
0.0863 -0.02716 -0.2054 -0.02455 0.0657 -0.214 -0.0819 -0.0413
0.582 0.03116 0.05417 -0.1713 0.01619 0.008865 -0.289 -0.09296
-0.0834 0.4739 -0.02287 0.0371 0.8496 -0.111 0.0353 -0.5815
-0.1919 -0.08344 0.03217 -0.0128 -0.07 0.4917 -0.1465 -0.02974

conv_head.bias f2 [12]
00000000: 8b2e 56a4 309f ce21 b9b3 8929 e12f 061a
00000010: 8431 f326 9aa8 01a7
0.10223 -0.01694 -0.00702 0.01134 -0.2413 0.04324 0.1231 0.002941
0.1724 0.02715 -0.03595 -0.02736

conv_mid.0.weight f2 [12, 24, 3, 3]
00000000: 2229 aca5 9a21 08ad 7ca6 5cac 05a8 7594
00000010: 408f c532 932c 0133 eea8 0434 6f94 dd2c
00000020: 2222 a730 47af 1d31 53a9 d031 70b0 c330
00000030: 2db0 fba0 b5a9 e12d cba4 d728 c9ac 4d32
00000040: 9baa a4a9 40a1 b0a8 dcae 1b2b 31ac 442e
00000050: 94ad f72f 679e d6ab 45ae 90aa c7ad 4829
00000060: a8a9 402b dfa8 f4a8 c020 67a0 17a6 48a8
00000070: 2ead 2b1b 2eac 26a2 1ba0 84a4 c92c 74a1
00000080: f82e 84ac 8da3 0bad 391e 1327 d8ac 2b23
00000090: 6f2d 4cb2 632e d52c 681c 0c28 ea26 2fad
000000a0: ce28 092c f0b1 f029 d3ad 7734 54a9 5e2d
000000b0: f0b0 f02e 701e 7f2c b0aa c52c 8928 4328
000000c0: 1cac 91a6 b0a2 ea27 a428 e5ad 7b2a 6228
000000d0: a420 0ca4 a6a8 59ab d5ad 96ae 15ae acad
000000e0: e7ab bbad 9cad 42ac b1ad 86b2 7636 e6b2
000000f0: 1633 07b5 7134 9ea5 1731 77ab d330 10b4
00000100: 4c2c bcb0 d733 caab 2d2c cea7 8f9e b1ab
00000110: ea2e 02b1 602c 30b1 672c 9325 dda8 3fa2
00000120: 2b30 dbb0 112b f4b0 a232 b5ae bfa9 a825
00000130: 2024 a627 5b28 55a8 4e30 2e28 b921 11a8
00000140: 37ad f322 f29f 82a4 8723 ba23 0d2f 18ac
00000150: 05a8 b11e 38ad 68aa 5fb1 182d 242e ed33
00000160: 58aa 00ac 0827 68aa ca82 3629 1ca3 02a5
00000170: 7b28 7198 c7aa 312c 49ab 66ac 2c32 b4a4
00000180: 522f 7eb4 fa2f 95ad 5b30 29b0 0d2a b7b0
00000190: 9d2d 9ba1 0f34 87ab a0a8 4ba7 7ea5 1b1e
000001a0: 8caa fe26 b510 2331 03aa dfa8 20a5 2d27
000001b0: fc23 f227 7123 aba6 6d28 9aae 4e25 98af
000001c0: 4caf 0029 2a2d 642a 1923 fe2e a021 e99d
000001d0: f520 2ba1 52a9 0622 d327 3c26 7a9c 2326
000001e0: 6f27 50a2 db22 09a3 d82b 6727 9aa8 21a6
000001f0: 8417 7626 cda2 3326 3628 3929 652d e520
0.0401 -0.02216 0.01094 -0.0786 -0.02533 -0.0681 -0.0314 -0.001088
-0.0004425 0.2115 0.0715 0.2189 -0.0385 0.251 -0.001082 0.076
0.01198 0.1454 -0.1137 0.1598 -0.0416 0.1816 -0.1387 0.1488
-0.1305 -0.00973 -0.0446 0.09186 -0.01872 0.0378 -0.07477 0.1969
-0.0516 -0.04407 -0.010254 -0.03662 -0.1072 0.0555 -0.0655 0.0979
-0.08716 0.12445 -0.006252 -0.06122 -0.09796 -0.05127 -0.0903 0.04126
-0.0442 0.05664 -0.03806 -0.0387 0.00928 -0.0086 -0.02379 -0.03345
-0.08093 0.0035 -0.0653 -0.01201 -0.00802 -0.01764 0.07477 -0.01065
0.1089 -0.07056 -0.01475 -0.0788 0.006077 0.02763 -0.0757 0.014
0.0849 -0.1968 0.0998 0.0755 0.004303 0.03162 0.02701 -0.081
0.03754 0.06305 -0.1855 0.0464 -0.091 0.279 -0.04163 0.08386
-0.1543 0.1084 0.006287 0.07025 -0.05225 0.0745 0.03543 0.0333
-0.0642 -0.02565 -0.01306 0.03091 0.03625 -0.0921 0.05063 0.03424
0.00906 -0.01581 -0.03632 -0.0574 -0.0911 -0.1029 -0.09503 -0.0886
-0.06174 -0.08954 -0.08765 -0.0665 -0.0889 -0.2039 0.4038 -0.2156
0.2214 -0.3142 0.2776 -0.02194 0.159 -0.05832 0.1508 -0.254
0.06714 -0.148 0.245 -0.06085 0.06525 -0.03049 -0.006405 -0.0601
0.10803 -0.1565 0.06836 -0.1621 0.0688 0.02177 -0.038 -0.0122
0.1302 -0.1517 0.0552 -0.1548 0.2073 -0.1048 -0.0449 0.0221
0.01611 0.02988 0.03403 -0.03384 0.1345 0.03265 0.01118 -0.03177
-0.0815 0.01357 -0.00776 -0.01761 0.0147 0.01509 0.11017 -0.06396
-0.0314 0.006535 -0.08154 -0.05005 -0.1678 0.0796 0.09595 0.2477
-0.04956 -0.0625 0.02747 -0.05005 -4.256e-05 0.0407 -0.013885 -0.01956
0.035 -0.002169 -0.05295 0.0655 -0.05692 -0.0687 0.1929 -0.01837
0.1144 -0.2808 0.12463 -0.0872 0.1361 -0.13 0.04727 -0.1473
0.0877 -0.01095 0.2537 -0.0588 -0.03613 -0.02849 -0.02145 0.005962
-0.05115 0.02731 0.0005746 0.1605 -0.04697 -0.03806 -0.02002 0.02803
0.015594 0.03104 0.014534 -0.02605 0.03458 -0.10315 0.02072 -0.11865
-0.114 0.03906 0.0807 0.04993 0.01386 0.10925 0.01099 -0.00577
0.00968 -0.01009 -0.04156 0.011765 0.03056 0.02435 -0.00437 0.02397
0.02904 -0.01233 0.01339 -0.01374 0.06128 0.02892 -0.03595 -0.02394
0.001835 0.02524 -0.01328 0.02422 0.0329 0.0408 0.0843 0.00956

conv_mid.0.bias f2 [12]
00000000: 11a4 2429 c1a2 242c 66a3 c733 c4ae 5b29
00000010: 4398 ac14 2aa3 23ac
-0.01588 0.04016 -0.01319 0.0647 -0.01445 0.243 -0.1057 0.04184
-0.00208 0.001141 -0.01399 -0.06464

conv_mid.1.weight f2 [12, 24, 3, 3]
00000000: c79f 2422 3b26 5f2e d832 a1a4 d833 772e
00000010: 0924 47a9 a520 61aa 3024 d534 d2ad e527
00000020: 1328 7f24 b7ad 6ca4 11a9 7522 9d30 2baa
00000030: d4a5 dea9 b899 ae25 c99f 082c 1fa8 0130
00000040: a8ac e7a5 12a8 52a8 342a b4a4 8c24 22ae
00000050: bd31 d79b a4a4 3dad b1aa 6693 8da5 29a0
00000060: 529c 7826 5ba3 29a1 5b1c 4a29 ef97 3d99
00000070: 5dae 5fa8 1da2 01bb 731c a3ae 28ad 2a9c
00000080: dc2c 9725 04a7 272f 9fa2 192d 2e1d bea6
00000090: 2cad a62d 8fac c4ae c8b3 b5b1 7d2d 3ba9
000000a0: 3e24 642d 1c2f a32e 232e 4733 dc30 b02e
000000b0: 6d2f 362e 03ac 63b0 a8b0 bbaa b7ab c6a5
000000c0: 32ad bc0e 6ab0 e223 5fad b61e 3eab d627
000000d0: cba7 c6ac 952c 4d28 2d25 0e9e a2ac bbab
000000e0: 69b0 d62c 1cae cea5 29a2 54a7 fb27 e9a9
000000f0: 27a9 a8ad f62a 51a7 b49e c62b 0c1c 75ad
00000100: 721c 9726 5fad 6ea9 979c a92b eca3 8a2a
00000110: 0198 a524 499e 12ac f823 172c 2227 d323
00000120: 44a9 65a5 1396 812c 3bb0 0da3 16a5 992c
00000130: ef9f e325 80b1 5dab 6d25 852b c3ab 4424
00000140: f9a6 41a6 b522 988d fe2a e221 f49a faad
00000150: 8b18 2a9e bb25 212c cea4 1f98 2b30 f7ae
00000160: a5a5 87aa 7a2a f1a2 edb0 95b0 0a9e 6eaa
00000170: ac31 6f21 b2a6 29a5 7bae db2b 8a29 b32c
00000180: 6e2d 4c2d 3d2e b82f e52e 1e2b 589b daa6
00000190: 2baf 5aa9 5bac eea8 73a9 baa8 8526 27ad
000001a0: 6b29 7f28 112d faa0 d1a9 28a5 84a6 f8a0
000001b0: 271d 948e 86a2 4a21 1f2d 1e24 b1a9 ac22
000001c0: 5624 8824 222c a80e cd2c 6424 5125 8c1c
000001d0: e72e ea23 7eaa bdac 6c99 72a3 d4b0 942d
000001e0: 632b b52b 042b 6ca2 3529 9e1d 8625 c737
000001f0: 96ad 04ab 6eae 43a0 422d 28a6 36a4 a0b1
-0.007595 0.01199 0.02434 0.09955 0.2139 -0.01808 0.2451 0.101
0.01576 -0.04123 0.00907 -0.04984 0.01636 0.302 -0.09094 0.03084
0.03183 0.01756 -0.0893 -0.01727 -0.03958 0.01261 0.1442 -0.0482
-0.02277 -0.04584 -0.002792 0.02219 -0.007603 0.063 -0.0322 0.1251
-0.07275 -0.02306 -0.0318 -0.03375 0.04846 -0.01837 0.01776 -0.0958
0.1793 -0.003828 -0.01813 -0.08185 -0.05228 -0.000903 -0.02168 -0.008125
-0.00422 0.02527 -0.014366 -0.01008 0.004253 0.04132 -0.001937 -0.002558
-0.0994 -0.03415 -0.01194 -0.8755 0.004345 -0.1037 -0.08057 -0.004066
0.0759 0.02184 -0.0274 0.11176 -0.01293 0.07965 0.00506 -0.02634
-0.0808 0.08826 -0.0712 -0.1057 -0.2432 -0.1783 0.08575 -0.04086
0.01657 0.0842 0.1111 0.1037 0.0959 0.2274 0.1519 0.1045
0.116 0.09705 -0.0627 -0.1371 -0.1455 -0.05258 -0.06027 -0.02255
-0.0812 0.000411 -0.138 0.015396 -0.0839 0.006554 -0.05658 0.03061
-0.03044 -0.0746 0.0716 0.0336 0.02022 -0.005913 -0.0724 -0.0604
-0.1378 0.07556 -0.09546 -0.02267 -0.01203 -0.02863 0.03117 -0.04617
-0.04025 -0.0884 0.05438 -0.02858 -0.006546 0.06073 0.003952 -0.08527
0.00434 0.02574 -0.0839 -0.04242 -0.004482 0.05984 -0.01547 0.0511
-0.001955 0.01814 -0.006138 -0.0636 0.015564 0.0639 0.02786 0.01528
-0.04114 -0.02107 -0.001483 0.0704 -0.1322 -0.01377 -0.01987 0.07184
-0.007748 0.023 -0.1719 -0.05753 0.0212 0.05875 -0.06064 0.01666
-0.02724 -0.02443 0.0131 -0.0003414 0.05463 0.01149 -0.003395 -0.0934
0.002218 -0.00602 0.02238 0.0645 -0.01877 -0.002012 0.1302 -0.1088
-0.02205 -0.051 0.0506 -0.01356 -0.1539 -0.1432 -0.005898 -0.05023
0.1772 0.01061 -0.02615 -0.02016 -0.10126 0.06137 0.04327 0.0734
0.08484 0.08276 0.0975 0.1206 0.1077 0.0556 -0.003586 -0.02676
-0.112 -0.0418 -0.06805 -0.0385 -0.04257 -0.03693 0.02547 -0.0805
0.04233 0.03513 0.07916 -0.00972 -0.04544 -0.02014 -0.02545 -0.009705
0.00503 -0.0004015 -0.01274 0.01033 0.08 0.01608 -0.04446 0.01303
0.01694 0.0177 0.0646 0.0004063 0.075 0.01715 0.02077 0.00444
0.10785 0.01546 -0.05072 -0.07404 -0.002647 -0.01454 -0.1509 0.08716
0.0577 0.0602 0.0548 -0.01254 0.04068 0.005486 0.02158 0.486
-0.0873 -0.0548 -0.10046 -0.00832 0.08215 -0.02405 -0.01645 -0.1758

conv_mid.1.bias f2 [12]
00000000: 4fa8 7e21 4ea6 c91f 111e 87a0 e926 82a8
00000010: 1b9c 061e a0a3 c21c
-0.03366 0.01073 -0.02463 0.007603 0.005924 -0.00884 0.027 -0.03522
-0.00401 0.005882 -0.01489 0.004646

conv_mid.2.weight f2 [12, 24, 3, 3]
00000000: 16a2 0da6 3b2c 3cac ad2b e62a 95ac 53b0
00000010: 7da9 63a5 ceac 262c cba8 8f33 61aa 74a6
00000020: 2427 1529 7bac 7e29 882d 322c 1fa2 1e2e
00000030: 2725 792e 4aac 032d 612e 1928 c529 cb22
00000040: 9bae 75af feac 1093 e7ae 3d32 28ad 9bb1
00000050: e22d 22a6 2f2e 86ac 62ad d6a8 1d10 b51b
00000060: 7b14 2130 c6a3 5194 25ac b9a5 dd2e dd24
00000070: 3dae 5ca9 092d f5ad b1ae e6a8 4c28 4aaa
00000080: e2b1 8833 fb1d ff30 d21c 6e9d ab2d 6ea2
00000090: a92a cf31 14ab 14a4 2330 35b0 dd2c 6d2b
000000a0: 0928 7c98 8932 0cb1 a8a9 3eaf 22b4 4f2b
000000b0: 702c a6a0 a52f 03af c8ad c7a8 9b2f f4a9
000000c0: 53a6 212a aa2a 3529 b122 5ea9 f1ae 97b5
000000d0: f1a4 54a6 82b4 0bac f1af f923 fd33 bca8
000000e0: e638 8f30 9c31 ef31 6a9c 482b 62b0 cba9
000000f0: 062e f6b5 41ae 282c 52ac 17a5 9f20 7c29
00000100: 74ae 8b22 1229 3c2c 18ac 8ead 97af 52a7
00000110: 30ad c3b0 3cb0 f81a cc29 a420 3196 7220
00000120: 65a2 3dad 862e 442d 3bb0 76a6 92ad a0aa
00000130: 6aaa 192f 102f 322b 1cac 6db3 412e 7624
00000140: 00a9 c833 c9af 382c 3ea6 6aaf 12b1 c429
00000150: 0a2d 5d2e 91aa ed9d 3525 d7a7 74a6 5bac
00000160: 082a c79e 8da9 a313 c8a4 201b c72a 7da8
00000170: 70ac 4fa9 dc29 6a28 38ac 3dad 42a0 3e29
00000180: 1925 bb32 1031 40a5 b62d a623 4831 cb2c
00000190: ce2c a215 b2b3 e430 f128 582f 6b34 1c2c
000001a0: 7b1c 7728 b62d 3d28 0f2a 2bb0 3bb0 ecae
000001b0: 4aa6 792b b01f 7b99 e4a9 5827 1e23 ada9
000001c0: 3da2 75a8 c520 fd2b fc9e deaf cf9d 9824
000001d0: 0328 1f23 5225 6720 45a9 e793 319f a22a
000001e0: a9ad 462b 731c de98 361a 3118 7322 5b2e
000001f0: a4a1 f3a4 04a9 dc24 e29f 87a3 361d 99ad
-0.01189 -0.02364 0.0661 -0.06616 0.05997 0.0539 -0.0716 -0.1351
-0.04288 -0.02104 -0.0751 0.0648 -0.03745 0.2362 -0.04984 -0.0252
0.0279 0.0397 -0.07 0.0429 0.0864 0.06555 -0.011955 0.0956
0.02013 0.10114 -0.067 0.0783 0.0997 0.032 0.04507 0.01327
-0.1032 -0.1165 -0.078 -0.000862 -0.10785 0.195 -0.08057 -0.1752
0.0919 -0.02396 0.0966 -0.0707 -0.0841 -0.03778 0.000502 0.003763
0.001094 0.129 -0.01518 -0.001054 -0.06476 -0.02235 0.10724 0.019
-0.0975 -0.04187 0.0787 -0.0931 -0.10455 -0.03827 0.03357 -0.04913
-0.1838 0.2354 0.00584 0.1561 0.004707 -0.005302 0.08856 -0.01256
0.05203 0.1815 -0.0553 -0.01593 0.1293 -0.1315 0.076 0.058
0.03152 -0.00219 0.2042 -0.1577 -0.0442 -0.11316 -0.2583 0.0571
0.06934 -0.00908 0.11945 -0.10956 -0.09033 -0.03732 0.11884 -0.0465
-0.0247 0.04788 0.05206 0.04068 0.01307 -0.04193 -0.10846 -0.3494
-0.0193 -0.02472 -0.2817 -0.0632 -0.1241 0.01557 0.2496 -0.037
0.6123 0.1425 0.1753 0.1854 -0.00431 0.0569 -0.137 -0.04526
0.0941 -0.3726 -0.0977 0.06494 -0.0675 -0.01988 0.009026 0.04285
-0.1008 0.01278 0.0396 0.06616 -0.06396 -0.0868 -0.1186 -0.0286
-0.08105 -0.1488 -0.1323 0.003403 0.0453 0.00906 -0.001512 0.00868
-0.01249 -0.08185 0.1019 0.0823 -0.1322 -0.02524 -0.08704 -0.05176
-0.0501 0.1109 0.11035 0.0562 -0.0642 -0.232 0.0977 0.01743
-0.03906 0.2432 -0.12164 0.0659 -0.02438 -0.11584 -0.1584 0.04504
0.07874 0.0994 -0.0513 -0.005787 0.02034 -0.03062 -0.0252 -0.06805
0.04712 -0.00662 -0.04337 0.000932 -0.01868 0.003479 0.05295 -0.03506
-0.06934 -0.04147 0.04578 0.0345 -0.0659 -0.08185 -0.008316 0.04095
0.01991 0.2103 0.1582 -0.02051 0.08923 0.01494 0.165 0.0749
0.0751 0.001375 -0.2405 0.1528 0.0386 0.11475 0.2761 0.0642
0.004375 0.03488 0.08923 0.0331 0.04733 -0.1302 -0.1322 -0.10815
-0.02457 0.05838 0.007507 -0.002676 -0.04602 0.02869 0.0139 -0.04434
-0.012184 -0.03482 0.009315 0.0624 -0.00682 -0.1229 -0.005672 0.01794
0.03134 0.01391 0.02078 0.0086 -0.04117 -0.0009646 -0.007023 0.05182
-0.08844 0.05682 0.004345 -0.002377 0.003033 0.002047 0.012596 0.0993
-0.01102 -0.01933 -0.03918 0.01898 -0.007698 -0.0147 0.00509 -0.08746

conv_mid.2.bias f2 [12]
00000000: 48aa 5596 899f f298 4916 b122 f091 1aa4
00000010: 5c24 6523 bb1d 3fa3
-0.04907 -0.001546 -0.00736 -0.002415 0.001534 0.01307 -0.000725 -0.01602
0.01703 0.01444 0.005596 -0.01415

conv_mid.3.weight f2 [12, 24, 3, 3]
00000000: a7aa 9626 c228 04ac 1eb4 b42c 95ae e930
00000010: 4b27 a431 2c31 2729 a231 b631 c92c 0512
00000020: 842b a430 d026 a5b2 5da8 a528 6f32 2c24
00000030: d11a 742a c3a6 e8a0 7921 9da8 d8b1 a2b6
00000040: 86af fda9 eaac 8c2b 3c21 df21 fba9 cd28
00000050: 3532 d5a4 b223 d6a6 edaa d419 bd2e ed27
00000060: c5a1 a3b2 aaa9 88a8 a8ac 5bac 151c f3ae
00000070: 35a8 9a28 45b3 69a0 c8aa d7b3 3eac 93a7
00000080: 2a31 3eae 69b0 47b0 52b3 0aac 43b4 13ad
00000090: 22a8 70ac 6d2c f3a6 02a7 df21 a9ae e5af
000000a0: f590 7f97 dc31 cf30 572c bb34 7ca7 53aa
000000b0: c6ac 31a7 6b2c 4d1f 2095 072e 1531 4d29
000000c0: e02c 5cad c428 1529 3ca1 c09e c72c b8a8
000000d0: 86ac 4a2f cba8 f0a5 461b 9927 6e2a 7528
000000e0: 3634 f02b d02d 5e24 2ab0 e02c 232f 6230
000000f0: d931 dcb0 4e9d da2e d233 c49e f2a2 752d
00000100: 3722 c4a7 9fb7 b5a5 ab25 b9ad 612c 34a9
00000110: b7ad abac a330 dc33 752b 8e2c 10ab a9ad
00000120: 0ba6 52a6 28a6 3baa 00b5 49ac 3528 f02c
00000130: dbaa 7f30 afac fba7 882c 6d3a bb24 3929
00000140: 18a4 662e 6430 ff2d 0ba8 bb9f fb39 312a
00000150: 1f30 7a30 4830 282a 6d1f 362e 7c2d 1d2f
00000160: b22e 7da9 dd2d 7ca4 402d 0b94 1191 dc14
00000170: f3aa 4793 3026 be32 d79f cf2b 64af 61a8
00000180: 212c cbad 1c34 1a2c dd30 282c 242c ac99
00000190: 5724 77ab 1faf ee16 6a2b 1e28 122b 4bb1
000001a0: 6eb2 62ad 3eb4 c3b9 fcb0 5db4 872c 8bb1
000001b0: 1f29 841e 6ca9 9024 8cae 6e2b 64ac 9a30
000001c0: c6ab c2a6 4229 3631 a626 c133 2c31 24a5
000001d0: f629 a02e 3531 a534 e72d 7f25 31a2 d3a9
000001e0: 2a16 95af d3a8 a42c ec2b 91a6 34a0 8d2c
000001f0: 091d fd2b b72b eb2c 39a5 7126 5d25 401e
-0.05197 0.02573 0.03717 -0.06274 -0.2573 0.0735 -0.10284 0.1534
0.02849 0.1763 0.1616 0.04025 0.176 0.1785 0.07477 0.000735
0.05872 0.145 0.02661 -0.2076 -0.0341 0.0363 0.201 0.0163
0.003328 0.0504 -0.02641 -0.00958 0.01069 -0.03604 -0.1826 -0.4146
-0.11755 -0.04678 -0.0768 0.05896 0.01022 0.01147 -0.04672 0.0375
0.194 -0.01888 0.01503 -0.0267 -0.0541 0.002846 0.1053 0.03096
-0.01127 -0.2074 -0.04425 -0.0354 -0.07275 -0.06805 0.003986 -0.1086
-0.03287 0.03595 -0.2272 -0.00861 -0.05298 -0.245 -0.0663 -0.02959
0.1614 -0.09753 -0.1378 -0.1337 -0.2288 -0.0631 -0.2664 -0.0793
-0.0323 -0.06934 0.06915 -0.02715 -0.02737 0.01147 -0.10406 -0.12335
-0.000605 -0.00183 0.1831 0.1503 0.0678 0.2957 -0.02924 -0.0494
-0.0746 -0.02809 0.06903 0.00713 -0.001251 0.0942 0.1588 0.0414
0.0762 -0.08374 0.03723 0.0397 -0.01022 -0.00659 0.07465 -0.03687
-0.0707 0.1139 -0.03745 -0.0232 0.003551 0.02968 0.05023 0.03482
0.2632 0.062 0.0908 0.01706 -0.1301 0.0762 0.1115 0.137
0.1827 -0.1519 -0.00518 0.10706 0.2444 -0.006607 -0.013565 0.08527
0.01214 -0.03033 -0.4763 -0.0223 0.02214 -0.0894 0.0684 -0.04065
-0.0893 -0.07294 0.1449 0.2456 0.05826 0.07117 -0.05518 -0.08844
-0.0236 -0.02469 -0.02405 -0.04868 -0.3125 -0.06696 0.03287 0.07715
-0.05356 0.1405 -0.0732 -0.03117 0.0708 0.803 0.01848 0.0408
-0.01599 0.1 0.1372 0.0937 -0.0316 -0.00755 0.7476 0.04837
0.1288 0.1399 0.1338 0.0481 0.00725 0.09705 0.0857 0.11115
0.1046 -0.04288 0.0916 -0.01752 0.08203 -0.000987 -0.0006185 0.001186
-0.0543 -0.0008883 0.02417 0.2107 -0.007656 0.061 -0.1155 -0.0342
0.0645 -0.0905 0.2568 0.0641 0.152 0.06494 0.0647 -0.00277
0.01695 -0.05832 -0.11127 0.001692 0.05792 0.03217 0.05524 -0.1654
-0.2009 -0.0841 -0.2651 -0.72 -0.1558 -0.2727 0.07074 -0.1732
0.04 0.006363 -0.04236 0.01782 -0.1023 0.05804 -0.0686 0.1438
-0.06073 -0.0264 0.04108 0.1628 0.02597 0.2423 0.1616 -0.02008
0.04657 0.1035 0.1627 0.2903 0.0922 0.02147 -0.01209 -0.0455
0.001505 -0.11847 -0.0377 0.0725 0.0619 -0.02565 -0.00821 0.0711
0.004917 0.0624 0.06027 0.07684 -0.0204 0.02516 0.02095 0.006104

conv_mid.3.bias f2 [12]
00000000: dda5 401b a5a4 6624 6029 c022 6ca2 3d24
00000010: d3a4 3ea0 eaa1 01a9
-0.0229 0.00354 -0.01814 0.01718 0.042 0.01318 -0.01254 0.01656
-0.01884 -0.008286 -0.01155 -0.0391

conv_mid.4.weight f2 [12, 24, 3, 3]
00000000: 9aac a326 acae d929 5a2c 8a9c 9aaa 1f25
00000010: d5ac a2a3 2029 19a6 b12c b42e 7b2a 6e9b
00000020: 2caa 7725 82ac 64a6 5fac 23ac 5e2c c6aa
00000030: 81ab 619c 1fad c624 1e27 b01d 63b1 732e
00000040: 4ead e925 4728 ea2d 63a7 2226 3fab a822
00000050: d217 491a 32a0 2c2f 1ea0 d693 6c21 b4a8
00000060: 3fac d22e 65ad 5326 322b a51c e3a4 f927
00000070: 70a8 c21e 57b1 3d30 9922 a625 2ab2 99a4
00000080: 65aa 0eae e129 d61f fd21 33a1 6526 398d
00000090: a59c 48a2 482c 88a7 222f 9caf d998 fcad
000000a0: b928 0f1b 7dab 0eaf d823 0728 bbac be28
000000b0: 442c 16a6 9fa9 572c d929 912d 4528 94a0
000000c0: f3aa b421 8127 34a4 3c2c 249c bf27 12b1
000000d0: a325 8eae f831 3019 b62e 81b0 302f 56ad
000000e0: 092c 63ad 1a1e 49aa aa2f 8328 64a8 dd27
000000f0: 9dac 25ad 5022 d72a fa29 359d f7ae 77a5
00000100: e12e 5d25 ea30 03b5 78a7 61af bc30 9b2b
00000110: 3d2b 9ea7 e0a5 4faf d431 33ae 442d c8b0
00000120: 7b26 46a9 b72d 6022 a330 52ad 7ba2 2dae
00000130: ad1d bb2c d02d de24 ca25 62af f3a4 5221
00000140: dfb1 182c a919 a920 f717 f59c 742d d8a5
00000150: 462d f225 942f e7a1 b52a 092c d2a4 1124
00000160: 769f 1aac 72ae a32f caa8 552e b0ac 3e29
00000170: cba9 082d ba29 b629 30aa 1399 d22e bc30
00000180: ee2f f8a9 822e 3210 d19f a02e a1ac e99d
00000190: 73ad 302a c6ab 5e27 dc99 db29 81ab b1a5
000001a0: 00aa 9ca7 1418 bc29 f327 c929 51ae 11ad
000001b0: 8b29 4b2d db2b 4cb0 17b1 a6b0 fbac 9129
000001c0: 57a5 9a2e f8a6 7cab 022f 4938 5c2d 82af
000001d0: 262d c028 dfab 57b4 32af ac30 d8ad 9e2f
000001e0: eb2c 652a c832 901f 76b0 6832 e52e 8130
000001f0: 34b4 ed29 282d a52f eca9 7faf 82ab e927
-0.0719 0.02592 -0.10425 0.0457 0.068 -0.004433 -0.05157 0.02
-0.0755 -0.01491 0.04004 -0.02382 0.0733 0.10474 0.05063 -0.003628
-0.04822 0.02135 -0.07043 -0.02496 -0.0683 -0.06464 0.06824 -0.05292
-0.05862 -0.004276 -0.08 0.01865 0.0278 0.005554 -0.1683 0.10077
-0.0829 0.02309 0.03342 0.0924 -0.02885 0.02396 -0.0566 0.013
0.001909 0.003069 -0.008194 0.11206 -0.00804 -0.0009565 0.01059 -0.03674
-0.06635 0.10657 -0.0843 0.0247 0.0562 0.004536 -0.01909 0.03114
-0.03467 0.0066 -0.1669 0.1324 0.012886 0.02206 -0.1926 -0.01796
-0.04996 -0.0946 0.04593 0.007652 0.011696 -0.010155 0.02498 -0.0003188
-0.004536 -0.01227 0.0669 -0.02942 0.11145 -0.1189 -0.002367 -0.0935
0.0369 0.003447 -0.0585 -0.1102 0.01532 0.03146 -0.0739 0.03705
0.06665 -0.02377 -0.0439 0.0678 0.0457 0.087 0.03336 -0.00894
-0.0543 0.01114 0.02931 -0.01642 0.06616 -0.004044 0.03026 -0.1584
0.02202 -0.1024 0.1865 0.002533 0.10486 -0.1407 0.1123 -0.0834
0.06305 -0.08417 0.00596 -0.0491 0.11975 0.03525 -0.0343 0.03072
-0.0721 -0.0804 0.01233 0.05344 0.0467 -0.005085 -0.1088 -0.02135
0.1075 0.02095 0.1536 -0.3132 -0.02917 -0.1153 0.148 0.05942
0.05655 -0.02975 -0.02295 -0.1142 0.1821 -0.09686 0.0823 -0.1494
0.02531 -0.0412 0.0893 0.01245 0.1449 -0.0831 -0.01266 -0.0965
0.005543 0.0739 0.0908 0.01901 0.02261 -0.11536 -0.01933 0.01039
-0.1835 0.06396 0.002764 0.0091 0.001945 -0.00484 0.0852 -0.02283
0.0824 0.02322 0.1184 -0.01153 0.0524 0.06305 -0.01883 0.01588
-0.007286 -0.0641 -0.1007 0.1193 -0.0374 0.09894 -0.07324 0.04095
-0.04526 0.0786 0.04474 0.04462 -0.04834 -0.002478 0.10657 0.148
0.1239 -0.04663 0.1017 0.000512 -0.007633 0.1035 -0.0723 -0.00577
-0.08514 0.04834 -0.06073 0.02878 -0.002861 0.04575 -0.05862 -0.02223
-0.04688 -0.02972 0.001991 0.0448 0.03105 0.0452 -0.0987 -0.07916
0.0433 0.0827 0.06137 -0.1343 -0.159 -0.1453 -0.0778 0.0435
-0.02086 0.10315 -0.02722 -0.05847 0.1095 0.5356 0.08374 -0.1173
0.08044 0.0371 -0.0615 -0.2712 -0.1124 0.146 -0.0913 0.119
0.07684 0.04996 0.2119 0.007385 -0.1394 0.2002 0.1077 0.1407
-0.2627 0.0463 0.08057 0.11945 -0.04626 -0.1171 -0.05865 0.0309

conv_mid.4.bias f2 [12]
00000000: 26a3 28a9 6a9c cb17 799a 4ea1 209b c421
00000010: 331c 8d23 cf22 db13
-0.01396 -0.04028 -0.00431 0.001903 -0.00316 -0.01036 -0.003479 0.01126
0.0041 0.01475 0.0133 0.000959

conv_mid.5.weight f2 [12, 24, 3, 3]
00000000: 032e b431 0f32 0924 3a29 972e df9c fdac
00000010: 0e28 d325 1229 d582 c484 6f2b 66a9 57a9
00000020: d628 1828 1dad 5fa6 882d b21a 7794 c82e
00000030: e0ad 9428 7f2e f32a 74a1 182f 9628 31b1
00000040: 90b0 eca8 a8ac 7430 c3af 45b5 c8ab 22b0
00000050: db30 3732 51b0 d931 782d 5da8 0fad 7baa
00000060: 2723 8ea9 4bac ce26 2e31 15ae 332c 8bb0
00000070: d8a9 75ab 4db6 e3ae d2a8 23af f1ac fc23
00000080: da27 312f 6830 a62e 7124 7129 cf28 c6a4
00000090: 9626 422d b428 7f27 3b36 3eb3 0a30 b4ad
000000a0: e2a8 2b9e 7e2a d219 b7a5 092e 6429 112a
000000b0: 851d 0eaf 802c bb24 0424 fcaa ada8 f49c
000000c0: 1a28 6eac b29c 6baf 1222 cd25 6727 0e37
000000d0: 1431 aea5 0726 9728 89ae e8b2 1fb0 3f22
000000e0: 47ab 11a8 e929 2a2e bb27 e69c fea8 dea3
000000f0: 539a 44ac e627 6f29 aca6 91ab aa2f 692d
00000100: 0527 2c2e a431 318e 562e b32e caa7 cb28
00000110: 45ac 5fac e39c 8aad 5e2f be2b c2ab 792a
00000120: c32c 2d31 fa2f c631 5d2e 63ac 9033 c72a
00000130: 8c2b fc16 3b30 fba0 81a6 3ca6 3eaf d8a9
00000140: 30b0 f8a8 69ac 862c fd2e 9930 6535 d133
00000150: 612d e631 8d31 e3a4 5717 b3ac 1b96 e4ad
00000160: eab1 312a 862c e7a1 41a4 a427 031f 7cab
00000170: 84b1 e230 76b0 d332 612c 642e e6a6 5624
00000180: 172c 1db6 df24 7127 41a9 cc27 bc2b a32d
00000190: b3a2 6332 3520 b030 15a1 1c31 a42d ae2d
000001a0: 201b 18a9 24a9 1bb5 06af 0216 b5a6 42aa
000001b0: 8d28 442e b32b 0225 c02a 6c2c 45aa 04a7
000001c0: 1e2a 091f e4a7 0e9c f39f 8aae 859c f4a9
000001d0: f829 7d16 4624 caa5 4d2a 472d 6dac 439d
000001e0: 5f2c bb26 6928 16ac 5222 68a0 1a2a db29
000001f0: 142f 55a2 fdae 03ae d522 f829 c0a1 08a4
0.09393 0.1782 0.1893 0.01576 0.04083 0.10297 -0.004757 -0.07794
0.03168 0.02275 0.0396 -4.32e-05 -7.27e-05 0.05807 -0.04218 -0.04172
0.03778 0.03198 -0.0799 -0.02489 0.0864 0.00327 -0.00109 0.10596
-0.0918 0.03577 0.1015 0.0543 -0.01065 0.11084 0.03583 -0.1622
-0.1426 -0.03845 -0.07275 0.1392 -0.1213 -0.3293 -0.0608 -0.1292
0.1517 0.1942 -0.1349 0.1827 0.08545 -0.0341 -0.07904 -0.05063
0.01397 -0.0434 -0.0671 0.02658 0.1619 -0.09503 0.0656 -0.142
-0.04565 -0.05826 -0.3938 -0.1076 -0.03766 -0.1115 -0.0772 0.015594
0.03067 0.11237 0.1377 0.1039 0.01735 0.0425 0.03757 -0.01865
0.02573 0.08215 0.03674 0.02928 0.3894 -0.2263 0.1262 -0.0891
-0.03815 -0.006023 0.05072 0.002842 -0.02232 0.0943 0.0421 0.0474
0.00539 -0.1102 0.0703 0.01848 0.01569 -0.05457 -0.03653 -0.004837
0.03204 -0.0692 -0.004585 -0.1159 0.011856 0.02266 0.02892 0.441
0.1587 -0.02219 0.02354 0.03586 -0.1021 -0.2158 -0.1288 0.0122
-0.05685 -0.03177 0.04617 0.0963 0.0302 -0.004784 -0.039 -0.015366
-0.003088 -0.06665 0.03085 0.04245 -0.02606 -0.0591 0.11975 0.08453
0.02742 0.09644 0.1763 -0.000378 0.099 0.1047 -0.03043 0.03745
-0.0667 -0.0683 -0.004772 -0.08655 0.1151 0.0605 -0.0606 0.05057
0.0744 0.1617 0.12463 0.1804 0.0994 -0.06854 0.2363 0.05295
0.05896 0.001705 0.1322 -0.00973 -0.0254 -0.02435 -0.11316 -0.04565
-0.1309 -0.03882 -0.0689 0.0707 0.1092 0.1437 0.3372 0.2443
0.08405 0.1843 0.1735 -0.01909 0.001792 -0.0734 -0.001491 -0.09204
-0.1848 0.04837 0.0707 -0.01153 -0.01662 0.02985 0.006847 -0.05847
-0.1724 0.1526 -0.1394 0.2133 0.0684 0.09985 -0.02695 0.01694
0.0639 -0.382 0.01903 0.02907 -0.04105 0.03046 0.06042 0.0881
-0.013084 0.1996 0.00822 0.1465 -0.009926 0.1597 0.08813 0.08875
0.003479 -0.0398 -0.04016 -0.319 -0.10974 0.001467 -0.0262 -0.0489
0.03555 0.0979 0.06015 0.01956 0.05273 0.0691 -0.04898 -0.0274
0.0478 0.00687 -0.03082 -0.00396 -0.007763 -0.1022 -0.004414 -0.0465
0.04663 0.001584 0.0167 -0.02261 0.04922 0.08246 -0.06915 -0.00514
0.0683 0.02629 0.03445 -0.06384 0.012344 -0.008606 0.04767 0.04575
0.1106 -0.01237 -0.1092 -0.09393 0.01334 0.04663 -0.01123 -0.01575

conv_mid.5.bias f2 [12]
00000000: 78a6 6a20 b722 d01c 229b 8310 6321 4ca5
00000010: 21a5 d7a2 3b24 1520
-0.02527 0.00862 0.013115 0.0047 -0.003483 0.0005507 0.01052 -0.02069
-0.02003 -0.01336 0.01653 0.00797

conv_mid.6.weight f2 [12, 24, 3, 3]
00000000: f017 d728 272a 96aa 60b4 1da1 42aa 819d
00000010: a2a4 4d31 8b2c 762d 752d 44b4 8c2a 5b9d
00000020: 1624 799c c9b0 a1a9 682f 0e2b 202e 1730
00000030: 7ab0 cea5 9d2c 252c 2d2e 4d2a ebaf 4db1
00000040: f62d 8fa8 80ae 5828 9aa9 9ead 55a7 ceaf
00000050: 2935 b9ac da2c af2f c123 26a0 ef2b 6020
00000060: 2220 8d2a 692c 0aab eeae 9829 541f a925
00000070: 3825 1327 cd31 522c 292a 6c2f 1e2c 611a
00000080: 5e2b cda8 96a4 02ad f3af 45a1 99a5 32ab
00000090: 7aa7 8e95 f42d 922b f623 0ea2 37aa e226
000000a0: 2729 fcae 9bb4 6bb0 1ab0 50b4 36b4 9eb3
000000b0: 9ab4 0fb2 e42b 4a32 a22a b926 1931 e49d
000000c0: aaa4 27ad 5f1d cd2d f12f 4b2f 1a2e 1e35
000000d0: 0530 fb31 3433 ba32 fea2 f82a d0a1 4f2c
000000e0: dc33 69aa c829 4ca6 56a7 eca8 12af 5ba6
000000f0: 7e21 6c26 f5ae 3324 4e95 b62b f228 fe2c
00000100: 0122 d928 20ad 8388 57a4 1729 1826 50ac
00000110: eaac 52a0 ef2b 0027 93a7 d1a8 4f27 1fa4
00000120: e92e d732 3b2a 2a29 52b6 831f b7a5 97aa
00000130: 7c24 6628 8ca6 e6a8 5cad 6226 ea26 5929
00000140: 2ea8 25a7 6830 c430 dc30 8d29 5bae 2829
00000150: 4a2d 202e 76a7 e426 0891 282b 47a4 8eb0
00000160: 3e27 5fa0 0d21 582b b4a7 edac 19af e4aa
00000170: e5b0 49aa 6327 730d 7195 9912 15ac f225
00000180: 8e9c dc2c 4da8 2624 cda1 2a28 032c 71ac
00000190: b9a4 3329 8dad b9aa a928 73a5 6218 c4a7
000001a0: afa1 9fa8 342d 4eaf 4f24 64ac ce1d 0fb0
000001b0: 4c2c aa24 6423 7725 5233 d426 0da2 cea5
000001c0: a02d d7ab 8430 232d d8ad ee31 f9af 8831
000001d0: 242b 0827 062f 5a2b fbb0 84ae 652f 3fa7
000001e0: 7ba9 4526 f925 65af bbb3 be31 3a2c 3222
000001f0: 15b0 0a28 8f9c 3ca9 862f 45a0 9e29 732e
0.001938 0.0378 0.04807 -0.05145 -0.2734 -0.00999 -0.0489 -0.005375
-0.0181 0.1656 0.071 0.0853 0.08527 -0.2666 0.05115 -0.00523
0.01596 -0.004368 -0.1495 -0.04398 0.1157 0.0551 0.0957 0.1278
-0.1399 -0.02267 0.0721 0.06476 0.0965 0.04922 -0.1237 -0.1656
0.09314 -0.0356 -0.10156 0.03394 -0.04376 -0.08777 -0.02864 -0.12195
0.3225 -0.0738 0.0758 0.12006 0.015144 -0.0081 0.06198 0.008545
0.00807 0.05118 0.0689 -0.055 -0.1083 0.0437 0.007156 0.02211
0.02039 0.02763 0.1813 0.0675 0.04813 0.11597 0.06433 0.003115
0.05756 -0.0375 -0.01791 -0.07825 -0.1242 -0.01029 -0.02187 -0.0562
-0.0292 -0.001356 0.093 0.05914 0.01555 -0.011826 -0.04855 0.02689
0.04025 -0.10913 -0.2878 -0.1381 -0.1282 -0.2695 -0.2632 -0.238
-0.2876 -0.1893 0.06165 0.1965 0.05182 0.02626 0.1593 -0.005753
-0.01822 -0.0805 0.005245 0.09064 0.1241 0.11395 0.09534 0.3198
0.1256 0.1869 0.2251 0.2102 -0.01366 0.05444 -0.01135 0.0673
0.2456 -0.05008 0.04517 -0.0246 -0.02866 -0.03845 -0.1105 -0.02483
0.01073 0.02509 -0.1087 0.0164 -0.001295 0.06024 0.03864 0.078
0.01173 0.03787 -0.0801 -0.0001377 -0.01695 0.03976 0.0238 -0.0674
-0.0768 -0.00844 0.06198 0.02734 -0.02959 -0.03763 0.02855 -0.0161
0.108 0.2137 0.04868 0.04034 -0.395 0.007336 -0.02232 -0.05148
0.01752 0.03436 -0.02557 -0.03827 -0.08374 0.02493 0.02701 0.04178
-0.03265 -0.02791 0.1377 0.1489 0.1519 0.04337 -0.0993 0.04028
0.08264 0.0957 -0.02914 0.02692 -0.000614 0.0559 -0.01671 -0.1423
0.02829 -0.00854 0.009865 0.05737 -0.03009 -0.07697 -0.1109 -0.05383
-0.153 -0.0491 0.02885 0.0003326 -0.001328 0.0008054 -0.0638 0.02322
-0.004448 0.0759 -0.0336 0.0162 -0.01133 0.03253 0.0627 -0.0694
-0.01845 0.04062 -0.08673 -0.05252 0.0364 -0.02129 0.00214 -0.03033
-0.0111 -0.0361 0.0813 -0.11414 0.01683 -0.0686 0.00567 -0.1268
0.06714 0.01822 0.014435 0.02135 0.2288 0.02667 -0.01182 -0.02267
0.0879 -0.06125 0.1411 0.08026 -0.0913 0.1853 -0.1246 0.1729
0.0558 0.02747 0.10974 0.05743 -0.1556 -0.1018 0.11554 -0.0283
-0.04282 0.02449 0.02333 -0.11554 -0.2416 0.1794 0.06604 0.0121
-0.1276 0.03156 -0.00445 -0.0409 0.11755 -0.00834 0.04388 0.10077

conv_mid.6.bias f2 [12]
00000000: c925 841b dc98 f01c 07a8 5c1b f89e 879e
00000010: c09c 149e 7990 ee9f
0.0226 0.00367 -0.002373 0.00482 -0.03146 0.003593 -0.006805 -0.006374
-0.00464 -0.005936 -0.000546 -0.007744

conv_mid.7.weight f2 [12, 24, 3, 3]
00000000: 0228 0e2a 04a6 8c99 79a5 7ea8 f6a4 642d
00000010: 62ad 1ca9 bea9 d724 c52b 53b4 62a6 d51b
00000020: 54b1 30a2 faa9 0120 07a9 68ac fb30 9cae
00000030: b228 0cad 602d 9192 8c28 22aa dd2a 04b0
00000040: 0928 04a9 afa9 8d31 dbab bfaa 48aa a22c
00000050: d5b4 e932 ccab c129 aaaa c79e 58a9 4c29
00000060: 1d27 e830 fdad 62a4 14ac cfa9 372c f031
00000070: 6fa9 6dac 1ea3 7ba8 1bad 412c 621f 80aa
00000080: 712f 2124 a52f 462e c4ac cc11 69a7 4328
00000090: 7c28 3633 6e1d d230 b4a3 6ca8 2da7 48ab
000000a0: bd2d 812d 14af d00d 432b 2631 eeac c725
000000b0: 6c2d 76b0 8830 002c 7e2a f5a9 a82c 31a0
000000c0: 032c 862d fc25 cea1 002d 52a4 6521 1834
000000d0: 5533 8faa 7c8e 1fae 09a5 a7a6 9c2e eca5
000000e0: 6f1c 9c2d 2a28 c4a9 142d 2222 c7a8 5427
000000f0: 492f 1835 2f32 6aa2 542e 2b29 87a9 87af
00000100: 5ea2 ceab 52a9 6d26 fe95 9b30 05b1 762c
00000110: 06ae 8d20 d5ab c82c 75af 80a9 7eb0 52a0
00000120: 482a d82c 3d23 1ead b933 27b1 b924 10b0
00000130: 672f e19c 592d c6a9 f0b2 f5b4 7d2d 98ac
00000140: db2c 6a16 52ae 00b4 5333 2029 8430 032d
00000150: 502c 271c 2dac afb1 c52e 3725 4b1a 02af
00000160: c8b0 202b e8b2 0131 8dad d729 6ca6 1495
00000170: 50ab 981d ea2b 83aa dc2e d6af 472a d3a7
00000180: 0da5 2f15 2cb3 6a27 2fb0 f92d 2cae 6724
00000190: 43a7 951c 5b30 4519 5c1c 2329 7a27 f321
000001a0: 1126 69a1 2aac a1b3 1d2d bc2a 76ac df28
000001b0: e5a0 82a0 00a9 75af 0525 e128 7ba4 85aa
000001c0: 2aa4 cc28 d99f cc2d c9a3 e62a ca27 7bac
000001d0: c51f 55a2 b4b1 0fac 89ae 3db0 55b2 bd28
000001e0: 2eb1 24b0 5ca9 d126 1e2a f4a9 4cad 19a8
000001f0: a9ac 4628 ada6 1fb0 2a29 7b2f 6a2d d1aa
0.0313 0.0473 -0.0235 -0.002708 -0.02138 -0.0351 -0.01938 0.0842
-0.0841 -0.03992 -0.04486 0.0189 0.0607 -0.2703 -0.02493 0.003824
-0.1665 -0.012085 -0.0467 0.00782 -0.03928 -0.06885 0.1556 -0.1033
0.03668 -0.07886 0.084 -0.0008016 0.03552 -0.0479 0.05362 -0.1255
0.03152 -0.03918 -0.0444 0.1735 -0.06137 -0.0527 -0.04907 0.0724
-0.302 0.216 -0.0609 0.04495 -0.05206 -0.00662 -0.04175 0.04138
0.02779 0.1533 -0.09357 -0.01712 -0.0637 -0.04538 0.06586 0.1855
-0.04245 -0.06915 -0.0139 -0.035 -0.0798 0.06647 0.00721 -0.05078
0.1163 0.01613 0.11945 0.098 -0.07446 0.0007076 -0.02895 0.0333
0.03503 0.2253 0.005302 0.1506 -0.015045 -0.03455 -0.02803 -0.0569
0.08966 0.086 -0.1106 0.0003548 0.05673 0.1609 -0.077 0.02257
0.0847 -0.1394 0.1416 0.0625 0.05072 -0.04654 0.07275 -0.00819
0.0627 0.0863 0.02338 -0.01134 0.0781 -0.01688 0.01054 0.2559
0.2291 -0.05124 -0.0003958 -0.09564 -0.01967 -0.02599 0.1033 -0.02313
0.00433 0.08765 0.03253 -0.04504 0.07935 0.01198 -0.03732 0.02863
0.11383 0.3184 0.1932 -0.01253 0.0989 0.04037 -0.04318 -0.1176
-0.012436 -0.06097 -0.04156 0.0251 -0.001463 0.1439 -0.1569 0.0697
-0.0941 0.00889 -0.0612 0.0747 -0.1165 -0.04297 -0.1404 -0.00844
0.04907 0.0757 0.01414 -0.07996 0.2413 -0.161 0.01845 -0.127
0.11566 -0.004765 0.08356 -0.0451 -0.2168 -0.3098 0.08575 -0.0718
0.07587 0.001566 -0.09875 -0.25 0.2289 0.04004 0.1411 0.0783
0.0674 0.004055 -0.06525 -0.1776 0.1058 0.02037 0.003073 -0.1095
-0.1494 0.05566 -0.2158 0.1564 -0.08673 0.04562 -0.02509 -0.00124
-0.05713 0.005463 0.06183 -0.05087 0.1072 -0.12244 0.04904 -0.03056
-0.01973 0.001266 -0.2241 0.02896 -0.1307 0.0933 -0.09644 0.0172
-0.02837 0.004475 0.1361 0.002573 0.004257 0.04013 0.0292 0.01162
0.0237 -0.01057 -0.06506 -0.2384 0.0799 0.0526 -0.0697 0.03806
-0.00956 -0.008804 -0.03906 -0.1165 0.0196 0.03812 -0.0175 -0.05093
-0.01627 0.03748 -0.007664 0.0906 -0.015205 0.0539 0.03043 -0.07
0.007587 -0.01237 -0.1782 -0.0634 -0.1021 -0.1324 -0.1979 0.03702
-0.1619 -0.1294 -0.04187 0.02663 0.0478 -0.0465 -0.08276 -0.032
-0.0728 0.0334 -0.02608 -0.1288 0.04034 0.1169 0.0846 -0.05325

conv_mid.7.bias f2 [12]
00000000: 6922 bca0 dba0 dc9e 481e ba97 0622 7119
00000010: a315 5797 3921 4ca6
0.01252 -0.00925 -0.00948 -0.0067 0.006134 -0.001886 0.011765 0.002657
0.001376 -0.001792 0.0102 -0.0246

conv_mid.8.weight f2 [12, 24, 3, 3]
00000000: 849e 09a1 89aa 8c28 23ad 59ad f9ac 9cb2
00000010: 0eb0 a0a1 92b1 e6ae b2a4 c2b0 ac99 36a4
00000020: 6c1e 15a8 1eac 752c d6a7 d5ae f92b 23ac
00000030: a3ad 99a5 501e 90a3 dc2c f12d e630 ef30
00000040: 7f2c 46af 59aa 42a8 26ab 3b2c 302c cbae
00000050: e52a f413 0cac d4ac 27a9 522c f922 02a8
00000060: b230 acad 359e 8728 602f 3019 861a d4a8
00000070: afac fea9 82a9 942a 732e 9b2d a42d 07ac
00000080: 9e18 6bac 71ad 22aa 69ae 7cae 5baf 97ac
00000090: 2531 4b2d c192 972f 3c25 71a8 9d2a b324
000000a0: a0a5 c527 02a9 d92d 56ab 35a6 612c 3731
000000b0: 6732 562e d0ae e7b0 86b1 6525 4930 1bae
000000c0: 612b c02f 0db0 6f2c dda0 d72b 8828 d6ac
000000d0: 47a9 661d af26 4f25 fa29 df30 11a9 e733
000000e0: cfac e525 f930 5c31 812c da21 e52c a42d
000000f0: 8e29 3030 0b2c b62d 5d27 862d 942c e92c
00000100: 832a 5231 72a8 d82c 312f 982c 33a5 5c31
00000110: b5ab 68ac f830 e134 c921 162a 872c 9c2a
00000120: f62c a89c baaa 762f 812b ee2c 8a31 bb2e
00000130: b924 25b0 a1a8 862a 3fae 8dad 682a 5ba3
00000140: 4dac 1928 3724 11a8 8628 92b1 0228 7428
00000150: 0bac aaa0 f31d 742d bf28 3c28 4327 cf2c
00000160: bf29 b730 ed2f 5a2e 8cb3 bab2 bdb1 b0b1
00000170: 739b f1a3 dcb0 fbad 532a da31 022e f9aa
00000180: 0f33 5328 c29d 1915 2f2b 3fa7 7d2b 292d
00000190: a130 7ca7 49ae 6d2e 16a8 8eaf 772d ff24
000001a0: 3b2a ad22 fba5 e29e 052d c4a6 0d26 399d
000001b0: 49a4 1ca4 26a2 e725 e3ac ca9c 69a6 e2a6
000001c0: 8cad 4a9d 2820 b3a7 e228 8cb1 8d28 2b27
000001d0: 54a8 bea7 87ad 3a2a a226 5824 132d 91ad
000001e0: 85a5 5e25 779d 862a 659f 1a2b 8db1 95ae
000001f0: 532c 49a8 7b2c f026 319c 4427 3f27 29a8
-0.006363 -0.009834 -0.05106 0.03552 -0.08026 -0.08356 -0.0777 -0.2065
-0.1267 -0.01099 -0.1741 -0.1078 -0.01834 -0.1487 -0.00277 -0.01645
0.00627 -0.0319 -0.06433 0.06964 -0.03061 -0.10675 0.0623 -0.06464
-0.0881 -0.02187 0.006165 -0.01477 0.0759 0.09283 0.1531 0.1542
0.07025 -0.11365 -0.0496 -0.03326 -0.05585 0.0661 0.0654 -0.10614
0.05386 0.000971 -0.06323 -0.07544 -0.04025 0.0675 0.01362 -0.0313
0.1467 -0.0886 -0.00606 0.03537 0.11523 0.002533 0.003185 -0.03772
-0.0732 -0.0468 -0.04303 0.0514 0.10077 0.0876 0.08813 -0.0629
0.002254 -0.06903 -0.085 -0.0479 -0.10016 -0.1013 -0.1149 -0.0717
0.1608 0.0827 -0.0008245 0.1186 0.02045 -0.0347 0.05167 0.01836
-0.02197 0.03035 -0.03912 0.0914 -0.0573 -0.02425 0.0684 0.163
0.2001 0.099 -0.10645 -0.1532 -0.1726 0.02107 0.1339 -0.0954
0.05765 0.1211 -0.1266 0.0693 -0.0095 0.06125 0.0354 -0.07556
-0.04123 0.005272 0.02611 0.02074 0.0467 0.1522 -0.03958 0.247
-0.07513 0.02303 0.1554 0.1675 0.0704 0.01143 0.0765 0.08813
0.0434 0.1309 0.0632 0.08923 0.02876 0.0863 0.07153 0.0767
0.05087 0.1663 -0.03473 0.0757 0.11237 0.0718 -0.02031 0.1675
-0.0602 -0.06885 0.1553 0.305 0.0113 0.04755 0.07074 0.05164
0.0775 -0.004547 -0.05255 0.1166 0.05862 0.077 0.1731 0.10516
0.01845 -0.1295 -0.03616 0.05096 -0.0976 -0.08673 0.05005 -0.014366
-0.0672 0.032 0.01646 -0.03177 0.03534 -0.1741 0.0313 0.0348
-0.0632 -0.00911 0.00581 0.0852 0.03708 0.03308 0.02837 0.07513
0.0449 0.1473 0.12384 0.09924 -0.2358 -0.2102 -0.1793 -0.1777
-0.003637 -0.01551 -0.1519 -0.09344 0.0494 0.1829 0.0939 -0.05447
0.2206 0.03378 -0.005623 0.001245 0.05612 -0.0283 0.0585 0.0806
0.1447 -0.02924 -0.0982 0.1004 -0.03192 -0.11804 0.0854 0.01952
0.04868 0.01304 -0.02336 -0.00672 0.0784 -0.02643 0.02364 -0.0051
-0.01674 -0.01605 -0.01201 0.02306 -0.07635 -0.004677 -0.02504 -0.02689
-0.0867 -0.005165 0.00812 -0.03008 0.03815 -0.1733 0.03555 0.028
-0.0338 -0.03024 -0.08636 0.04865 0.02591 0.01697 0.0793 -0.087
-0.02156 0.02097 -0.005337 0.05096 -0.00722 0.05548 -0.1735 -0.10284
0.06757 -0.03348 0.07 0.0271 -0.004093 0.02838 0.0283 -0.0325

conv_mid.8.bias f2 [12]
00000000: 1098 d317 a194 f39f 56a3 f416 a88b 171c
00000010: bc9c fe9c ce96 9d16
-0.001984 0.00191 -0.00113 -0.007763 -0.01433 0.001698 -0.0002337 0.003994
-0.004623 -0.004875 -0.001661 0.001615

conv_mid.9.weight f2 [12, 24, 3, 3]
00000000: b42f d1a9 012d d026 b5ab 1ba8 262b 2faa
00000010: a4ae 8ead d498 8715 74b1 7430 dbae 0dae
00000020: 8532 b230 3324 9328 f727 5d2d 9a2d 34a8
00000030: 75a9 85a0 6bab 3f26 1f28 4428 612a c3b0
00000040: 0d17 f5a8 0326 13ad 9e2d db2d 242d 9d1d
00000050: f194 5bac f828 ef2c 6c30 d1a2 2a25 5d1c
00000060: 4824 14ad 8a28 0729 6927 5621 a726 2d30
00000070: 09a8 d22f acac b528 d22c 142c 6729 bca5
00000080: 49ac 64a7 029a 9b35 68af 0023 e79c 5a2b
00000090: dd26 9e31 e131 c3a7 7aa4 dd31 2a29 4c30
000000a0: 8927 ed24 e8a9 5526 ba20 64a5 adac db2b
000000b0: 8bad 6a1c 262d aea6 d7ad ea29 6ca6 fba3
000000c0: f9a8 1127 b830 c2a4 c725 fb27 39ac 8bae
000000d0: 26a9 ad29 01ae 5ea9 201c 0e23 621b 3aad
000000e0: 0930 952e c327 6d2c 0c2e c627 5c30 3f24
000000f0: 892f 1ba3 c52e 422f 49b0 44aa 1828 872e
00000100: dc29 e8a7 7daa de2d cf1e 99af 0e25 f4ae
00000110: 2eb0 a5b1 fdaa 872e c4a9 08ac bdb0 20a8
00000120: 3dad 232a 4caf 6f2a ebb1 b2af a1b1 dfac
00000130: a6b1 d327 45af c91d 66ac c9ab 0ead aeaf
00000140: dbac 99a1 2294 3bb0 122c 99ac ab2b ca28
00000150: 27aa c4aa c7ae 8e2a 882a 6228 56ac 81af
00000160: 0332 b625 9528 ada7 acaa b5a8 3824 d6a2
00000170: f22f afa2 4c2a 43b0 502a c1ab 12a8 f09c
00000180: 3a28 bbae ba1e fea1 072e 05aa 2e31 afb0
00000190: 72b1 922d 7fa7 7d1c 07ad c229 2c2d 582b
000001a0: c62b f6a1 a02e 2531 2c31 37aa 3430 8a2a
000001b0: 29a6 00a6 862c 35ac 1626 0424 41ad 8fa5
000001c0: 442a c32a b22d da28 4824 3f28 262d 6eaa
000001d0: 9d21 00ac 7a83 552e 2620 b61f e62b 98a9
000001e0: e825 8ba8 c926 2029 9027 b329 0629 c4b4
000001f0: 2a1d 3428 af28 4c1c 3bac 692f ce1d 41a8
0.12036 -0.04544 0.0782 0.02661 -0.0602 -0.03207 0.05585 -0.0483
-0.10376 -0.0868 -0.002357 0.001349 -0.1704 0.1392 -0.1071 -0.09454
0.2037 0.1467 0.0164 0.03574 0.03111 0.0838 0.0875 -0.03284
-0.04263 -0.00883 -0.05795 0.0244 0.0322 0.03333 0.04984 -0.1488
0.001721 -0.03873 0.02348 -0.0793 0.08777 0.0915 0.0803 0.00548
-0.001206 -0.06805 0.03882 0.0771 0.1382 -0.01331 0.02017 0.00426
0.01672 -0.07935 0.03546 0.03928 0.02895 0.01042 0.02599 0.1305
-0.03152 0.1222 -0.073 0.03677 0.0753 0.0637 0.0422 -0.0224
-0.06696 -0.02887 -0.002934 0.3503 -0.1157 0.01367 -0.004787 0.05743
0.02681 0.1755 0.1837 -0.03032 -0.01749 0.1832 0.04034 0.1343
0.02943 0.01924 -0.04614 0.02473 0.00923 -0.02106 -0.07306 0.06137
-0.0866 0.00431 0.08044 -0.0261 -0.09125 0.0462 -0.02509 -0.01559
-0.03885 0.0276 0.1475 -0.01859 0.02257 0.03117 -0.066 -0.10223
-0.04022 0.04434 -0.0938 -0.04193 0.00403 0.01378 0.003605 -0.08167
0.1261 0.10284 0.03032 0.06915 0.0945 0.03036 0.1362 0.01659
0.11774 -0.01388 0.1058 0.1134 -0.1339 -0.04895 0.03198 0.102
0.04578 -0.03088 -0.0507 0.0917 0.00665 -0.1187 0.01974 -0.10864
-0.1306 -0.1764 -0.0546 0.102 -0.04504 -0.063 -0.1481 -0.03223
-0.08185 0.04794 -0.114 0.05026 -0.1849 -0.12024 -0.1759 -0.0761
-0.1765 0.03056 -0.1136 0.00565 -0.0687 -0.06082 -0.079 -0.12
-0.07587 -0.01093 -0.001009 -0.1322 0.0636 -0.07184 0.0599 0.0374
-0.04807 -0.05286 -0.1059 0.0512 0.05103 0.03424 -0.06775 -0.11725
0.1879 0.02231 0.0358 -0.02998 -0.05212 -0.03677 0.01648 -0.01335
0.12415 -0.013054 0.0492 -0.1332 0.04932 -0.06058 -0.0318 -0.00482
0.03302 -0.10516 0.00657 -0.0117 0.0942 -0.04703 0.1619 -0.1464
-0.1702 0.08704 -0.02928 0.004383 -0.07855 0.04498 0.0808 0.05737
0.06073 -0.01164 0.1035 0.1608 0.1616 -0.04855 0.1313 0.0511
-0.02406 -0.02344 0.0707 -0.06573 0.02377 0.01569 -0.0821 -0.02171
0.04895 0.05283 0.089 0.0379 0.01672 0.03317 0.08044 -0.05023
0.01096 -0.0625 -5.305e-05 0.09894 0.0081 0.00753 0.0617 -0.0437
0.02307 -0.0355 0.0265 0.04004 0.02954 0.04453 0.03925 -0.2979
0.005043 0.03284 0.0366 0.004196 -0.0661 0.1158 0.00567 -0.03323

conv_mid.9.bias f2 [12]
00000000: 3b98 6e1e c31e c619 4912 a19b c813 ee11
00000010: fa9d 49a4 a91d a2a2
-0.002066 0.00628 0.006603 0.00282 0.000767 -0.003725 0.00095 0.000724
-0.005836 -0.01674 0.005527 -0.012955

conv_mid.10.weight f2 [12, 24, 3, 3]
00000000: 932c b9a9 98a4 4fb1 fe30 be21 fd28 331e
00000010: 94a8 eaa7 5830 6422 f42f 18b0 20a0 0219
00000020: b5ab ab2a 902a 17a8 6d22 91b0 29b2 3a30
00000030: 8f2e e82f d4ac 36ab a42d c22a 9db0 d6b3
00000040: f9aa 2420 ec24 f221 68ab 82b1 c230 eab2
00000050: b8b1 6718 312b c49d 0828 aea8 8e2c 3ea8
00000060: 220c 1336 07a0 2121 94a0 9c9a bf2c 11ad
00000070: 781e fd27 fda3 d925 5f30 932b 59ac 0fa9
00000080: 302e a920 6d30 e12e 0faa fa12 0ca0 2326
00000090: b224 b5aa c21b bd2c a72e 599b 1aa9 14a0
000000a0: 399c 67a7 4c2c 2f26 5230 0130 b9a3 3922
000000b0: 4829 de25 77a9 7d21 eaaf a82f dd39 51b1
000000c0: 6431 17ac 912e 89ab 8ca9 54a1 372f 1bb4
000000d0: 3a2c 1aa5 3a27 86a9 66ab 55a5 8f93 4baa
000000e0: ebb1 3228 cf25 2629 8b9f cdae 4331 3fa6
000000f0: 3530 f5b2 0ea2 afaa 079f 9a24 5c2a 1122
00000100: 5e2a c8b0 33b1 b528 7e9d a79f 9aa2 dc29
00000110: b0ac 69a6 482f 1319 f12b 2ea1 149d 8ca1
00000120: 309c 3c28 12a5 e929 152e dd1e a2a6 1d22
00000130: b1a7 f09c baa6 a6a2 80a8 9035 deab d4a0
00000140: 70ad 3c21 10a8 0631 1628 06a0 cd35 40a8
00000150: 2f21 bfab fc27 b724 10a0 fd22 a4a8 f0b2
00000160: f528 c49c dda6 891e 242c dca9 9528 ab28
00000170: 00aa 32a6 3e27 c0a5 ea1a 68a8 659a 9e27
00000180: 6bac 74ac 9ca6 eda3 51ab cba5 9b21 59a1
00000190: 962b 44ab 2eb2 e028 09ab f7a7 73ac 5f26
000001a0: e828 8b26 5ca2 3734 98ac f224 67a8 6624
000001b0: 5125 76a1 5629 2d98 0c22 cc28 e92b 562d
000001c0: dc2d 75a1 a09b 7929 eda8 481e 0ba8 78a5
000001d0: 3ba4 7ea8 0b92 98ac b6ad b526 02a9 1aae
000001e0: 7ca8 a92c de28 e02d 402c 942b 4aa4 1233
000001f0: 9a32 00a0 9ead fb22 f825 fe2a ae2c 842d
0.0715 -0.0447 -0.01794 -0.1659 0.156 0.011215 0.03897 0.006054
-0.03577 -0.03091 0.1357 0.01248 0.12427 -0.1279 -0.00806 0.002445
-0.0602 0.0521 0.05127 -0.03195 0.01255 -0.1427 -0.1925 0.1321
0.1025 0.12354 -0.07544 -0.05634 0.08813 0.0528 -0.1442 -0.2449
-0.05447 0.00809 0.01923 0.01161 -0.05786 -0.1721 0.1487 -0.2161
-0.1787 0.00215 0.05618 -0.00563 0.0315 -0.03656 0.07117 -0.03314
0.0002522 0.3796 -0.007866 0.01002 -0.00894 -0.003227 0.07416 -0.07916
0.006317 0.0312 -0.0156 0.02284 0.1366 0.05917 -0.06793 -0.03952
0.0967 0.0091 0.1383 0.1075 -0.04733 0.0008516 -0.007904 0.02397
0.01834 -0.0524 0.003788 0.07404 0.10394 -0.003588 -0.03986 -0.007965
-0.004124 -0.02892 0.06714 0.02415 0.135 0.1251 -0.01508 0.01215
0.04126 0.02292 -0.0427 0.01072 -0.12366 0.1196 0.733 -0.1661
0.1685 -0.0639 0.1026 -0.05887 -0.04333 -0.01041 0.11273 -0.2566
0.06604 -0.01993 0.02823 -0.04315 -0.0578 -0.02083 -0.0009227 -0.04916
-0.1849 0.03278 0.02269 0.04022 -0.007366 -0.10626 0.1644 -0.0244
0.1315 -0.2174 -0.011826 -0.05222 -0.006863 0.01797 0.04968 0.01185
0.04974 -0.1494 -0.1625 0.03677 -0.005363 -0.007473 -0.01289 0.04578
-0.07324 -0.02504 0.1138 0.002478 0.06204 -0.01012 -0.00496 -0.01083
-0.00409 0.03308 -0.0198 0.04617 0.09503 0.006702 -0.02591 0.01194
-0.03004 -0.00482 -0.02628 -0.012985 -0.03516 0.3477 -0.06146 -0.00943
-0.08496 0.01022 -0.03174 0.157 0.03192 -0.00786 0.3625 -0.0332
0.010124 -0.06052 0.03119 0.01842 -0.007935 0.01365 -0.03625 -0.2168
0.03873 -0.004654 -0.02681 0.006382 0.0647 -0.04578 0.0358 0.03647
-0.04688 -0.0242 0.02829 -0.02246 0.003376 -0.03442 -0.003122 0.02975
-0.06903 -0.0696 -0.02582 -0.01548 -0.05716 -0.02263 0.01095 -0.010445
0.05927 -0.05676 -0.1931 0.0381 -0.05496 -0.03111 -0.0695 0.02489
0.03833 0.02556 -0.01242 0.2634 -0.0718 0.01932 -0.0344 0.01718
0.02077 -0.010666 0.0417 -0.002039 0.01181 0.03748 0.0618 0.0834
0.09155 -0.01066 -0.003723 0.04276 -0.03848 0.006134 -0.0316 -0.02136
-0.01653 -0.0351 -0.0007377 -0.0718 -0.08923 0.0262 -0.03912 -0.09534
-0.03503 0.0728 0.03802 0.0918 0.0664 0.0592 -0.01675 0.221
0.2063 -0.007812 -0.08777 0.01363 0.02332 0.05463 0.0731 0.0862

conv_mid.10.bias f2 [12]
00000000: 4500 2d13 b69c cd98 ce1a ee91 2b15 f416
00000010: 621b 8c0f d59d 451b
4.1e-06 0.000876 -0.0046 -0.002344 0.003323 -0.000724 0.001262 0.001698
0.003605 0.0004606 -0.005695 0.00355
