mymodel/amakano.onnx (onnx, 81142 bytes, 30 tensors)

conv_head.weight f2 [12, 3, 3, 3]
0.0441 0.472 -0.02066 0.1741 0.1526 0.2463 0.1447 -0.2448
-0.05136 -0.0715 -0.2544 -0.09106 -0.1384 0.1761 -0.02426 -0.08685
0.06915 0.00939 0.004803 -0.2007 0.07007 0.01168 -0.2489 -0.199
-0.0415 0.07416 0.001881 -0.08575 0.12054 0.010506 0.3499 -0.764
0.07605 -0.01659 0.3152 -0.1937 -0.1976 0.1322 0.05353 0.2401
-0.938 0.2544 -0.05643 0.3013 -0.066 -0.2461 0.1665 -0.014366
0.3623 -0.751 0.174 0.0682 0.3792 -0.2166 0.010796 -0.01898
0.1215 0.2313 0.4229 -0.807 -0.00411 -0.0855 0.218 -0.03357
-0.1228 0.01543 0.12415 0.793 -0.842 -0.0796 -0.1093 0.1548
0.03647 -0.05756 -0.00992 0.187 0.6157 -0.7285 0.03232 -0.0687
0.10693 0.0728 -0.12024 0.3408 0.01848 -1.253 0.488 0.1484
0.0703 0.1971 0.0844 -0.03497 0.02567 0.02277 -1.455 0.3193
0.0884 -0.12134 0.01627 0.1484 0.01437 0.07794 0.1497 -1.374
0.508 0.1941 0.0978 0.2236 -0.1503 -0.5454 0.05423 -0.11816
0.2576 0.263 0.1521 0.3083 0.0471 -0.4116 -0.6436 0.2954
-0.417 0.5645 0.3003 0.00813 0.1015 -0.006424 -0.3792 -0.5054
0.09045 -0.1567 0.787 0.1852 0.0525 0.2279 0.05463 0.02696
-0.02095 0.01527 0.03687 -0.2368 0.01141 0.0453 0.01128 0.000629
-0.06934 0.00244 -0.02989 -0.11755 1.102 -0.066 -0.0807 -0.1117
0.01817 0.05017 0.02931 0.0313 0.0905 -0.9033 0.05392 0.0685
0.1049 0.006157 -0.02661 -0.096 -0.02667 -0.05338 0.2568 -0.06015
-0.003874 -0.05627 0.005074 -0.0662 0.05753 -0.015274 0.06192 0.10004
0.064 -0.05197 0.0764 -0.0365 -0.04886 -0.005745 -0.0696 0.0666
0.183 0.01034 -0.0843 0.04788 -0.0617 0.014366 0.03943 -0.001653
0.1594 -0.1659 -0.01894 0.01301 0.04684 0.007107 -0.03162 0.01918
-0.05432 0.2642 0.1255 -0.10205 -0.03854 -0.1355 0.003729 0.001965
-0.0772 0.05075 -0.482 0.08295 0.1256 0.01973 0.0874 -0.0094
0.006046 -0.3694 -0.003723 -0.05685 0.1313 -0.2944 0.01619 0.4326
0.1255 0.05313 -0.2983 -0.05615 0.10925 0.001978 -0.4067 0.05188
0.3777 0.11005 0.145 -0.3667 0.02563 0.007286 -0.12054 -0.4238
0.08405 0.537 0.09985 -0.01549 0.8066 -0.11285 0.0863 -0.5776
-0.1709 0.001554 -0.02892 0.03665 -0.0317 0.626 -0.1543 -0.07654
00000000: a529 8d37 4aa5 9231 e230 e233 a130 d5b3
00000010: 93aa 93ac 12b4 d4ad 6eb0 a331 36a6 8fad
00000020: 6d2c cf20 eb1c 6cb2 7c2c fb21 f7b3 5eb2
00000030: 50a9 bf2c b417 7dad b72f 6121 9935 1dba
00000040: de2c 3fa4 0b35 33b2 53b2 3b30 da2a af33
00000050: 81bb 1234 39ab d234 39ac e0b3 5431 5ba3
00000060: cc35 02ba 9131 5d2c 1136 eeb2 8721 dca4
00000070: c72f 6733 c436 75ba 359c 79ad fa32 4ca8
00000080: dcaf e623 f22f 583a bcba 18ad ffae f430
00000090: ab28 5eab 14a1 fc31 ed38 d4b9 2328 66ac
000000a0: d82e a92c b2af 7435 bb24 03bd cf37 c030
000000b0: 802c 4f32 672d 7aa8 9226 d425 d2bd 1c35
000000c0: a82d c4af 2a24 c030 5c23 fd2c ca30 7fbd
000000d0: 1038 3632 422e 2833 cfb0 5db8 f12a 90af
000000e0: 1f34 3534 de30 ef34 072a 96b6 26b9 ba34
000000f0: acb6 8438 ce34 2a20 7f2e 949e 11b6 0bb8
00000100: ca2d 04b1 4c3a ed31 b82a 4b33 fe2a e726
00000110: 5da5 d123 b828 94b3 d821 cc29 c621 2711
00000120: 70ac ff18 a7a7 86af 683c 39ac 2aad 26af
00000130: a724 6c2a 8127 0228 cb2d 3abb e72a 622c
00000140: b72e 4e1e d0a6 25ae d4a6 d5aa 1c34 b3ab
00000150: ef9b 34ab 321d 3dac 5d2b d2a3 ed2b 672e
00000160: 192c a7aa e42c aca8 41aa e29d 74ac 432c
00000170: db31 4b21 65ad 212a e6ab 5b23 0c29 c596
00000180: 1a31 4fb1 d9a4 a922 ff29 471f 0ca8 e924
00000190: f4aa 3a34 0430 88ae efa8 56b0 a31b 0618
000001a0: f1ac 7f2a b6b7 4f2d 0530 0d25 982d d0a0
000001b0: 311e e9b5 a09b 47ab 3430 b6b4 2524 ec36
000001c0: 0430 cd2a c6b4 30ab fe2e 0d18 82b6 a42a
000001d0: 0b36 0b2f a430 deb5 9026 761f b7af c8b6
000001e0: 612d 4c38 642e eea3 743a 39af 862d 9fb8
000001f0: 78b1 5d16 67a7 b128 0fa8 0239 f0b0 e6ac

conv_head.bias f2 [12]
0.02281 0.0149 -0.1597 0.08594 -0.429 -0.04883 0.10187 0.001154
0.179 0.01651 -0.0649 0.0038
00000000: d725 a123 1cb1 802d ddb6 40aa 852e ba14
00000010: ba31 3a24 27ac c81b

conv_mid.0.weight f2 [12, 24, 3, 3]
0.0841 -0.0827 0.01994 -0.02448 -0.02966 0.0438 0.02394 0.1066
0.003782 -0.02652 0.05557 0.1059 -0.01656 0.1486 0.04666 0.05682
-0.01894 -0.04343 -0.0613 0.01598 0.05786 0.0806 0.0944 0.04306
-0.0975 0.0863 0.02605 -0.0125 0.02592 0.0527 0.01226 0.1816
0.05994 0.013176 -0.00962 0.03162 -0.05255 0.02556 -0.0445 -0.0281
0.05676 0.02715 -0.0003946 0.0496 -0.098 0.011215 -0.03287 0.04684
-0.02692 -0.08154 -0.04398 -0.01671 -0.002594 0.0003285 0.0793 -0.08514
-0.1211 -0.11237 -0.0989 -0.144 0.0758 -0.1169 0.0419 -0.02385
-0.03836 0.05948 -0.0565 -0.08 0.03268 0.005497 -0.02092 0.00775
-0.01379 -0.1268 -0.004333 0.1134 0.02443 0.0141 -0.01207 -0.0496
0.0118 -0.0002823 -0.0762 -0.02998 -0.00402 0.1522 0.04446 0.03093
-0.02023 -0.03134 0.02841 -0.013824 -0.03726 0.04913 -0.1564 -0.02873
-0.01732 -0.06174 -0.01778 -0.06064 0.06104 -0.05185 -0.07965 0.2004
-0.0759 -0.05182 -0.08716 0.01709 -0.02296 -0.04813 0.01297 -0.0174
0.02487 0.02153 -0.01284 0.005512 -0.03568 0.00694 0.10956 -0.0465
0.11523 -0.1632 0.0584 -0.0397 0.09454 -0.006573 0.1816 -0.05637
-0.1071 -0.1802 0.2566 0.01567 0.11755 -0.02126 -0.04492 0.01326
0.010086 -0.02701 0.05795 -0.1575 -0.013885 0.01091 -0.00577 -0.02426
0.002098 -0.045 0.0204 -0.03099 0.151 -0.00825 0.004543 -0.0419
0.00552 -0.0423 0.01889 -0.00321 -0.1034 0.1268 -0.046 0.04892
0.0669 0.0169 -0.0346 -0.01956 -0.007336 -0.02136 -0.008484 -0.03207
-0.04556 -0.02538 -0.0418 -0.005375 -0.00925 -0.00987 -0.003944 -0.07526
0.05426 -0.01371 0.0041 -0.01598 0.000889 -0.0431 -0.0164 -0.09064
0.1567 -0.0161 -0.03516 0.0815 -0.042 0.02197 0.1302 0.059
-0.01881 -0.10504 0.03418 -0.007256 0.1987 -0.02281 0.03308 -0.1085
-0.01324 -0.02591 0.014114 0.02701 -0.0424 -0.1079 -0.01811 0.02397
-0.10004 0.06635 0.004 0.1059 -0.0276 0.01901 0.003592 0.0092
0.02444 0.03714 -0.00701 -0.02264 -0.01164 -0.0962 0.01872 -0.07184
-0.02623 0.05872 0.04013 0.04953 0.02171 0.271 -0.02554 0.02866
0.01167 0.06003 0.01492 -0.01566 0.04776 0.1023 -0.1656 0.01242
0.04465 -0.0831 -0.00831 -0.00638 0.01393 0.05493 -0.05853 0.1254
0.01695 -0.0313 -0.04443 -0.001353 0.002783 0.02904 0.005955 -0.02258
00000000: 622d 4bad 1b25 44a6 98a7 9b29 2126 d32e
00000010: bf1b caa6 1d2b c72e 3da4 c130 f929 462b
00000020: d9a4 8fa9 d9ab 1724 682b 292d 0b2e 8329
00000030: 3dae 862d ab26 66a2 a326 bf2a 4722 d031
00000040: ac2b bf22 eda0 0c28 baaa 8b26 b2a9 32a7
00000050: 442b f326 778e 592a 46ae be21 35a8 ff29
00000060: e4a6 38ad a1a9 47a4 5099 620d 132d 73ad
00000070: c0af 31af 54ae 9cb0 da2c 7baf 5d29 1ba6
00000080: e9a8 9d2b 3bab 1fad 2f28 a11d 5ba5 f01f
00000090: 0fa3 0fb0 709c 422f 4126 3823 2ea2 59aa
000000a0: 0b22 a08c e0ac ada7 1e9c df30 b129 eb27
000000b0: 2ea5 03a8 4627 14a3 c5a8 4a2a 01b1 5ba7
000000c0: 6fa4 e7ab 8da4 c3ab d02b a3aa 19ad 6a32
000000d0: dcac a2aa 94ad 6024 e1a5 29aa a422 74a4
000000e0: 5e26 8325 93a2 a51d 91a8 1b1f 032f f4a9
000000f0: 602f 39b1 7a2b 15a9 0d2e bb9e d031 37ab
00000100: dbae c4b1 1b34 0324 862f 71a5 c0a9 ca22
00000110: 2a21 eaa6 6b2b 0ab1 1ca3 9621 e99d 36a6
00000120: 4c18 c3a9 3925 efa7 d530 39a0 a71c 5da9
00000130: a71d 6aa9 d624 939a 9eae 0f30 e3a9 432a
00000140: 482c 5424 6ea8 02a5 839f 78a5 58a0 1ba8
00000150: d5a9 7fa6 5aa9 819d bca0 0ea1 0a9c d1ac
00000160: f22a 05a3 331c 17a4 4813 84a9 33a4 cdad
00000170: 0431 1fa4 80a8 372d 60a9 a025 2b30 8d2b
00000180: d1a4 b9ae 6028 6e9f 5c32 d7a5 3c28 f2ae
00000190: c7a2 a2a6 3a23 ea26 6da9 e8ae a3a4 2326
000001a0: 67ae 3f2c 191c c72e 11a7 de24 5b1b b620
000001b0: 4226 c128 2e9f cca5 f6a1 28ae cb24 99ac
000001c0: b7a6 842b 2329 572a 8f25 5634 8aa6 5627
000001d0: fa21 af2b a423 02a4 1d2a 8c2e 4db1 5c22
000001e0: b729 52ad 41a0 889e 2223 082b 7eab 0330
000001f0: 5724 02a8 b0a9 8b95 b319 6f27 191e c8a5

conv_mid.0.bias f2 [12]
-0.03091 0.02203 -0.01154 0.1165 0.02643 0.1698 -0.09845 0.0788
0.01517 -0.01672 0.02579 -0.04764
00000000: eaa7 a425 e9a1 752f c426 6f31 4dae 0b2d
00000010: c423 48a4 9a26 19aa

conv_mid.1.weight f2 [12, 24, 3, 3]
0.04053 0.06647 0.1184 0.0618 0.2003 0.10565 0.2129 0.091
0.0665 0.03824 0.08716 0.063 -0.04202 0.3997 0.01709 0.1772
-0.02547 0.06384 -0.01689 -0.0683 -0.0327 -0.00678 0.0896 -0.044
-0.000987 -0.03555 -0.0647 0.0687 -0.0813 0.010414 -0.02794 0.06775
-0.0741 0.04352 -0.03476 -0.04074 0.0303 0.03235 0.01653 -0.1288
0.1782 0.0353 -0.03537 -0.05835 -0.0344 0.00608 -0.01541 -0.02444
-0.03952 0.09705 0.04117 -0.03323 -0.0211 0.05984 0.01672 -0.02551
-0.07587 0.02634 0.01028 -0.716 0.03305 -0.04364 -0.08734 -0.04196
0.05978 0.02296 -0.05472 0.083 -0.0877 0.04578 -0.02026 0.01567
-0.04123 0.05417 -0.0844 -0.08124 -0.2174 -0.002071 0.0755 -0.05728
0.02338 0.07465 0.0134 0.0831 0.02647 0.2192 0.1028 0.12164
0.1254 0.0802 -0.0938 -0.05087 -0.09753 0.01042 -0.1577 -0.03207
-0.02464 -0.06033 -0.024 -0.02798 -0.04303 -0.0001007 -0.0785 0.02657
-0.0812 -0.0835 0.04453 0.06506 0.001757 0.10394 -0.04538 0.0702
-0.11975 0.0873 -0.0828 0.09436 -0.05035 0.07837 0.0237 0.00875
0.0734 -0.1896 0.05106 0.0351 -0.05344 -0.00808 -0.05096 -0.012886
-0.02713 0.02882 -0.1464 -0.04083 -0.0432 -0.01008 0.037 0.0339
0.01275 0.05698 0.0833 -0.1283 0.03232 -0.0008907 0.1166 -0.02211
-0.0684 -0.08215 -0.02785 0.214 -0.02925 -0.004765 -0.0628 0.0493
-0.02756 0.04004 -0.11383 -0.0958 -0.03784 0.024 -0.07306 0.0791
-0.0411 -0.08325 0.02032 -0.014595 0.0651 0.004772 0.000908 -0.1117
-0.002954 0.004185 0.0341 0.0947 0.01505 -0.0393 0.1449 -0.09753
0.05905 -0.05325 0.04672 -0.03586 -0.05692 -0.07544 0.03845 -0.00439
0.1615 0.0941 -0.02454 -0.00748 -0.03305 0.02924 0.1102 0.01451
0.11676 0.1129 0.06244 0.09125 0.0108 0.06015 0.06158 -0.1029
-0.0534 -0.0791 -0.0855 -0.042 -0.02255 0.01542 0.043 -0.04428
0.02122 0.03464 0.03793 0.05313 -0.0729 -0.0664 0.02269 -0.08356
-0.0355 0.02414 -0.009125 -0.0599 0.1187 0.006042 -0.03247 0.011986
-0.02467 -0.02606 0.02715 -0.001426 0.0462 0.04742 0.0529 0.001525
0.09155 -0.01212 -0.02205 -0.0287 0.001362 -0.01671 -0.05063 -0.002203
0.01028 0.01303 0.03108 0.026 0.1122 0.02788 -0.03247 0.2397
-0.0484 -0.003843 0.0419 0.004963 0.0851 -0.0247 -0.002008 -0.1573
00000000: 3029 412c 942f e92b 6932 c32e d032 d32d
00000010: 422c e528 942d 082c 61a9 6536 6024 ac31
00000020: 85a6 162c 53a4 5fac 30a8 f19e bc2d a2a9
00000030: 0b94 8da8 24ac 662c 34ad 5521 27a7 562c
00000040: beac 9229 73a8 37a9 c227 2428 3b24 1fb0
00000050: b431 8528 87a8 78ab 67a8 3a1e e4a3 42a6
00000060: 0fa9 362e 4529 41a8 67a5 a92b 4824 88a6
00000070: dbac be26 4321 bab9 3b28 96a9 97ad 5fa9
00000080: a72b e125 01ab 502d 9dad dc29 30a5 0324
00000090: 47a9 ef2a 67ad 33ad f5b2 3e98 d52c 55ab
000000a0: fc25 c72c dc22 522d c726 0433 942e c92f
000000b0: 0330 222d 01ae 83aa 3eae 5621 0cb1 1ba8
000000c0: 4fa6 b9ab 25a6 2aa7 82a9 9986 06ad cd26
000000d0: 32ad 58ad b329 2a2c 3217 a72e cfa9 7e2c
000000e0: aaaf 962d 4dad 0a2e 72aa 042d 1126 7b20
000000f0: b32c 11b2 892a 7e28 d7aa 23a0 86aa 99a2
00000100: f2a6 6127 afb0 3aa9 88a9 29a1 bc28 5728
00000110: 8722 4b2b 552d 1bb0 2328 4c93 762f a9a5
00000120: 61ac 42ad 21a7 d932 7da7 e19c 05ac 4f2a
00000130: 0ea7 2029 49af 22ae d8a8 2526 adac 102d
00000140: 43a9 54ad 3425 79a3 2b2c e31c 7013 26af
00000150: 0d9a 491c 5d28 102e b523 08a9 a330 3eae
00000160: 8f2b d1aa fb29 97a8 49ab d4ac ec28 7f9c
00000170: 2b31 062e 48a6 a99f 3ba8 7c27 0e2f 6e23
00000180: 792f 3a2f fe2b d72d 8821 b32b e22b 96ae
00000190: d6aa 10ad 79ad 60a9 c6a5 e523 8129 aba9
000001a0: 6f25 6f28 db28 cd2a aaac 40ac cf25 59ad
000001b0: 8ba8 2e26 aca0 abab 992f 301e 28a8 2322
000001c0: 51a6 aca6 f326 d795 ea29 122a c52a 3f16
000001d0: dc2d 35a2 a5a5 59a7 9415 47a4 7baa 8398
000001e0: 4321 ac22 f527 a826 2e2f 2327 28a8 ac33
000001f0: 32aa df9b 5d29 151d 722d 53a6 1d98 09b1

conv_mid.1.bias f2 [12]
-0.05173 -0.01294 -0.002981 -0.02939 -0.01802 -0.03812 0.07513 -0.02115
-0.03632 0.01121 0.001265 0.00977
00000000: 9faa a0a2 1b9a 86a7 9da4 e1a8 cf2c 6aa5
00000010: a6a8 bd21 2e15 0121

conv_mid.2.weight f2 [12, 24, 3, 3]
-0.10016 -0.02658 0.05652 -0.1026 0.1552 0.1305 -0.1009 -0.1458
-0.05798 -0.11176 -0.0875 -0.02052 -0.1057 0.127 -0.1346 -0.0764
-0.06384 0.000589 0.03784 0.04987 0.02516 -0.01474 -0.0819 0.121
-0.03015 -0.001777 0.01668 0.0966 0.126 -0.02779 0.1023 -0.05215
-0.05862 -0.0468 -0.0874 0.012535 -0.03955 0.03119 0.0883 -0.1555
0.00931 -0.0325 0.12274 -0.02905 -0.11194 -0.02458 -0.0912 0.07324
0.12103 0.1774 0.0839 -0.004097 -0.2299 0.03336 0.01787 0.07086
0.01356 0.05612 0.106 -0.1294 -0.01648 0.01584 -0.00968 0.10016
-0.2012 0.3428 0.01657 0.1842 0.01991 -0.004524 0.0726 -0.02315
0.05206 0.2098 -0.0389 0.0799 0.1927 -0.08435 0.1013 0.01657
0.0408 0.03238 0.3025 -0.1909 -0.00912 0.04727 -0.1488 0.02669
0.02649 0.075 0.07697 -0.05014 -0.11993 -0.04163 0.01254 0.0407
-0.0858 -0.02745 0.02496 0.03793 -0.01366 0.0297 0.037 -0.4421
0.0991 -0.1549 -0.1808 -0.02803 -0.05618 -0.1321 0.249 0.01385
0.2917 0.05634 0.1794 0.0793 -0.11005 -0.00467 -0.0747 0.02882
0.107 -0.284 0.09924 0.1464 -0.1702 0.08386 -0.0721 -0.01056
-0.00465 0.1488 0.1754 0.01952 -0.014824 -0.09894 -0.1449 -0.05136
-0.0692 -0.1332 -0.2019 0.002102 0.02327 0.036 0.0369 -0.0212
-0.05896 0.00908 0.03442 0.02997 -0.1242 -0.05026 -0.05173 -0.03098
-0.0573 -0.05795 -0.05255 -0.0904 -0.0192 -0.2332 -0.0374 -0.1261
0.04575 -0.03152 -0.02458 0.07324 -0.10095 -0.002548 -0.0798 0.0843
-0.02202 0.0731 0.05283 0.007214 0.09924 -0.1404 -0.063 -0.0966
0.1 -0.01132 -0.03928 0.03284 0.02284 -0.04172 0.009254 0.009735
0.0316 -0.03186 0.0121 -0.0331 -0.1184 0.02539 0.1464 0.05804
0.11584 0.153 0.2352 0.03064 0.292 0.067 0.1533 0.0739
-0.04608 -0.05457 -0.05118 0.08813 0.010994 0.1655 0.3071 -0.02956
0.04373 0.05203 0.00567 0.003874 0.005657 -0.00792 -0.02963 -0.07526
-0.00674 -0.04913 0.02483 0.01335 -0.00864 0.04062 -0.00325 -0.02448
-0.02838 0.05634 0.05392 0.0163 0.01605 -0.0286 -0.000941 0.01426
-0.02751 -0.01941 0.05606 0.03595 -0.007763 -0.001982 -0.05768 0.0586
-0.05725 0.0358 0.01034 -0.02702 -0.0354 -0.001891 0.0674 0.08124
-0.02678 -0.03275 0.03317 -0.004173 -0.00808 0.05786 0.004936 -0.0643
00000000: 69ae cea6 3c2b 91ae f730 2d30 75ae aab0
00000010: 6cab 27af 9aad 41a5 c4ae 1030 4fb0 e4ac
00000020: 16ac d310 d828 622a 7126 8ca3 3ead be2f
00000030: b8a7 4797 4524 2f2e 0830 1da7 8c2e adaa
00000040: 81ab fea9 98ad 6b22 10a9 fc27 a72d fab0
00000050: c420 29a8 db2f 70a7 2aaf 4ba6 d6ad b02c
00000060: bf2f ad31 5f2d 329c 5bb3 4528 9324 892c
00000070: f122 2f2b c92e 24b0 38a4 0e24 f5a0 692e
00000080: 70b2 7c35 3e24 e531 1925 a29c a52c eda5
00000090: aa2a b732 fba8 1d2d 2b32 66ad 7c2e 3e24
000000a0: 3929 2528 d734 1cb2 aba0 0d2a c3b0 d526
000000b0: c826 cd2c ed2c 6baa adaf 54a9 6c22 3629
000000c0: 7ead 07a7 6426 db28 fea2 9a27 bc28 13b7
000000d0: 582e f5b0 c9b1 2da7 31ab 3ab0 f833 1723
000000e0: ab34 362b be31 132d 0baf c89c c8ac 6127
000000f0: d92e 8bb4 5a2e af30 72b1 5e2d 9dac 68a1
00000100: c39c c330 9d31 ff24 97a3 55ae a3b0 93aa
00000110: 6eac 43b0 76b2 4e18 f525 9c28 b928 6da5
00000120: 8cab a620 6828 ac27 f3af 6faa 9faa eea7
00000130: 56ab 6bab baaa c9ad eaa4 76b3 caa8 09b0
00000140: db29 09a8 4ba6 b02c 76ae 3899 1bad 652d
00000150: a3a5 ae2c c32a 631f 5a2e 7eb0 08ac 2fae
00000160: 662e cca1 07a9 3428 d925 57a9 bd20 fc20
00000170: 0b28 14a8 3222 3da8 94af 8026 af30 6e2b
00000180: 6a2f e530 8733 d827 ac34 4a2c e830 bb2c
00000190: e6a9 fcaa 8daa a42d a121 4c31 ea34 91a7
000001a0: 9929 a92a ce1d ef1b cb1d 0ea0 96a7 d1ac
000001b0: e79e 4aaa 5b26 d622 6ca0 3329 a89a 44a6
000001c0: 44a7 362b e72a 2c24 1c24 52a7 b593 4d23
000001d0: 0ba7 f8a4 2d2b 9a28 f39f 0f98 62ab 802b
000001e0: 54ab 9528 4b21 eba6 88a8 bf97 502c 332d
000001f0: dba6 31a8 3f28 469c 23a0 682b 0e1d 1dac

conv_mid.2.bias f2 [12]
-0.02727 -0.00617 -0.013084 0.01598 -0.0338 0.01344 0.01909 -0.0339
-0.006966 0.01527 0.004288 0.02757
00000000: fba6 519e b3a2 1724 54a8 e222 e324 57a8
00000010: 229f d123 641c 0f27

conv_mid.3.weight f2 [12, 24, 3, 3]
0.02083 0.04813 0.015236 -0.01007 -0.177 -0.01848 -0.03586 0.11487
0.00779 0.1169 0.2205 0.0541 0.1517 -0.002356 0.1687 0.1293
0.0866 0.02649 0.05804 -0.191 -0.02734 -0.0809 0.165 -0.0427
0.0845 -0.0358 -0.0762 0.02599 0.03616 -0.03047 0.0279 -0.0749
0.04477 -0.013245 0.014626 0.0147 -0.0365 -0.03503 -0.00245 0.01197
0.1825 0.0573 -0.02959 -0.03143 -0.04425 0.03583 -0.01611 -0.03085
-0.013214 -0.184 -0.0319 -0.03964 -0.03925 -0.01738 -0.02034 -0.0723
-0.01407 0.0398 -0.05472 0.0228 0.033 -0.02798 -0.08246 -0.01755
0.0801 -0.05487 -0.1227 -0.0444 -0.1528 -0.0145 -0.07477 0.03595
0.03732 0.00556 0.01532 -0.1427 -0.005432 -0.091 -0.0665 -0.10345
-0.04126 -0.0451 0.0485 0.0916 -0.01997 0.0965 0.03995 -0.01083
-0.0828 -0.10675 0.05692 -0.05112 -0.06042 0.1038 0.01753 -0.0688
0.1293 -0.0759 -0.04507 0.0726 -0.04184 0.01518 0.05258 -0.029
0.01497 -0.006443 -0.03029 -0.03122 -0.0676 0.02643 -0.004494 0.0883
0.10364 -0.051 0.0731 0.0637 -0.01179 -0.0367 -0.134 -0.0927
0.09503 -0.05508 -0.2546 -0.04224 -0.0209 -0.02534 -0.0676 0.085
0.005894 -0.0496 -0.2391 0.00943 -0.0697 -0.004307 0.10425 -0.03723
-0.1439 -0.03674 -0.06525 0.0971 -0.1726 0.00829 -0.2279 -0.07605
0.1059 -0.00583 -0.0433 -0.03354 -0.3298 -0.04633 0.0876 0.03732
-0.04724 -0.003103 0.1481 0.00966 -0.03784 0.4539 0.0803 0.03247
-0.02652 0.04736 -0.05148 -0.002995 -0.03757 0.00855 0.3474 -0.00994
0.00842 -0.0185 0.1003 0.05173 -0.01752 0.0628 -0.0001102 0.04507
0.11096 0.02667 0.0752 -0.0322 0.02588 0.02312 -0.01373 -0.00292
0.11816 0.03418 0.09607 0.1134 0.0327 -0.04654 0.05457 -0.0371
0.1039 0.0789 0.0978 0.05307 0.0975 0.05365 -0.10254 -0.0509
0.05347 -0.0516 0.09393 -0.02264 0.12427 0.10474 0.0653 -0.10187
-0.07715 -0.05954 -0.099 -0.2847 -0.1145 -0.03177 -0.01979 -0.0982
0.01435 0.0725 -0.02644 0.01464 -0.02608 0.08795 -0.05072 0.08075
0.002825 0.04605 0.1266 0.0621 0.004196 0.1833 -0.04492 -0.05835
0.04492 0.0792 0.0779 0.1433 0.1207 0.10187 -0.02043 0.091
0.126 -0.04388 0.0317 0.06177 0.013306 -0.02489 -0.0388 -0.02545
-0.02809 0.0718 0.0696 0.06775 -0.05725 -0.006138 -0.03616 0.01145
00000000: 5525 292a cd23 28a1 aab1 bba4 97a8 5a2f
00000010: fa1f 7b2f 0e33 ed2a db30 d398 6631 2330
00000020: 8b2d c826 6e2b 1db2 00a7 2dad 4831 77a9
00000030: 682d 95a8 e0ac a726 a128 cda7 2427 cbac
00000040: bb29 c8a2 7d23 8723 aca8 7ca8 0599 2122
00000050: d731 562b 93a7 06a8 aaa9 9628 20a4 e6a7
00000060: c4a2 e3b1 15a8 13a9 06a9 73a4 35a5 a1ac
00000070: 34a3 1829 01ab d625 3928 2aa7 47ad 7ea4
00000080: 202d 06ab daaf afa9 e4b0 6da3 c9ac 9a28
00000090: c728 b21d d823 91b0 909d d3ad 42ac 9fae
000000a0: 48a9 c6a9 352a dd2d 1da5 2d2e 1d29 8ca1
000000b0: 4dad d5ae 492b 8baa bcab a52e 7d24 67ac
000000c0: 2330 dcac c5a9 a52c 5ba9 c623 bb2a 6da7
000000d0: aa23 999e c1a7 fea7 54ac c426 9a9c a72d
000000e0: a22e 87aa ae2c 142c 09a2 b3a8 4ab0 efad
000000f0: 152e 0dab 13b4 68a9 5aa5 7da6 54ac 712d
00000100: 091e 59aa a7b3 d420 76ac 699c ac2e c4a8
00000110: 9bb0 b4a8 2dac 372e 86b1 3f20 4bb3 deac
00000120: c72e f89d 8ba9 4ba8 47b5 eea9 9b2d c728
00000130: 0caa 5b9a bd30 f220 d8a8 4337 242d 2828
00000140: caa6 102a 97aa 229a cfa8 6120 8f35 17a1
00000150: 5020 bca4 6b2e 9f2a 7ca4 052c 3987 c529
00000160: 1a2f d426 d02c 1fa8 a026 eb25 08a3 fb99
00000170: 902f 6028 262e 422f 3028 f5a9 fc2a c0a8
00000180: a62e 0d2d 422e cb2a 3d2e de2a 90ae 84aa
00000190: d82a 9baa 032e cca5 f42f b42e 2e2c 85ae
000001a0: f0ac 9fab 56ae 8eb4 54af 11a8 11a5 49ae
000001b0: 5923 a42c c5a6 7f23 ada6 a12d 7eaa 2b2d
000001c0: c919 e529 0d30 f32b 4c1c de31 c0a9 78ab
000001d0: c029 122d fc2c 9630 ba2f 852e 3ba5 d32d
000001e0: 0830 9ea9 0f28 e82b d022 5fa6 f7a8 84a6
000001f0: 31a7 982c 742c 562c 54ab 499e a1a8 dd21

conv_mid.3.bias f2 [12]
0.02255 0.0007725 -0.0203 0.001716 0.01443 0.02794 -0.014915 0.002974
-0.02922 -0.00647 -0.015114 -0.02068
00000000: c625 5412 32a5 0717 6323 2727 a3a3 171a
00000010: 7ba7 a09e bda3 4ba5

conv_mid.4.weight f2 [12, 24, 3, 3]
-0.04175 0.015335 -0.0811 0.03333 0.0434 0.006123 0.007595 -0.01654
0.0221 -0.02374 -0.0681 0.07886 -0.06915 0.2152 -0.0842 0.10004
-0.1434 0.07587 -0.003092 0.0274 0.04163 -0.00926 0.06335 -0.1157
-0.01041 0.01393 0.01511 0.002052 0.02948 -0.0716 -0.03503 0.0001704
-0.0435 0.054 -0.05136 -0.0344 -0.001444 0.06824 -0.03354 0.0268
-0.03278 0.05908 0.03583 0.02559 -0.003796 -0.005936 -0.00802 0.05484
-0.0871 0.0453 -0.08 -0.05017 -0.0258 -0.08466 0.0395 -0.0368
-0.04114 0.01503 -0.0806 0.0856 -0.04413 0.0742 -0.12335 -0.02307
-0.02147 -0.05447 0.0452 -0.01903 0.0865 -0.01866 0.04727 -0.05106
0.01106 -0.0758 -0.01376 -0.03214 0.10596 -0.0333 -6.074e-05 -0.02042
-0.00478 -0.0369 -0.04025 -0.002787 -0.06445 -0.05392 -0.09265 -0.05902
-0.1086 -0.03262 0.04337 -0.01175 0.0347 -0.01118 0.02153 -0.005543
-0.001365 0.0003397 -0.02272 -0.0436 0.1675 0.01409 0.10754 -0.2654
0.01414 -0.04242 0.1087 0.0398 0.0707 -0.1752 0.1737 -0.101
0.1364 -0.1194 0.0231 -0.03882 0.06305 0.04083 0.02629 -0.0106
0.004578 -0.1334 0.0654 -0.03677 0.09094 -0.00875 0.0289 -0.0725
0.1259 -0.07117 0.1676 -0.1948 0.011734 -0.135 0.1011 0.2332
0.1034 0.0935 0.05353 -0.043 0.185 0.01015 0.0222 -0.07404
0.05002 -0.004612 0.06152 0.01103 -0.03928 0.001417 -0.04898 -0.01755
-0.05505 0.02792 -0.0657 -0.0432 -0.06976 0.154 -0.04504 0.06137
-0.1061 0.0928 0.0345 0.00891 0.03577 -0.00614 -0.005413 -0.07056
0.03625 0.02762 0.0224 0.01921 -0.01113 0.091 -0.06726 0.09894
-0.06805 0.03848 -0.08356 0.0395 -0.02017 0.0715 -0.04187 0.013985
-0.0798 0.04486 0.01457 0.012405 0.006866 -0.1152 0.0451 -0.1071
-0.01299 -0.06094 0.10034 -0.00873 -0.1772 -0.06696 -0.02911 0.03087
-0.03525 0.0449 -0.006935 -0.011894 0.01438 0.0002942 0.02498 -0.01223
-0.06964 -0.04617 0.01482 0.1099 0.014565 0.0001388 -0.06506 -0.0236
0.02081 -0.01694 -0.04172 -0.0359 -0.02034 -0.111 -0.03864 0.05396
0.00437 0.1081 0.0975 0.0696 0.06146 0.426 -0.02469 -0.0395
0.07684 0.01344 0.003368 0.0569 0.02505 0.012 -0.0859 0.05597
-0.02165 0.02191 -0.01895 -0.005352 -0.06256 0.0864 0.05606 0.01032
-0.1954 -0.04944 0.0114 0.02113 -0.001389 -0.03763 -0.0772 0.02519
00000000: 58a9 da23 31ad 4428 8e29 451e c71f 3ca4
00000010: a825 14a6 5cac 0c2d 6dac e332 64ad 672e
00000020: 97b0 db2c 559a 0427 5429 bea0 0e2c 68af
00000030: 54a1 2223 bc23 3418 8c27 95ac 7ca8 9509
00000040: 91a9 e92a 93aa 67a8 ea95 5e2c 4ba8 dc26
00000050: 32a8 902b 9628 8d26 c69b 149e 1ba0 052b
00000060: 93ad cc29 1fad 6caa 9ba6 6bad 0e29 b6a8
00000070: 44a9 b223 29ad 7a2d a6a9 c02c e5af e8a5
00000080: 7fa5 f9aa c929 dfa4 892d c7a4 0d2a 89aa
00000090: aa21 daac 0ca3 1da8 c82e 43a8 fb83 3aa5
000000a0: e59c b9a8 27a9 b599 20ac e7aa eead 8eab
000000b0: f3ae 2da8 8d29 04a2 7128 b9a1 8325 ad9d
000000c0: 9795 910d d1a5 95a9 5c31 3723 e22e 3fb4
000000d0: 3d23 6ea9 f52e 1829 862c 9bb1 8f31 77ae
000000e0: 5d30 a4af ea25 f8a8 092c 3a29 bb26 6da1
000000f0: b01c 45b0 302c b5a8 d22d 7ba0 6627 a4ac
00000100: 0730 8eac 5d31 3cb2 0222 52b0 782e 7633
00000110: 9e2e fc2d da2a 81a9 ec31 3221 af25 bdac
00000120: 672a b99c e02b a621 07a9 ce15 45aa 7ea4
00000130: 0cab 2627 34ac 88a9 77ac ee30 c4a9 db2b
00000140: caae f02d 6a28 9020 9428 4a9e 8b9d 84ac
00000150: a428 1227 bc25 eb24 b3a1 d32d 4eac 552e
00000160: 5bac ed28 59ad 0e29 2aa5 932c 5ca9 2923
00000170: 1bad be29 7623 5a22 081f 5faf c629 dbae
00000180: a7a2 cdab 6c2e 78a0 acb1 49ac 74a7 e727
00000190: 83a8 bf29 1a9f 17a2 5d23 d20c 6526 43a2
000001a0: 75ac e9a9 9623 092f 7523 8c08 2aac 0ba6
000001b0: 5425 56a4 57a9 98a8 35a5 1baf f2a8 e82a
000001c0: 7a1c eb2e 3d2e 742c de2b d136 52a6 0ea9
000001d0: eb2c e222 e61a 482b 6a26 2522 7fad 2a2b
000001e0: 8ba5 9c25 daa4 7b9d 01ac 882d 2d2b 4921
000001f0: 41b2 54aa d621 6925 b095 d1a8 f1ac 7326

conv_mid.4.bias f2 [12]
-0.0099 -0.01181 0.0001126 -0.002901 -0.01347 -0.008385 -0.001669 0.01174
0.00889 0.00884 0.004864 -0.006817
00000000: 12a1 0ca2 6107 f199 e6a2 4ba0 d696 0322
00000010: 8d20 8720 fb1c fb9e

conv_mid.5.weight f2 [12, 24, 3, 3]
-0.01398 -0.00924 0.1588 -0.08997 -0.0683 0.1194 -0.0535 -0.01685
0.04135 -0.00838 -0.05927 0.005836 0.03375 0.0452 0.02385 -0.05875
0.00998 -0.0398 -0.0471 0.03546 -0.02423 -0.03326 -0.0777 0.1125
0.0177 0.0958 0.1593 0.04892 0.03473 -0.0494 0.05466 -0.1335
-0.1293 -0.002502 -0.0308 0.06824 -0.075 -0.1266 -0.003857 -0.05862
-0.1483 0.00545 -0.0614 0.05487 0.0545 0.025 -0.04913 -0.0842
-0.04132 -0.11 -0.1116 0.0435 0.03412 -0.127 0.07874 0.1316
-0.002636 0.04245 -0.07056 -0.2732 0.04834 0.005466 -0.0693 -0.0747
0.0738 0.145 -0.04797 0.0785 0.0744 0.02718 -0.0816 0.0252
0.0323 -0.02771 -0.129 -0.04102 0.1 -0.2399 -0.03076 -0.0917
-0.02966 0.04132 0.01302 0.0118 0.01266 0.02069 0.0783 0.0407
0.02977 -0.0643 0.011795 -0.04016 0.12256 -0.01624 -0.11993 0.01729
-0.0798 -0.02586 -0.03635 -0.0329 0.07587 0.02287 -0.05432 0.1882
0.0666 0.01156 -0.1 -0.06573 -0.08997 0.01312 -0.0784 0.02768
0.10065 0.007626 0.01921 0.0771 0.02689 -0.001192 0.10016 -0.013466
0.03812 0.014404 -0.06158 0.05374 0.0801 -0.05844 0.03152 -0.0847
-0.014854 0.05692 -0.09937 -0.06067 0.0149 -0.085 -0.07733 0.08514
-0.0899 0.0647 0.0142 -0.2174 0.03537 -0.01543 -0.0444 0.0327
0.02754 -0.04474 -0.005714 0.0921 0.143 0.01388 0.0828 0.01785
-0.00614 -0.04868 0.01979 0.012184 -0.00687 0.05786 -0.07086 0.01723
-0.03598 0.08966 0.1178 0.0371 0.06186 0.1296 0.10187 0.1799
0.08154 0.0509 -0.0227 -0.01377 -0.02333 -0.168 0.01643 -0.08093
-0.2725 0.05933 0.1344 -0.11206 -0.11316 0.07495 0.0434 -0.0952
-0.001429 0.2223 -0.03032 0.11456 -0.01808 0.07465 0.0914 -0.001097
0.153 -0.206 0.04385 -0.02887 -0.0458 0.05377 0.12054 -0.04782
0.002619 0.1047 0.11786 0.1571 -0.003944 -0.007015 0.05612 -0.01878
0.010124 -0.1339 0.03888 -0.1268 0.03336 -0.001024 -0.0185 0.002499
0.0768 0.03937 -0.00869 0.02 -0.0747 -0.001843 0.0251 -0.0385
0.008675 0.03032 -0.0239 -0.006584 -0.00813 -0.1223 0.01826 0.0045
-0.00167 -0.02002 -0.01457 -0.00166 0.03041 0.01143 0.000951 -0.01859
0.06128 0.03754 -0.00734 0.03096 -0.04825 0.01825 0.0484 0.0003326
0.01383 -0.01677 -0.095 -0.006077 -0.000468 0.0464 -0.01772 0.07367
00000000: 28a3 bba0 1531 c2ad 5fac a42f d9aa 50a4
00000010: 4b29 4aa0 96ab fa1d 5228 c929 1b26 85ab
00000020: 1c21 18a9 07aa 8a28 34a6 42a8 f9ac 332f
00000030: 8824 222e 1931 432a 7228 53aa ff2a 46b0
00000040: 23b0 2099 e3a7 5e2c cdac 0db0 e69b 81ab
00000050: bfb0 951d dcab 062b fa2a 6626 4aaa 64ad
00000060: 4aa9 0aaf 24af 9129 5e28 10b0 0a2d 3630
00000070: 6699 6f29 84ac 5fb4 302a 991d 6fac c8ac
00000080: b92c a430 24aa 062d c32c f526 39ad 7426
00000090: 2228 18a7 21b0 40a9 662e adb3 e0a7 dead
000000a0: 98a7 4a29 ab22 0b22 7b22 4c25 032d 3629
000000b0: 9f27 1dac 0a22 24a9 d82f 28a4 adaf 6d24
000000c0: 1bad 9fa6 a7a8 36a8 db2c db25 f4aa 0632
000000d0: 432c eb21 66ae 35ac c2ad b822 05ad 1627
000000e0: 712e cf1f eb24 ef2c e226 e294 692e e5a2
000000f0: e128 6023 e2ab e12a 202d 7bab 0928 6cad
00000100: 9ba3 492b 5cae c4ab a123 71ad f3ac 732d
00000110: c1ad 242c 4523 f5b2 8728 e6a3 afa9 3028
00000120: 0d27 baa9 da9d e52d 9330 1b23 4d2d 9224
00000130: 4a9e 3baa 1125 3d22 099f 682b 89ac 6924
00000140: 9ba8 bd2d 8a2f c028 eb2b 2630 852e c231
00000150: 382d 842a d0a5 0da3 f9a5 60b1 3524 2ead
00000160: 5cb4 982b 4d30 2caf 3eaf cc2c 8e29 18ae
00000170: da95 1d33 c3a7 552f a1a4 c72c d92d 7e94
00000180: e530 98b2 9d29 64a7 dda9 e22a b72f 1faa
00000190: 5d19 b32e 8b2f 0731 0a9c 2f9f 2f2b cfa4
000001a0: 2f21 49b0 fa28 0fb0 4528 3294 bca4 1e19
000001b0: ea2c 0a29 73a0 1f25 c8ac 8d97 6d26 eea8
000001c0: 7120 c327 1ea6 be9e 2aa0 d4af ad24 9c1c
000001d0: d796 20a5 76a3 cd96 c927 da21 ca13 c2a4
000001e0: d82b ce28 849f ed27 2daa ac24 322a 730d
000001f0: 1523 4ba4 14ae 399e ab8f f029 89a4 b72c

conv_mid.5.bias f2 [12]
-0.001657 0.00318 0.00952 -0.004982 -0.014435 0.001466 -0.005493 -0.0111
-0.00954 0.00807 0.00601 0.002827
00000000: c996 831a e020 1a9d 64a3 0116 a09d afa1
00000010: e2a0 2220 271e ca19

conv_mid.6.weight f2 [12, 24, 3, 3]
-0.04797 0.02663 0.02278 0.01559 -0.1376 0.02753 -0.03293 0.01384
-0.02959 -0.05316 -0.0692 0.01522 0.00973 -0.304 -0.01654 -0.01539
-0.1016 0.08765 -0.02731 0.0001945 0.0951 0.04352 -0.2365 -0.0766
-0.0542 -0.06076 -0.0154 0.04324 0.06335 0.0627 -0.052 -0.2676
0.1498 -0.05893 -0.2106 0.0682 -0.0342 -0.05765 0.0509 0.06384
0.4377 -0.0006714 0.1357 0.164 -0.04813 0.0313 0.06866 0.0333
-0.01796 0.09155 0.0396 -0.1313 -0.0961 0.0259 -0.0648 -0.09796
-0.03075 0.05618 0.1648 0.1165 -0.039 0.1425 -0.003086 0.07654
0.1425 0.007687 0.02724 0.00784 -0.03445 0.02544 0.00554 -0.01097
-0.0402 0.006237 0.05496 0.04437 0.004665 -0.001172 -0.01588 0.0444
-0.01019 -0.05865 0.03784 0.05597 0.04007 -0.156 0.1997 0.001267
-0.02148 0.01727 0.01804 0.0672 0.0977 0.03592 0.184 -0.0001788
-0.02078 0.006985 -0.01828 0.0931 -0.02797 0.00882 -0.01978 0.0987
-0.0091 0.05573 -0.010895 0.01071 -0.01839 -0.0678 0.01201 0.04764
0.11304 -0.06036 0.03021 -0.0699 0.004227 0.063 0.1227 0.0834
0.07446 0.3088 0.129 0.1882 0.206 -0.02673 0.07196 0.07404
-0.02716 -0.0744 0.1029 0.04117 -0.0003438 0.004513 0.0437 -0.0392
0.063 0.0799 -0.1015 -0.1215 0.02928 -0.0538 0.1317 0.06586
0.0434 0.0731 -0.0445 -0.05917 -0.4075 0.08966 -0.04727 0.01923
0.01917 0.05347 -0.00632 -0.05377 -0.11115 0.09796 0.02306 0.0252
-0.1032 -0.03668 0.02446 0.0675 0.003925 0.04123 -0.05695 -0.1024
0.02231 0.003252 0.05493 0.0343 0.0852 0.0794 0.0004797 -0.3203
-0.2008 -0.0614 -0.03934 0.06238 -0.015175 -0.002073 -0.0524 0.0432
-0.1205 -0.0174 -0.0403 0.0315 0.0557 0.09467 -0.04855 -0.04758
0.0652 0.2211 -0.124 0.1256 0.12177 0.10626 -0.02182 -0.1464
-0.06287 -0.03084 -0.0752 -0.0278 0.03198 -0.02454 0.01519 -0.02441
0.05798 -0.01259 0.107 -0.00883 0.02924 -0.0566 0.09033 0.003557
-0.003254 -0.1284 -0.015495 -0.010216 0.0723 0.04535 -0.003622 -0.02155
0.04282 -0.05637 -0.03326 -0.00813 -0.03004 0.228 -0.2017 0.1403
-0.07434 0.05234 -0.0497 0.1282 -0.05435 -0.0531 -0.05896 0.0563
-0.0328 -0.01933 0.07666 -0.01446 -0.1514 0.08374 -0.02034 0.1873
-0.02342 -0.01901 -0.01415 -0.01721 0.1544 -0.03226 -0.08417 0.06134
00000000: 24aa d126 d525 fb23 67b0 0c27 37a8 1623
00000010: 93a7 ceaa 6eac cb23 fb20 ddb4 3ca4 e1a3
00000020: 81ae 9c2d fea6 600a 162e 9229 91b3 e7ac
00000030: f0aa c7ab e3a3 8929 0e2c 032c a8aa 48b4
00000040: cb30 8bab bdb2 5d2c 61a8 61ab 842a 162c
00000050: 0137 8091 5830 3f31 29aa 0228 652c 4328
00000060: 99a4 dc2d 1229 34b0 27ae a126 26ac 45ae
00000070: dfa7 312b 4631 752f fea8 8f30 529a e62c
00000080: 8f30 df1f f926 0420 69a8 8326 ac1d 9ea1
00000090: 25a9 631e 092b ae29 c71c cd94 11a4 af29
000000a0: 38a1 82ab d828 2a2b 2129 feb0 6432 3115
000000b0: 80a5 6c24 9e24 4d2c 412e 9928 e331 dc89
000000c0: 52a5 271f aea4 f52d 29a7 8420 10a5 512e
000000d0: a9a0 222b 94a1 7c21 b5a4 57ac 2622 192a
000000e0: 3c2f baab bc27 79ac 541c 082c da2f 562d
000000f0: c42c f134 2130 0632 9832 d8a6 9b2c bd2c
00000100: f4a6 c3ac 962e 4529 a28d 9f1c 9829 05a9
00000110: 082c 1d2d 7fae c7af 7f27 e3aa 3730 372c
00000120: 8e29 ae2c b2a9 93ab 85b6 bd2d 0daa ec24
00000130: e824 d82a 799e e2aa 1daf 452e e725 7426
00000140: 9bae b2a8 4326 522c 051c 4729 4aab 8eae
00000150: b625 a91a 082b 6428 742d 152d dc0f 20b5
00000160: 6db2 dcab 09a9 fc2b c5a3 3f98 b5aa 8829
00000170: b6af 74a4 29a9 0828 212b 0f2e 37aa 17aa
00000180: 2c2c 1333 f0af 0530 cb2f cd2e 96a5 afb0
00000190: 06ac e5a7 d0ac 1ea7 1828 48a6 c723 40a6
000001a0: 6c2b 72a2 d92e 85a0 7c27 3fab c82d 491b
000001b0: aa9a 1cb0 efa3 3ba1 a12c ce29 6b9b 84a5
000001c0: 7b29 37ab 42a8 2aa0 b1a7 4c33 74b2 7d30
000001d0: c2ac b32a 5daa 1a30 f5aa ccaa 8cab 352b
000001e0: 33a8 f3a4 e82c 67a3 d8b0 5c2d 35a5 fe31
000001f0: ffa5 dea4 3fa3 68a4 f130 21a8 63ad da2b

conv_mid.6.bias f2 [12]
0.0403 0.01116 -0.00645 0.005196 -0.02382 0.01533 -0.008064 -0.01913
0.00545 -0.00803 -0.00968 -0.003796
00000000: 2929 b721 9b9e 521d 19a6 d923 21a0 e6a4
00000010: 951d 1da0 f5a0 c69b

conv_mid.7.weight f2 [12, 24, 3, 3]
-0.0609 0.06433 0.003536 0.0677 -0.01697 0.01026 0.02013 0.0744
-0.000887 -0.02571 -0.003359 -0.00295 -0.002394 -0.172 0.009995 -0.01277
-0.1478 -0.008125 -0.002775 -0.0735 0.001808 -0.1399 0.0609 -0.09485
-0.1045 -0.0487 -0.0349 -0.02724 0.08405 -0.03714 0.00816 -0.08075
0.1134 -0.08105 -0.05734 0.1381 -0.02103 -0.05905 0.03009 -0.00697
-0.1416 -0.001878 0.05997 0.02783 -0.02802 -0.02377 -0.002764 0.02917
0.01119 0.1455 -0.02094 0.04245 -0.05484 -0.03424 0.0473 0.0668
0.01425 -0.02486 0.1265 -0.06354 0.01912 -0.00893 0.0329 -0.04044
-0.002472 -0.0853 0.03452 -0.02174 -0.01651 -0.04996 0.03555 -0.03925
-0.01886 0.01523 0.01003 0.02684 0.06192 0.027 -0.02426 0.001251
0.06525 0.04745 -0.1669 0.1548 0.03156 0.0661 0.01331 0.123
-0.03223 0.01503 -0.04004 0.1113 0.0323 -0.0203 -0.1685 0.02632
-0.007168 0.0885 -0.01034 -0.003134 0.0905 0.0691 0.0572 0.2207
0.2197 -0.0528 0.07947 -0.0544 0.05997 -0.0492 0.0084 -0.05618
0.0317 0.0285 -0.011536 -0.1225 0.03046 0.02856 0.00903 0.04623
0.10504 0.1937 0.1932 0.0783 0.0972 -0.01454 -0.0653 0.1205
0.0614 0.0337 -0.3425 0.1805 0.0097 0.197 -0.05133 0.04562
-0.0892 -0.01964 0.0339 0.0944 -0.1852 -0.00971 -0.1218 -0.002935
0.01338 0.04413 0.01733 0.0609 0.02522 -0.003956 -0.009315 -0.0232
-0.02072 0.01119 0.00425 -0.0812 -0.005016 -0.1997 0.03488 -0.0678
-0.04816 -0.04257 -0.0001594 -0.09174 0.0608 -0.01186 0.04602 0.1052
-0.0319 0.02266 -0.07446 -0.08673 0.02774 0.04272 -0.0227 0.09814
-0.09955 -0.04108 -0.156 0.1542 -0.04797 0.0662 -0.0465 0.1389
-0.1389 -0.05206 0.11084 -0.10297 0.0919 -0.1099 0.09576 -0.1466
-0.1669 0.1481 -0.0372 -0.0755 0.1054 -0.010925 0.044 -0.04214
-0.0572 -0.2307 0.3088 -0.0835 -0.013306 0.01599 0.01087 -0.01828
0.008224 -0.05786 -0.06064 -0.261 -0.003937 0.0815 -0.1775 0.1525
-0.0626 0.03732 -0.0579 -0.06635 -0.01848 -0.02061 -0.05212 -0.0355
-0.06042 0.03787 0.00569 0.04648 0.013664 -0.0005565 -0.03207 0.01785
-0.02802 0.0265 -0.0882 0.02141 0.04858 -0.2256 -0.001347 0.05695
-0.167 -0.071 -0.03787 0.03177 -0.03653 -0.01704 -0.03632 0.01257
-0.01755 0.03625 -0.1522 0.02174 -0.0846 -0.05362 -0.02473 -0.04175
00000000: ccab 1e2c 3e1b 552c 58a4 4121 2725 c32c
00000010: 4493 95a6 e19a 0b9a e798 81b1 1e21 8aa2
00000020: bbb0 29a0 af99 b4ac 6817 7ab0 cc2b 12ae
00000030: b0ae 3caa 78a8 f9a6 612d c1a8 2e20 2bad
00000040: 422f 30ad 57ab 6b30 62a5 8fab b427 239f
00000050: 88b0 b197 ad2b 2027 2ca7 16a6 a999 7827
00000060: bb21 a830 5ca5 6f29 05ab 62a8 0e2a 462c
00000070: 4c23 5da6 0c30 11ac e524 92a0 3628 2da9
00000080: 1099 76ad 6b28 91a5 3aa4 65aa 8d28 06a9
00000090: d4a4 cc23 2321 df26 ed2b e926 36a6 2015
000000a0: 2d2c 132a 57b1 f430 0a28 3b2c d122 df2f
000000b0: 20a8 b223 20a9 202f 2228 32a5 64b1 bd26
000000c0: 579f aa2d 4ba1 6b9a cb2d 6c2c 522b 1033
000000d0: 0833 c2aa 162d f7aa ad2b 4caa 4d20 31ab
000000e0: 0f28 4c27 e8a1 d7af cc27 5027 a020 eb29
000000f0: b92e 3332 2f32 032d 392e 72a3 2eac b62f
00000100: dc2b 5028 7bb5 c731 f720 4e32 92aa d729
00000110: b5ad 07a5 5728 0b2e edb1 f9a0 ccaf 039a
00000120: da22 a629 7024 cc2b 7526 0d9c c5a0 f0a5
00000130: 4ea5 bb21 5a1c 32ad 239d 64b2 7728 57ac
00000140: 2aaa 73a9 3989 dfad c82b 13a2 e429 bc2e
00000150: 15a8 cd25 c4ac 8dad 1a27 7829 d0a5 482e
00000160: 5fae 42a9 feb0 ef30 24aa 3d2c f4a9 7230
00000170: 72b0 aaaa 182f 97ae e22d 09af 212e b1b0
00000180: 57b1 bd30 c3a8 d5ac bf2e 98a1 a229 65a9
00000190: 52ab 62b3 f134 58ad d0a2 1824 9121 aea4
000001a0: 3620 68ab c3ab 2db4 089c 372d aeb1 e130
000001b0: 02ac c728 69ab 3fac bba4 47a5 acaa 8ba8
000001c0: bcab d928 d41d f329 ff22 8f90 1ba8 9224
000001d0: 2ca7 c926 a5ad 7b25 382a 38b3 8495 4a2b
000001e0: 58b1 8bac d9a8 1128 ada8 5da4 a6a8 7022
000001f0: 7ea4 a428 dfb0 9125 6aad ddaa 55a6 58a9

conv_mid.7.bias f2 [12]
-0.003052 -8.94e-06 0.00698 0.00823 -0.00746 -0.01036 0.004314 0.005966
-0.007187 0.00989 0.00694 -0.01906
00000000: 409a 9680 261f 3720 a49f 4ea1 6b1c 1c1e
00000010: 5c9f 1021 1b1f e1a4

conv_mid.8.weight f2 [12, 24, 3, 3]
-0.06995 -0.04886 -0.04413 -0.03915 -0.0419 -0.05768 -0.05887 -0.1431
-0.0703 0.02753 -0.07227 -0.01171 -0.01006 -0.0317 0.01265 0.04337
0.1078 -0.01396 -0.1218 0.1562 0.0563 -0.1608 -0.00877 -0.006256
-0.029 -0.0772 0.07214 -0.03818 -0.02705 -0.00948 0.1542 0.1316
-0.0709 -0.03021 -0.1525 -0.0974 -0.09937 -0.0714 -0.04276 -0.02954
-0.0473 0.04294 -0.0688 -0.03226 0.05127 -0.04828 -0.0838 0.05017
-0.02388 -0.0466 0.0385 0.0292 -0.01447 -0.03635 0.0713 -0.03616
0.00834 -0.12445 -0.10016 0.0769 -0.005356 0.136 0.05856 -0.2109
-0.076 -0.0237 -0.1998 -0.1802 0.002516 -0.1299 -0.0826 0.01055
-0.01366 -0.0749 -0.00887 -0.04785 -0.1672 -0.0933 0.02061 0.02513
-0.02441 -0.04684 0.002508 -0.013275 -0.1216 0.05087 -0.03494 0.04425
0.05942 -0.01634 -0.0432 -0.0376 -0.01476 0.0422 -0.01675 -0.04556
0.1223 0.02809 0.04965 -0.014305 0.0778 0.02469 0.02725 0.0759
0.0079 0.00922 0.02142 0.0005636 0.04218 0.1737 0.0348 0.364
0.0906 0.0978 0.1996 0.2246 0.1018 0.03992 0.01938 -0.02841
0.1193 -0.001773 -0.0639 0.01376 -0.04062 -0.0345 0.10675 -0.08154
-0.02635 0.2211 0.008 0.0154 0.0684 0.094 -0.1318 0.02922
0.0795 0.01293 0.1107 -0.04126 0.0787 -0.00248 -0.08856 0.001848
0.1155 0.0945 -0.02823 0.0788 0.2783 0.05182 0.1875 0.1311
-0.01587 0.1294 0.03918 0.015396 0.0842 0.0928 0.0659 0.07056
0.02916 0.0657 -0.0518 -0.05606 -0.0723 -0.1682 0.0716 0.0639
-0.0443 -0.1199 -0.02019 0.2396 0.0773 0.04218 0.0569 0.2329
0.01915 0.2378 0.11816 -0.04523 0.01093 0.08014 0.0833 0.07544
0.10614 0.01685 0.03128 -0.03336 0.06415 0.04263 0.02359 0.06024
0.1344 -0.05533 0.05273 0.02208 0.01045 0.01657 -0.001323 -0.0899
-0.08655 -0.0213 -0.0627 -0.05695 -0.11786 -0.049 -0.06128 -0.05118
-0.0704 -0.01562 -0.03952 -0.1195 -0.01035 -0.0913 0.01061 -0.03473
0.03326 -0.09924 -0.01191 0.001912 -0.0652 0.02878 -0.03424 -0.009834
-0.0387 0.01773 -0.0736 0.01653 0.0713 -0.01926 -0.05255 0.06635
0.0807 0.0164 -0.006115 0.1168 0.04037 -0.005356 0.078 -0.0775
0.07074 0.01637 0.01833 -0.002054 -0.0602 0.03458 -0.1871 0.02649
0.08966 -0.08563 0.08844 0.0404 -0.04178 0.01721 -0.03165 -0.0568
00000000: 7aac 41aa a6a9 03a9 5da9 62ab 89ab 94b0
00000010: 80ac 0c27 a0ac ffa1 27a1 0fa8 7a22 8d29
00000020: e62e 26a3 ccaf 0031 352b 25b1 7ea0 689e
00000030: 6da7 f1ac 9e2c e3a8 eda6 dba0 ef30 3630
00000040: 8aac bca7 e1b0 3cae 5cae 92ac 79a9 90a7
00000050: 0eaa 7f29 67ac 21a8 902a 2eaa 5dad 6c2a
00000060: 1da6 f7a9 ee28 7a27 69a3 a7a8 902c a1a8
00000070: 4520 f7af 69ae ec2c 7c9d 5a30 7f2b c0b2
00000080: ddac 11a6 65b2 c4b1 2719 28b0 49ad 6721
00000090: fea2 cbac 8ba0 20aa 5ab1 f9ad 4725 6f26
000000a0: 40a6 ffa9 2319 cca2 c8af 832a 79a8 aa29
000000b0: 9b2b 2fa4 88a9 d0a8 8fa3 6729 4aa4 d5a9
000000c0: d42f 3127 5b2a 53a3 fb2c 5226 fa26 dc2c
000000d0: 0b20 b820 7c25 9e10 6629 8f31 7428 d335
000000e0: cc2d 422e 6332 3033 842e 1c29 f624 46a7
000000f0: a32f 4397 17ac 0c23 33a9 6aa8 d52e 38ad
00000100: bfa6 1333 1920 e323 612c 042e 38b0 7b27
00000110: 172d 9f22 162f 48a9 092d 1499 abad 9217
00000120: 642f 0c2e 3aa7 0b2d 7434 a22a 0032 3230
00000130: 10a4 2430 0429 e223 642d f02d 382c 842c
00000140: 7727 342c a1aa 2dab a1ac 62b1 952c 172c
00000150: aca9 acaf 2ba5 ab33 f22c 6629 482b 7433
00000160: e724 9c33 902f caa9 9921 212d 552d d42c
00000170: cb2e 5024 0128 45a8 1b2c 7529 0a26 b62b
00000180: 4d30 15ab c02a a725 5a21 3e24 6b95 c1ad
00000190: 8aad 74a5 03ac 4aab 8baf 46aa d8ab 8daa
000001a0: 81ac ffa3 0fa9 a6af 4da1 d8ad 6f21 72a8
000001b0: 4228 5aae 19a2 d517 2cac 5e27 62a8 09a1
000001c0: f4a8 8a24 b6ac 3b24 902c eea4 baaa 3f2c
000001d0: 2a2d 3324 439e 7a2f 2b29 7c9d fe2c f6ac
000001e0: 872c 3124 b124 3598 b5ab 6d28 fdb1 c826
000001f0: bd2d 7bad a92d 2c29 59a9 6824 0da8 45ab

conv_mid.8.bias f2 [12]
0.001052 -0.004395 -0.006786 -0.007706 -0.03192 -0.0002272 -0.000798 -0.004177
0.00433 -0.01355 0.003359 0.004673
00000000: 4f14 809c f39e e49f 16a8 728b 8a92 479c
00000010: 6f1c f0a2 e11a c91c

conv_mid.9.weight f2 [12, 24, 3, 3]
0.07184 0.00348 0.03726 0.06573 -0.02853 -0.02383 0.05023 0.0716
-0.10486 -0.003044 -0.154 -0.03577 -0.0898 0.1565 -0.1571 -0.0133
-0.06635 0.01433 -0.0901 0.0441 0.02576 -0.000418 0.0862 -0.06058
-0.0542 0.05063 -0.03079 -0.00443 -0.0369 0.01117 0.05484 -0.06946
0.0351 -0.009094 0.08264 -0.00238 0.05978 0.08325 0.0726 0.0623
-0.02316 -0.0905 0.05313 0.08185 0.02296 -0.0739 0.01822 -0.002945
-0.1174 -0.04504 -0.08185 -0.1353 -0.0777 -0.01212 -0.03378 0.0651
0.05865 0.2522 0.6074 0.08954 0.04364 0.2471 0.08984 -0.03564
0.04288 -0.005013 -0.0524 0.1862 -0.146 0.01176 0.004513 0.1366
0.01156 0.1276 0.0673 0.04028 0.0751 0.1351 0.04858 0.0553
0.1324 0.02263 0.0901 -0.00751 -0.135 0.02425 -0.02132 0.004955
-0.1605 0.0472 -0.02248 0.0225 0.08325 0.2281 -0.2474 -0.001278
-0.01277 0.03177 -0.01334 0.015114 0.1073 0.0707 -0.02846 -0.04245
0.1536 -0.04233 -0.003336 0.0352 -0.011215 -0.08905 0.00814 -0.03055
0.0817 0.02916 -0.04343 0.136 0.0124 0.1548 0.2075 -0.006348
0.1311 0.02808 0.1538 -0.02184 0.07227 0.04703 0.012634 0.1057
-0.05035 0.04266 0.1053 0.05518 -0.0008225 0.01232 -0.05215 -0.0383
-0.0497 -0.1026 -0.0006847 0.0699 -0.1216 -0.08484 -0.13 0.0588
-0.0467 -0.0692 -0.07697 -0.05444 -0.282 -0.2318 -0.1267 -0.2795
-0.1321 0.1083 -0.01833 0.0458 -0.00859 -0.06165 0.2064 0.0916
0.1783 0.0339 0.0437 0.03812 -0.05127 -0.3325 -0.3428 -0.1282
-0.00668 -0.1642 -0.1654 0.10175 0.02298 -0.02216 -0.03302 0.02736
0.0843 0.06525 0.1186 -0.04355 -0.013275 -0.1903 -0.1232 0.11914
0.3125 -0.01747 0.04715 0.01573 -0.1026 0.04367 -0.01897 0.01129
0.09064 -0.05612 -0.01389 0.07 0.237 -0.0939 0.1516 -0.09546
-0.02528 -0.07806 0.02744 -0.0676 0.04807 0.121 0.09 -0.01665
0.0381 -0.002775 0.1549 0.1453 0.1581 -0.002373 0.162 0.0708
0.02847 -0.0445 0.01333 -0.1943 -0.2034 -0.2059 0.0346 0.05823
0.09296 0.00978 0.03677 -0.02156 0.02498 -4.33e-05 -0.03662 -0.0771
0.0465 0.0026 -0.02034 0.0633 -0.006477 -0.02722 0.2219 -0.01244
0.04065 -0.0455 0.00855 -0.013275 0.05676 -0.02454 0.01688 -0.1489
0.01117 0.04315 0.02037 -0.010414 0.03217 0.03473 0.05954 0.05228
00000000: 992c 211b c528 352c 4ea7 1aa6 6e2a 952c
00000010: b6ae 3c9a eeb0 94a8 bfad 0231 07b1 cfa2
00000020: 3fac 5623 c4ad a529 9826 d98e 842d c1ab
00000030: f0aa 7b2a e2a7 899c b9a8 b821 052b 72ac
00000040: 7e28 a8a0 4a2d e098 a72b 542d a52c f92b
00000050: eea5 cbad cd2a 3d2d e125 bbac aa24 089a
00000060: 83af c4a9 3dad 54b0 f9ac 35a2 53a8 2b2c
00000070: 822b 0934 dc38 bb2d 9629 e833 c02d 90a8
00000080: 7d29 229d b5aa f531 acb0 0522 9f1c 5f30
00000090: eb21 1530 4f2c 2829 ce2c 5330 382a 142b
000000a0: 3d30 cb25 c42d b19f 52b0 3526 75a5 131d
000000b0: 23b1 0b2a c1a5 c325 542d 4d33 ebb3 3c95
000000c0: 8aa2 1128 d5a2 bd23 de2e 862c 49a7 6fa9
000000d0: ea30 6ba9 d59a 8128 bea1 b3ad 2b20 d2a7
000000e0: 3b2d 7727 8fa9 5a30 5922 f430 a432 809e
000000f0: 3230 3027 ec30 97a5 a02c 052a 7822 c42e
00000100: 72aa 7629 bd2e 102b bd92 4f22 adaa e7a8
00000110: 5daa 91ae 9c91 792c c8af 6ead 29b0 872b
00000120: faa9 6eac edac f8aa 83b4 6bb3 0eb0 79b4
00000130: 3ab0 ee2e b1a4 dd29 66a0 e4ab 9b32 dd2d
00000140: b531 5728 9829 e128 90aa 52b5 7cb5 1ab0
00000150: d79e 41b1 4bb1 832e e225 aca5 3aa8 0127
00000160: 652d 2d2c 972f 93a9 cca2 17b2 e3af a02f
00000170: 0035 79a4 092a 0724 91ae 9729 dba4 c821
00000180: cd2d 2fab 1da3 7b2c 9633 02ae da30 1cae
00000190: 79a6 ffac 0627 54ac 272a be2f c32d 43a4
000001a0: e028 af99 f530 a630 0f31 dc98 2f31 882c
000001b0: 4a27 b2a9 d322 38b2 82b2 97b2 6e28 742b
000001c0: f32d 0221 b528 85a5 6526 d682 b0a8 efac
000001d0: f429 5319 35a5 0d2c a29e f8a6 1a33 5fa2
000001e0: 3429 d3a9 6120 cca2 442b 48a6 5224 c4b0
000001f0: b821 8629 3725 55a1 1e28 7228 9f2b b12a

conv_mid.9.bias f2 [12]
-0.0311 -0.001366 -0.00073 -0.001398 0.001968 -0.00213 -0.00649 0.00247
-0.00731 -0.02603 0.01528 -0.00812
00000000: f6a7 9895 fb91 ba95 0818 5d98 a59e 0f19
00000010: 7c9f aaa6 d323 28a0

conv_mid.10.weight f2 [12, 24, 3, 3]
0.00925 -0.081 -0.00529 -0.0575 0.0988 0.02016 0.00648 0.003292
0.01671 -0.04828 0.1189 -0.03973 0.02792 -0.1015 -0.04434 0.10034
-0.08453 0.005444 0.05338 0.0184 0.02281 -0.05365 -0.1427 0.05975
0.01566 0.04736 -0.03864 0.01365 0.0196 0.004997 -0.02512 -0.0835
-0.03317 -0.01006 0.0003872 -0.0314 -0.02696 -0.07825 -0.001249 -0.1073
-0.2014 -0.02905 -0.02695 -0.05136 0.014885 -0.02135 0.02211 -0.014366
0.01636 0.08295 -0.02963 -0.01395 0.02342 -0.01061 0.005013 0.04144
-0.003666 0.0642 0.078 0.0829 0.05093 0.11383 -0.001636 -0.04065
0.0698 0.001126 0.05017 0.1605 -0.02711 -0.001463 0.000572 0.05237
0.04712 -0.03284 0.042 0.05304 0.1423 -0.02081 -0.00281 0.03394
0.010704 0.0637 0.015526 0.05026 0.02065 0.02379 0.10223 0.02013
0.1315 0.08673 0.00326 0.11957 -0.04642 0.09174 0.1807 -0.04642
-0.03845 0.000991 -0.03075 -0.02477 0.01932 0.01306 0.0448 -0.2705
0.05655 0.02061 -0.01971 0.01585 0.01091 0.03494 0.009865 -0.0089
-0.02814 -0.001656 0.001924 -0.01418 0.0075 -0.04593 0.1842 -0.01283
0.1409 0.0172 0.01895 -0.039 -0.011955 0.01362 -0.00275 -0.02963
-0.01049 -0.0314 -0.1066 0.00878 0.03308 -0.02625 -0.02142 0.03195
-0.02904 0.006733 0.07324 0.1873 0.04126 -0.0266 0.02174 0.03137
-0.00543 0.02792 0.01892 0.04047 0.0885 -0.00962 -0.01775 0.02704
-0.004616 -0.02657 -0.03235 -0.011635 -0.00763 0.2369 -0.0737 -0.01376
-0.0843 0.02295 -0.06097 0.0634 0.01756 0.04346 0.1615 -0.007195
-0.05978 -0.02785 -0.02853 -0.0325 -0.05368 0.0006013 -0.05112 -0.1597
-0.00412 0.0081 -0.0318 -0.02165 -0.01598 -0.0897 0.02835 0.09503
-0.06256 -0.0236 0.0537 -0.1388 -0.004597 -0.01772 -0.10724 0.01169
-0.05914 -0.06866 0.04837 -0.01038 0.01599 -0.03864 -0.09265 -0.06915
-0.07184 -0.07574 -0.1625 -0.03784 -0.03458 -0.1016 -0.0683 -0.031
-0.01414 0.0257 -0.00826 0.1841 -0.07245 0.002533 -0.0128 0.005863
-0.02039 -0.04688 -0.04126 -0.01988 0.02756 -0.01974 -0.011314 -0.0486
-0.03116 0.01438 0.01842 0.0702 -0.05777 0.03934 0.06174 0.02629
-0.01067 -0.0001922 -0.0368 0.01337 -0.04865 0.148 0.07404 -0.02005
-0.01345 0.0827 0.01169 0.04993 0.1703 0.0929 -0.1577 0.0879
0.072 -0.11414 -0.0533 0.0351 0.0984 0.001692 0.10803 0.04648
00000000: bc20 2fad 6b9d 5cab 532e 2925 a31e be1a
00000010: 4724 2eaa 9c2f 16a9 2627 7fae ada9 6c2e
00000020: 69ad 931d d52a b624 d725 deaa 91b0 a62b
00000030: 0224 102a f2a8 fd22 0525 1e1d 6ea6 58ad
00000040: 3fa8 27a1 580e 05a8 e7a6 02ad 1e95 deae
00000050: 72b2 70a7 e6a6 93aa 9f23 77a5 a925 5ba3
00000060: 3024 4f2d 96a7 24a3 ff25 6fa1 221d 4e29
00000070: 829b 1c2c fe2c 4e2d 852a 492f b396 34a9
00000080: 782c 9d14 6c2a 2331 f1a6 fe95 b010 b42a
00000090: 082a 34a8 6029 ca2a 8e30 54a5 c199 5828
000000a0: 7b21 142c f323 6f2a 4925 1726 8b2e 2725
000000b0: 3530 8d2d ad1a a72f f1a9 df2d c831 f1a9
000000c0: eca8 0f14 dfa7 57a6 f224 b022 bc29 54b4
000000d0: 3d2b 4725 0ca5 0f24 9621 7928 0d21 8fa0
000000e0: 34a7 c896 e117 43a3 ae1f e1a9 e531 92a2
000000f0: 8230 6724 da24 fea8 1fa2 f922 a299 96a7
00000100: 5fa1 05a8 d3ae 7f20 3c28 b8a6 7ca5 1728
00000110: 6fa7 e51e b02c fe31 4829 cfa6 9125 0428
00000120: 8f9d 2627 d824 2e29 aa2d eda0 8ba4 ec26
00000130: ba9c cda6 24a8 f5a1 d09f 9533 b8ac 0ca3
00000140: 65ad e025 ceab 0f2c 7f24 9029 2b31 5e9f
00000150: a7ab 21a7 4ea7 29a8 dfaa ed10 8baa 1cb1
00000160: 389c 2620 12a8 8ba5 17a4 bead 4227 152e
00000170: 01ac 0ba6 e02a 71b0 b59c 89a4 ddae fc21
00000180: 92ab 65ac 312a 51a1 1824 f2a8 eead 6dac
00000190: 99ac d9ac 33b1 d8a8 6da8 81ae 5fac f0a7
000001a0: 3da3 9426 3ba0 e431 a3ac 3019 8ea2 011e
000001b0: 38a5 00aa 48a9 17a5 0e27 0ea5 cba1 39aa
000001c0: faa7 5d23 b724 7e2c 65ab 0929 e72b bb26
000001d0: 77a1 4c8a b6a8 d822 3aaa bc30 bd2c 22a5
000001e0: e3a2 4b2d fc21 642a 7331 f22d 0cb1 a02d
000001f0: 9c2c 4eaf d3aa 7e28 4c2e ee16 ea2e f329

conv_mid.10.bias f2 [12]
-0.000239 -0.00901 0.000579 -0.00381 0.001635 0.009384 -0.001005 0.009315
-7.445e-05 0.0008264 0.00063 0.00629
00000000: d58b 9da0 be10 ce9b b216 ce20 1e94 c520
00000010: e184 c512 2911 711e
