mymodel/shugaten.onnx (onnx, 99604 bytes, 36 tensors)

conv_head.weight f2 [12, 3, 3, 3]
-0.01205 -0.0888 0.019 -0.00753 0.10785 -0.06433 0.01069 -0.004272
-0.0517 0.02654 0.0972 0.0207 -0.0809 0.1611 0.01145 -0.01245
0.01942 0.04337 -0.05243 -0.1357 -0.1433 0.02434 0.5923 -0.1074
-0.01196 -0.1289 -0.05624 0.00871 -0.01727 0.07446 -0.1193 0.05518
-0.1117 0.10876 0.007137 -0.01543 0.0016985 0.0417 -0.00723 -0.1588
0.313 -0.1171 -0.00544 -0.1324 0.05463 -0.05548 -0.0166 -0.0513
0.3767 -0.4832 0.2158 -0.1421 0.1818 -0.04797 -0.061 0.04916
-0.03062 0.0753 -0.1143 0.010345 -0.02814 -0.02002 -0.0206 0.1488
0.0236 0.02438 -0.06042 -0.3533 0.2284 0.05872 0.1774 -0.006615
-0.06186 -0.05484 0.03662 -0.05634 -0.2117 0.06192 0.02173 0.03607
0.1236 0.03403 0.1009 -0.013306 0.08887 -0.276 0.05267 -0.00837
0.01326 0.0377 0.1635 0.1327 0.274 -0.039 -0.9004 0.1398
-0.001818 0.1074 0.0786 0.1247 0.06155 0.10474 0.02939 -0.437
0.10284 0.01309 0.064 0.00556 0.007793 0.1476 0.04233 -0.0405
0.006817 0.08636 -0.01778 -0.2688 0.03897 0.11896 0.2734 0.04483
-0.02089 0.0698 0.08594 -0.0526 -0.41 -0.0754 0.10175 0.2966
0.1312 -0.03354 0.04498 0.0329 -0.073 -0.4253 -0.12036 -0.04092
-0.12006 -0.1433 -0.0895 0.3987 -0.2489 0.03992 -0.0716 -0.1172
0.0521 -0.08545 0.1467 -0.1957 0.10004 -0.00714 0.006413 0.0997
0.1583 0.0737 -0.02315 -0.1332 0.11084 0.816 -0.2764 -0.0883
-0.1838 -0.2493 -0.0172 0.03937 -0.0408 -0.1121 0.1726 0.02043
-0.01074 -0.03885 0.0939 -0.1545 -0.1685 0.0414 -0.1047 0.4492
-0.01115 -0.03146 -0.1339 -0.0475 -0.06714 -0.0869 -0.01898 0.0183
0.5396 0.04114 -0.0865 -0.1285 -0.07874 -0.01161 -0.1476 0.1342
0.2073 0.082 -0.1565 0.0325 -0.1478 -0.06094 0.07965 0.045
-0.0787 0.1305 -0.2174 -0.1848 0.1284 0.08606 0.04825 -0.0819
-0.0005593 0.001605 -0.6855 0.7593 0.339 -0.2917 -0.007465 0.02519
-0.1965 -0.1565 -0.04285 -0.0217 0.22 -0.08545 -0.1625 0.2969
0.11646 0.2203 0.2644 0.1965 0.2722 -0.487 -0.00869 0.06155
-0.5293 -0.05908 -0.1475 -0.3013 -0.2299 -0.3123 0.5474 0.05957
0.0678 0.3826 -0.03018 0.03595 0.05127 -0.0849 0.0361 0.345
-0.275 0.01047 0.06537 -0.04135 0.05963 -0.058 -0.1719 0.1301
00000000: 2ba2 afad dd24 b69f e72e 1eac 7921 609c
00000010: 9eaa cb26 392e 4d25 2dad 2831 dd21 60a2
00000020: f924 8d29 b6aa 58b0 96b0 3b26 bd38 e0ae
00000030: 20a2 20b0 33ab 7620 6ca4 c42c a3af 102b
00000040: 26af f62e 4f1f e6a3 f516 5629 679f 15b1
00000050: 0235 7faf 929d 3db0 fe2a 1aab 40a4 91aa
00000060: 0736 bbb7 e832 8cb0 d131 24aa cfab 4b2a
00000070: d7a7 d22c 51af 4c21 34a7 20a5 46a5 c330
00000080: 0b26 3e26 bcab a7b5 4f33 842b ad31 c69e
00000090: ebab 05ab b028 36ab c6b2 ed2b 9025 9e28
000000a0: e92f 5b28 752e d0a2 b02d 6ab4 be2a 49a0
000000b0: ca22 d328 3b31 3f30 6234 fea8 34bb 7930
000000c0: 7297 e02e 082d fb2f e12b b42e 8627 feb6
000000d0: 952e b422 192c b21d fb1f b930 6b29 2fa9
000000e0: fb1e 872d 8da4 4db4 fd28 9d2f 6034 bd29
000000f0: 59a5 782c 802d bcaa 8fb6 d3ac 832e bf34
00000100: 3330 4ba8 c229 3628 acac ceb6 b4af 3da9
00000110: afaf 96b0 baad 6136 f7b3 1c29 95ac 80af
00000120: ab2a 78ad b230 43b2 672e 509f 911e 612e
00000130: 1131 b82c eda5 43b0 182f 873a 6cb4 a7ad
00000140: e2b1 fab3 67a4 0a29 39a9 2daf 8631 3b25
00000150: 80a1 f9a8 022e f2b0 64b1 4d29 b3ae 3037
00000160: b5a1 07a8 49b0 14aa 4cac 90ad dca4 af24
00000170: 5138 4429 89ad 1db0 0aad f2a1 b9b0 4b30
00000180: a232 3f2d 02b1 2928 bbb0 cdab 192d c329
00000190: 09ad 2d30 f5b2 eab1 1c30 822d 2d2a 3ead
000001a0: 9590 9316 7cb9 133a 6d35 abb4 a59f 7326
000001b0: 4ab2 02b1 7ca9 8ea5 0a33 78ad 33b1 c034
000001c0: 742f 0d33 3b34 4a32 5b34 cbb7 73a0 e12b
000001d0: 3cb8 90ab b8b0 d2b4 5bb3 ffb4 6138 a02b
000001e0: 572c 1f36 baa7 9a28 902a 6fad 9f28 8535
000001f0: 66b4 5c21 2f2c 4ba9 a22b 6dab 80b1 2a30

conv_head.bias f2 [12]
-0.01616 -0.010956 -0.08105 -0.015236 -0.03506 0.0749 -0.0614 0.0493
0.05963 -0.1184 -0.01018 0.0988
00000000: 23a4 9ca1 30ad cda3 7da8 cb2c dcab 4f2a
00000010: a22b 94af 36a1 532e

conv_mid.0.weight f2 [12, 24, 3, 3]
0.011505 -0.01234 -0.05637 0.2146 -0.2698 -0.154 0.008644 -0.0829
-0.04572 0.03635 -0.00968 0.06137 -0.0581 0.129 -0.02196 3.79e-05
-0.08203 0.06085 0.06494 -0.07874 -0.02434 0.0697 0.0886 0.08673
-0.03757 -0.013115 0.066 0.03714 -0.1234 0.0329 -0.3765 0.3098
0.06934 0.074 -0.001008 -0.02153 -0.169 0.011116 0.01978 -0.02397
-0.06396 -0.02025 0.0749 -0.03534 -0.005657 0.138 0.0694 -0.02733
0.4065 -0.1978 0.01999 0.01614 0.1103 -0.01936 -0.0269 -0.02458
-0.1004 0.1292 -0.4731 -0.2477 -0.1947 -0.1447 -0.05313 0.04187
0.0901 -0.05634 -0.01604 -0.0934 -0.01219 -0.02635 -0.05637 -0.04974
-0.1362 0.064 -0.05292 -0.0698 0.01423 -0.04913 -0.08997 0.1951
-0.011215 0.296 0.09064 0.07263 0.9556 0.003883 0.0967 0.2822
0.06058 0.0241 0.1049 -0.1833 0.02626 -0.285 0.2241 -0.03622
0.000269 -0.0245 0.02554 0.09015 -0.05347 -0.02927 0.0122 -0.187
0.01567 0.074 0.05624 0.003012 0.0227 -0.0777 0.0948 -0.0343
-0.03525 0.04318 0.03513 -0.1204 0.09644 0.1718 0.04416 -0.1305
-0.1423 -0.0508 0.0137 -0.0717 0.03165 -0.01167 -0.07446 0.08374
-0.03836 0.2507 -0.1477 -0.07385 -0.06854 -0.012726 -0.007385 -0.00594
0.1073 -0.071 0.3616 -0.3394 -0.1617 0.1095 0.01038 -0.06058
0.0836 -0.1343 -0.08356 0.1748 -0.044 -0.06824 -0.1228 0.06198
-0.03708 -0.1481 -0.0847 0.010475 -0.2378 0.2966 -0.02695 0.04053
-0.0832 0.02298 0.1575 0.02003 0.1797 -0.2656 0.4255 0.146
0.1146 0.001011 0.132 0.05927 0.02623 0.02539 -0.1097 0.3809
0.1266 0.0909 -0.07715 0.006104 -0.1189 -0.02548 0.01258 -0.1209
0.0654 0.09216 -0.079 0.1704 0.04944 -0.1476 0.0224 -0.0114
-0.2118 0.1942 -0.06213 -0.1416 0.01651 0.007168 -0.0265 0.07745
0.007965 0.335 -0.3079 -0.0682 0.0331 -0.01555 -0.01735 -0.03223
-0.01473 0.1118 -0.06683 0.11273 -0.0632 -0.03015 0.04523 -0.003557
0.03162 -0.0002291 0.04498 -0.317 0.1736 0.05164 -0.01646 -0.012726
0.05283 0.05185 0.099 0.0278 0.1093 0.09265 0.073 0.05698
0.1118 0.05344 -0.02756 0.11896 -0.002079 0.2078 -0.02484 -0.0549
0.0719 0.0202 -0.05127 -0.011734 0.02605 0.03934 0.6216 -0.4004
-0.06238 0.0877 -0.00596 0.1594 0.1649 -0.2255 -0.01118 -0.002821
00000000: e421 51a2 37ab de32 51b4 eeb0 6d20 4ead
00000010: daa9 a728 f5a0 db2b 70ab 2130 9fa5 7c02
00000020: 40ad ca2b 282c 0aad 3ba6 762c ac2d 8d2d
00000030: cfa8 b7a2 392c c128 e6af 3628 06b6 f534
00000040: 702c bc2c 2194 83a5 68b1 b121 1025 23a6
00000050: 18ac 2fa5 cb2c 86a8 cb9d 6a30 712c ffa6
00000060: 8136 54b2 1e25 2224 0f2f f5a4 e3a6 4ba6
00000070: 6dae 2230 92b7 edb3 3bb2 a1b0 cdaa 5c29
00000080: c42d 36ab 1ba4 faad 3ea2 bfa6 37ab 5eaa
00000090: 5cb0 192c c6aa 78ac 4923 4aaa c2ad 3e32
000000a0: bea1 bc34 cd2d a62c a53b f41b 302e 8434
000000b0: c12b 2b26 b72e deb1 b926 8fb4 2c33 a3a8
000000c0: 680c 46a6 8a26 c52d d8aa 7ea7 3f22 fcb1
000000d0: 0324 bc2c 332b 2b1a d025 f9ac 112e 64a8
000000e0: 83a8 8729 7f28 b5af 2c2e 7f31 a729 2db0
000000f0: 8eb0 81aa 0423 97ac 0d28 faa1 c4ac 5c2d
00000100: e9a8 0334 bab0 baac 63ac 84a2 909f 159e
00000110: de2e 8bac c935 6eb5 2db1 022f 5121 c1ab
00000120: 5a2d 4cb0 59ad 9831 a2a9 5eac dcaf ef2b
00000130: bfa8 bdb0 6cad 5d21 9cb3 bf34 e6a6 3029
00000140: 53ad e225 0a31 2125 c031 40b4 cf36 ac30
00000150: 562f 2414 3930 962b b726 8026 05af 1836
00000160: 0d30 d12d f0ac 401e 9caf 86a6 7122 bdaf
00000170: 302c e62d 0ead 7431 542a b9b0 bc25 d6a1
00000180: c7b2 3732 f4ab 88b0 3a24 571f c9a6 f52c
00000190: 1420 5c35 edb4 5dac 3d28 f6a3 71a4 20a8
000001a0: 8ba3 282f 47ac 372f 0bac b8a7 ca29 499b
000001b0: 0c28 828b c229 12b5 8e31 9c2a 37a4 84a2
000001c0: c32a a32a 562e 1e27 ff2e ee2d ac2c 4b2b
000001d0: 282f d72a 0ea7 9d2f 4298 a632 5ca6 07ab
000001e0: 9a2c 2c25 90aa 02a2 ab26 0929 f938 68b6
000001f0: fcab 9d2d 1a9e 1a31 4731 37b3 b9a1 c799

conv_mid.0.bias f2 [12]
-0.03622 -0.04147 0.02621 -0.01562 -0.0181 -0.0994 -0.09973 -0.02539
0.03268 -0.008766 0.10944 0.0591
00000000: a3a8 4fa9 b626 ffa3 a2a4 5dae 62ae 80a6
00000010: 2f28 7da0 012f 912b

conv_mid.1.weight f2 [12, 24, 3, 3]
0.0518 -0.1023 -0.03937 -0.001644 0.0914 -0.02118 -0.003853 0.0641
0.1224 -0.04 -0.1163 0.0788 0.005363 -0.295 0.02994 -0.04193
-0.10486 0.01513 0.0928 0.09906 -0.01151 0.0836 0.1346 0.0917
0.03455 0.0855 0.05112 0.01804 -0.06354 0.0128 -0.1205 0.0694
-0.0387 -0.01431 -0.02957 0.0907 0.0418 0.02702 -0.0342 0.04636
0.0817 0.0414 0.0943 0.0662 0.105 -0.00702 0.010544 0.001972
-0.10016 0.2085 0.06055 -0.02827 -0.01502 -0.01153 -0.1356 -0.1647
-0.11444 -0.649 -0.2974 -0.1104 -0.1555 -0.258 -0.06757 0.01391
0.003075 -0.0634 -0.1594 -0.0777 0.04648 -0.0741 0.01608 0.05527
0.009834 0.05695 0.04257 0.1829 -0.1432 0.1251 -0.1142 -0.06537
0.1528 0.0412 0.03041 0.01406 0.000952 0.2429 0.06433 0.1164
-0.1279 -0.07025 0.01319 -0.0518 0.07983 -0.1176 0.1841 -0.0382
0.0667 -0.11005 -0.011826 0.05405 0.1201 0.0813 0.3325 -0.0385
-0.06094 0.10315 0.00738 -0.06232 -0.04932 0.0007067 -0.02512 0.03033
-0.11145 0.05664 0.0249 0.0309 0.02132 -0.05585 0.1334 0.05255
-0.1373 0.1747 -0.01097 -0.0905 0.04584 -0.06116 -0.01477 -0.05182
-0.04922 -0.0756 -0.00864 -0.05545 -0.01689 0.0006576 0.0092 0.0236
-0.0546 -0.01569 -0.05542 0.011086 -0.0662 0.07245 0.021 -0.04428
-0.03723 0.05545 -0.0563 -0.09485 -0.1051 -0.0699 -0.03638 -0.1399
-0.1295 0.01962 0.0933 -0.0779 0.0644 0.1094 0.03757 0.01507
0.03098 0.015396 -0.02306 -0.0601 -0.05167 -0.165 0.05118 0.0293
-0.04657 0.2158 0.004696 0.07227 -0.02364 -0.0089 -0.4248 0.1665
-0.04865 -0.2242 -0.1323 -0.02165 -0.04297 -0.0385 0.04935 0.0659
0.1279 -0.0493 -0.1388 -0.1816 0.1305 -0.0348 -0.03015 0.00956
0.05487 -0.05405 0.03137 -0.02592 -0.0443 0.03552 0.0643 -0.04895
-0.1159 0.0962 -0.0821 -0.0646 0.05457 0.0842 0.0193 -0.0761
-0.00794 -0.0425 -0.03308 0.04056 -0.03192 -0.01207 -0.1375 0.01005
-0.0183 0.01306 0.02518 -0.09216 -0.11755 0.0863 -0.02255 -0.0297
-0.01122 -0.04025 -0.03044 0.01256 0.03244 -0.1107 -0.07947 -0.01439
-0.03543 0.02415 -0.0606 -0.09143 0.03207 -0.1365 -0.0989 0.09393
-0.0512 0.00244 0.06012 0.0007205 -0.0341 0.0823 -0.0673 -0.01842
0.04013 -0.0951 0.09033 0.02739 0.01944 -0.013954 -0.1555 0.0846
00000000: a12a 8cae 0aa9 bc96 d92d 6ca5 e49b 1a2c
00000010: d52f 1fa9 71af 0b2d 7e1d b8b4 aa27 5ea9
00000020: b6ae bf23 f02d 572e e5a1 5a2d 4f30 de2d
00000030: 6c28 792d 8b2a 9e24 11ac 8e22 b6af 712c
00000040: f4a8 54a3 92a7 ce2d 5a29 eb26 61a8 ef29
00000050: 3b2d 4d29 092e 3d2c b82e 309f 6621 0a18
00000060: 69ae ac32 c02b 3da7 b1a3 e7a1 57b0 45b1
00000070: 53af 31b9 c2b4 11af fab0 21b4 53ac 1f23
00000080: 4c1a 0fac 1ab1 f9ac f329 beac 1e24 132b
00000090: 0921 4a2b 7329 da31 95b0 0130 4faf 2fac
000000a0: e430 4629 c927 3323 cc13 c633 1e2c 732f
000000b0: 18b0 7fac c122 a1aa 1c2d 87af e431 e4a8
000000c0: 452c 0baf 0ea2 eb2a b02f 342d 5235 eea8
000000d0: cdab 9a2e 8f1f faab 50aa ca11 6ea6 c427
000000e0: 22af 402b 6026 e927 7525 26ab 4530 ba2a
000000f0: 65b0 9731 9ea1 cbad de29 d4ab 90a3 a2aa
00000100: 4daa d7ac 6ca0 19ab 53a4 6311 b620 0b26
00000110: fdaa 04a4 18ab ad21 3dac a32c 6025 aba9
00000120: c4a8 192b 35ab 12ae baae 79ac a8a8 7ab0
00000130: 25b0 0625 f92d fcac 1f2c 002f cf28 b723
00000140: ee27 e223 e7a5 b1ab 9daa 48b1 8d2a 8027
00000150: f6a9 e832 cf1c a02c 0da6 8fa0 ccb6 5431
00000160: 3aaa 2db3 3cb0 8ba5 80a9 eea8 512a 382c
00000170: 1830 4faa 71b0 d0b1 2d30 74a8 b8a7 e520
00000180: 062b ebaa 0428 a3a6 aca9 8c28 1d2c 44aa
00000190: 6baf 282e 41ad 22ac fc2a 642d f124 dfac
000001a0: 11a0 71a9 3ca8 3129 16a8 2ea2 66b0 2521
000001b0: afa4 b022 7226 e6ad 86af 862d c6a5 9aa7
000001c0: bfa1 27a9 cba7 6e22 2728 16af 16ad 5ea3
000001d0: 89a8 2f26 c2ab daad 1b28 5eb0 54ae 032e
000001e0: 8eaa ff18 b22b e711 5da8 442d 4fac b7a4
000001f0: 2329 16ae c82d 0327 fa24 25a3 fab0 6a2d

conv_mid.1.bias f2 [12]
0.05887 -0.01926 0.01654 -0.006004 -0.02824 0.03314 0.00617 -0.03818
0.03152 -0.0535 -0.007484 0.015274
00000000: 892b eea4 3c24 269e 3ba7 3e28 511e e3a8
00000010: 0928 d9aa aa9f d223

conv_mid.2.weight f2 [12, 24, 3, 3]
-0.03372 -0.02946 -0.04214 0.06064 -0.0291 0.0741 -0.01814 -0.0433
-0.00503 0.05356 0.0792 0.078 -0.088 0.4104 0.1554 -0.03806
-0.04172 -0.0001848 -0.01845 -0.02832 -0.002262 -0.07465 0.02545 -0.02353
-0.0798 -0.3103 -0.06714 -0.05594 0.04218 -0.0414 0.05853 -0.1632
-0.07214 0.05096 0.0823 0.02837 -0.03452 0.12384 0.0824 0.2201
0.2118 0.2151 0.11725 0.02971 0.03976 0.0004158 0.04114 0.000487
-0.01383 0.007366 -0.08936 -0.00993 -0.06097 0.01945 0.03925 -0.0965
-0.08875 -0.02258 -0.0883 -0.2047 -0.03442 -0.04562 0.0707 0.06244
-0.06836 0.0261 0.085 -0.376 -0.09033 0.0953 0.05884 -0.01569
0.1444 0.02011 0.03952 0.2212 0.0504 -0.00199 0.1592 0.0407
-0.05148 0.1362 0.1664 0.003645 0.1348 -0.00805 0.0343 0.10095
0.09607 0.1469 -0.004692 -0.1202 0.002111 -0.02318 -0.5146 -0.02522
-0.01881 -0.02411 0.0224 -0.03513 -0.05084 -0.04532 -0.01715 0.2024
-0.155 0.0789 -0.07733 0.04807 0.00975 -0.01216 0.006073 0.001579
0.1076 -0.01363 0.02646 0.0533 -0.00146 -0.0182 -0.1635 -0.01219
0.0803 -0.2559 -0.1134 0.04706 0.0497 0.10394 0.01584 -0.00137
-0.04483 0.010925 -0.2766 0.002125 0.00739 0.075 0.01608 0.02487
0.03485 -0.007122 -0.045 0.2942 0.013 -0.03857 0.011635 0.003761
0.0302 0.004314 0.07074 0.04895 0.1057 -0.01337 0.0965 0.1279
-0.02103 0.014854 -0.01768 0.02107 0.05118 -0.1003 0.11615 0.02252
-0.0299 0.1344 0.002226 0.1927 0.01194 -0.04312 -0.0142 0.0703
-0.04465 0.088 -0.05304 -0.1729 -0.0641 -0.02396 -0.4414 -0.02458
0.01283 -0.1659 -0.05585 0.01741 -0.00628 0.00925 0.0398 -0.04492
-0.01267 0.07935 -0.01454 0.0915 0.0406 -0.02122 -0.07654 0.02461
-0.02673 0.0804 -0.011635 -0.0383 -0.0418 -0.0466 -0.02718 -0.473
-0.04538 -0.01717 -0.0754 0.0291 0.01648 -0.0109 0.01358 0.08514
0.1367 0.1776 0.1296 0.2124 0.2396 0.05386 0.2922 0.10333
-0.0612 0.01494 -0.0409 0.1442 -0.2023 0.0475 0.08795 -0.005726
0.00587 0.01768 0.00402 0.05322 -0.09625 0.07715 -0.10583 0.007126
0.03061 -0.02597 -0.02797 -0.01115 0.0584 0.03668 0.1018 -0.012924
-0.02356 -0.05063 0.013245 -0.01854 -0.202 -0.1283 0.1742 -0.0883
-0.1731 0.02147 0.226 0.03354 0.082 -0.0689 -0.1243 -0.11383
00000000: 51a8 8ba7 65a9 c32b 73a7 be2c a5a4 8ba9
00000010: 279d db2a 122d fe2c a2ad 9136 f930 dfa8
00000020: 57a9 0e8a b9a4 40a7 a298 c7ac 8426 06a6
00000030: 1bad f7b4 4cac 29ab 6629 4da9 7e2b 39b1
00000040: 9eac 862a 442d 4327 6ba8 ed2f 462d 0b33
00000050: c732 e232 812f 9b27 1729 d00e 4429 fb0f
00000060: 15a3 8b1f b8ad 16a1 ceab fb24 0629 2dae
00000070: aead c8a5 a7ad 8db2 68a8 d7a9 862c fe2b
00000080: 60ac ae26 712d 04b6 c8ad 192e 882b 04a4
00000090: 9f30 2625 0f29 1433 742a 1398 1831 3629
000000a0: 97aa 5c30 5331 771b 5030 1fa0 6428 762e
000000b0: 262e b330 ce9c b1af 5318 efa5 1eb8 75a6
000000c0: d1a4 2ca6 bc25 7fa8 82aa cda9 64a4 7a32
000000d0: f6b0 0d2d f3ac 272a fe20 3aa2 381e 7816
000000e0: e32e fba2 c626 d32a fb95 a9a4 3bb1 3ea2
000000f0: 242d 18b4 42af 062a 5d2a a72e 0e24 9d95
00000100: bda9 9821 6db4 5a18 911f cd2c 1e24 5e26
00000110: 7628 4b9f c3a9 b534 a822 f0a8 f521 b41b
00000120: bb27 6b1c 872c 442a c42e d8a2 2d2e 1830
00000130: 62a5 9b23 87a4 6525 8d2a 6bae 6f2f c425
00000140: a8a7 4d30 8f18 2b32 1d22 85a9 45a3 802c
00000150: b7a9 a22d caaa 88b1 1aac 22a6 10b7 4ba6
00000160: 9222 4fb1 26ab 7524 6e9e bc20 1829 c0a9
00000170: 7da2 142d 72a3 db2d 3229 6fa5 e6ac 4d26
00000180: d8a6 252d f5a1 e7a8 5aa9 f7a9 f5a6 91b7
00000190: cfa9 65a4 d3ac 7327 3824 95a1 f422 732d
000001a0: 6030 af31 2630 cc32 ab33 e52a ad34 9d2e
000001b0: d5ab a623 3ca9 9d30 79b2 142a a12d dd9d
000001c0: 031e 8724 1e1c d02a 29ae f02c c6ae 4c1f
000001d0: d627 a6a6 29a7 b5a1 7a2b b228 842e 9ea2
000001e0: 08a6 7baa c822 bfa4 77b2 1bb0 9331 a7ad
000001f0: 8ab1 7f25 3b33 4b28 3f2d 69ac f5af 49af

conv_mid.2.bias f2 [12]
0.003876 0.02177 -0.01341 0.02478 -0.03058 0.02383 -0.02083 0.003725
0.05414 -0.02364 -0.00171 -0.001342
00000000: f01b 9325 dea2 5826 d4a7 1a26 55a5 a11b
00000010: ee2a 0da6 0197 7f95

conv_mid.3.weight f2 [12, 24, 3, 3]
0.12244 0.0889 -0.0829 0.1177 -0.1335 -0.142 -0.003744 -0.01927
0.0411 0.01634 0.02716 0.01744 0.2214 0.2131 -0.0748 0.0912
0.1558 0.058 -0.00672 -0.02623 -0.0791 -0.1061 0.185 -0.003248
-0.03717 0.007656 0.11633 -0.158 0.0165 -0.1313 -0.04358 0.644
-0.04 -0.1133 -0.00215 0.03278 -0.01404 0.01554 -0.05804 0.1209
-0.03653 -0.02238 0.06696 -0.002165 -0.02089 0.00885 -0.2979 -0.07043
0.11847 -0.03882 -0.03488 0.03668 -0.229 -0.281 0.06793 0.0308
-0.01245 0.04733 -0.0802 0.02486 0.06757 0.09045 0.1711 0.06152
-0.04657 -0.0606 0.1066 0.198 0.0739 -0.001393 0.03528 -0.05948
0.00916 0.03442 -0.01261 -0.02492 0.007233 0.0438 0.0794 -0.04865
0.00654 -0.0203 -0.04602 0.0295 0.01259 0.00816 -0.00826 0.05142
0.092 0.04214 0.02791 0.0258 -0.0251 0.1757 0.3408 -0.0544
0.0034 -0.0389 -0.1324 -0.03732 -0.04922 -0.0734 0.02145 0.411
-0.04648 0.01133 0.04257 -0.046 0.03296 -0.03677 0.02974 -0.02957
0.1486 0.03032 0.03757 0.02274 0.03235 -0.02477 -0.02617 -0.0774
-0.01602 -0.2434 0.0492 0.014404 -0.07416 -0.11017 -0.07996 0.02618
0.0827 -0.003038 -0.02783 0.1879 0.0261 -0.0848 -0.12384 0.014084
-0.05447 0.11066 -0.01152 0.05405 0.03586 0.018 -0.1377 -0.09863
-0.1511 -0.2856 -0.0739 -0.1788 -0.4312 -0.06494 -0.0929 -0.0397
0.1978 -0.0689 0.1294 0.0648 -0.0514 0.1796 -0.1142 -0.075
0.0899 0.1202 -0.0555 -0.002169 -0.01773 0.02983 0.2234 0.07544
-0.08026 -0.08234 -0.12476 -0.1652 -0.1305 -0.1536 -0.0744 -0.5127
-0.12256 -0.0898 -0.1609 -0.1261 0.07733 0.04596 0.0436 0.0533
-0.1271 0.0353 0.0239 -0.007767 -0.0663 0.0326 0.0407 -0.0753
-0.0547 -0.1027 0.05466 -0.03323 -0.1382 -0.08453 -0.0881 -0.0158
-0.001788 -0.1206 -0.1497 0.05356 -0.011 -0.0651 0.12384 0.05698
0.05844 0.0698 -0.0514 -0.4053 0.0688 -0.02675 -0.04065 0.09796
0.1244 -0.01294 0.09686 -0.02148 0.04456 0.1394 0.11304 0.2498
0.11487 -0.0505 0.03604 0.02101 -0.085 0.01862 -0.129 -0.0759
-0.05676 0.001846 -0.1315 0.1428 0.08527 0.1002 0.11346 -0.1874
0.1257 0.0629 0.05576 0.1575 0.2659 0.0827 0.29 0.7603
0.1658 0.0583 0.07043 0.0993 0.00886 -0.12085 -0.036 0.05112
00000000: d62f b12d 4ead 882f 46b0 8bb0 ab9b efa4
00000010: 4329 2f24 f426 7724 1633 d232 caac d62d
00000020: fc30 6d2b e29e b7a6 10ad caae ec31 a79a
00000030: c2a8 d71f 722f 0eb1 3924 34b0 94a9 2739
00000040: 1fa9 40af 6798 3228 30a3 f523 6eab bd2f
00000050: ada8 bba5 492c 6f98 59a5 8820 c4b4 82ac
00000060: 952f f8a8 77a8 b228 54b3 7fb4 592c e327
00000070: 60a2 0f2a 22ad 5d26 532c ca2d 7a31 e02b
00000080: f6a9 c2ab d32e 5632 bb2c b595 8428 9dab
00000090: b120 6828 75a2 61a6 681f 9b29 152d 3aaa
000000a0: b21e 32a5 e4a9 8d27 7222 2e20 3ba0 952a
000000b0: e32d 6529 2527 9b26 6da6 9f31 7435 f7aa
000000c0: f71a fba8 3db0 c7a8 4daa b3ac 7e25 9336
000000d0: f3a9 cd21 7329 e3a9 3828 b5a8 9d27 92a7
000000e0: c130 c327 cf28 d225 2428 57a6 b3a6 f4ac
000000f0: 1aa4 cab3 4c2a 6023 bfac 0daf 1ead b426
00000100: 4b2d 399a 20a7 0332 ae26 6dad edaf 3623
00000110: f9aa 152f e6a1 eb2a 9728 9c24 68b0 50ae
00000120: d6b0 92b4 bbac b9b1 e6b6 28ac f2ad 15a9
00000130: 5432 69ac 2430 262c 94aa bf31 4faf cdac
00000140: c12d b12f 1bab 7198 8aa4 a327 2633 d42c
00000150: 23ad 45ad fcaf 49b1 2db0 eab0 c3ac 1ab8
00000160: d8af bfad 26b1 09b0 f32c e229 9529 d32a
00000170: 11b0 8528 1e26 f49f 3eac 2c28 3629 d2ac
00000180: 00ab 93ae ff2a 41a8 6cb0 69ad a3ad 0ba4
00000190: 5397 b8af cab0 db2a a2a1 2bac ed2f 4b2b
000001a0: 7b2b 782c 94aa 7cb6 672c d9a6 34a9 452e
000001b0: f62f a0a2 332e 80a5 b429 7630 3c2f fe33
000001c0: 5a2f 77aa 9d28 6125 71ad c424 21b0 dcac
000001d0: 44ab 9017 35b0 9230 752d 6a2e 432f ffb1
000001e0: 0630 072c 232b 0a31 4134 4b2d a434 153a
000001f0: 4e31 762b 822c 5b2e 8920 bcaf 9ca8 8b2a

conv_mid.3.bias f2 [12]
-0.0034 -0.008934 0.02461 -0.05142 -0.0291 -0.00645 -0.01428 0.01614
0.01149 0.0414 0.01306 0.01223
00000000: f79a 93a0 4d26 95aa 73a7 9b9e 50a3 2224
00000010: e221 4d29 b022 4322

conv_mid.4.weight f2 [12, 24, 3, 3]
-0.09247 -0.05835 -0.0003695 -0.01452 -0.01991 0.0302 0.003113 -0.11835
-0.05817 0.1809 0.01115 0.01587 0.1932 -0.08954 -0.0314 0.174
-0.0931 0.0742 -0.06323 -0.007114 -0.014824 -0.04147 -0.1537 -0.03455
0.007614 0.2737 -0.0964 0.0813 0.1283 -0.005215 0.03937 -0.1043
0.04648 0.0854 0.1343 -0.02971 -0.06158 -0.1316 0.02603 0.02635
-0.0972 -0.07263 -0.04346 -0.01159 -0.02412 -0.03119 0.02779 -0.0769
0.1561 0.1302 0.12384 0.1875 0.1322 -0.04413 -0.1315 -0.2302
-0.32 -0.1254 0.1522 -0.2659 -0.1964 -0.1426 -0.3313 -0.2883
-0.2852 -0.2537 -0.1371 -0.1633 -0.2174 -0.05365 -0.0673 -0.05463
-0.1058 -0.05725 0.06107 0.1628 0.3142 0.1361 0.1263 -0.1295
0.0811 -0.12024 -0.01575 0.0777 -0.1033 -0.0005364 -0.04596 -0.0648
0.07825 -0.05142 0.1758 0.1752 0.2847 0.2051 0.1793 0.05145
0.2299 0.4448 0.186 0.08813 0.343 0.1887 0.2467 0.0896
0.1126 0.0822 0.1465 0.1882 0.1819 0.1578 0.041 0.08276
-0.04913 0.01524 0.1875 0.1792 0.096 -0.0673 -0.16 0.0856
-0.2163 0.2827 -0.03888 -0.05258 -0.0961 -0.0975 0.3447 0.1153
0.01991 0.01145 0.235 0.04593 0.12317 -0.2329 0.1137 -0.0759
-0.002985 0.1023 0.04587 0.08154 -0.0681 -0.002983 -0.0117 0.103
-0.0811 0.2253 0.2296 0.1416 0.001316 -0.1017 0.107 -0.0523
0.2234 -0.2212 -0.31 -0.10175 -0.2428 -0.298 -0.3777 -0.238
-0.3542 -0.0939 0.0678 0.1495 0.216 0.1155 0.02686 0.06915
0.01379 0.1147 0.0902 -0.0764 -0.03387 -0.0632 -0.1997 -0.2532
-0.04932 -0.1993 -0.1948 -0.1738 -0.02153 -0.02544 -0.0749 -0.10114
0.0367 -0.1382 -0.05865 -0.0716 -0.0842 0.1185 -0.02948 -0.2756
0.073 0.042 0.01843 0.07153 -0.1736 0.0759 0.099 0.1637
0.0481 0.0497 0.11554 0.1436 0.0912 -0.01201 -0.01264 -0.1099
-0.2019 0.09766 -0.3618 0.1664 -0.2563 -0.0682 -0.1381 -0.2673
-0.01987 0.01482 -0.05255 -0.1038 -0.05057 0.04337 -0.00552 0.0598
0.04282 -0.04794 0.01292 -0.04825 -0.11316 -0.08673 0.04797 0.02406
0.03122 0.01126 0.006207 -0.0756 0.00622 -0.013535 0.2134 0.01979
-0.116 -0.0726 -0.01564 -0.005688 0.03903 0.1065 0.03348 -0.02179
-0.0483 -0.01342 -0.03006 -0.05353 -0.01706 0.0332 -0.1096 0.023
00000000: ebad 78ab 0e8e 6fa3 19a5 bb27 601a 93af
00000010: 72ab ca31 b521 1024 2f32 bbad 05a8 9131
00000020: f5ad c02c 0cac 499f 97a3 4fa9 ebb0 6ca8
00000030: cc1f 6134 2bae 342d 1b30 579d 0a29 adae
00000040: f329 772d 4c30 9ba7 e2ab 36b0 aa26 bf26
00000050: 39ae a6ac 90a9 efa1 2da6 fca7 1d27 ecac
00000060: ff30 2b30 ed2f 0032 3b30 a6a9 35b0 5eb3
00000070: 1fb5 03b0 df30 41b4 49b2 90b0 4db5 9db4
00000080: 90b4 0fb4 63b0 3ab1 f5b2 deaa 4fac feaa
00000090: c5ae 54ab d12b 3631 0735 5b30 0b30 25b0
000000a0: 312d b2af 08a4 f92c 9cae 6590 e2a9 26ac
000000b0: 022d 95aa a031 9b31 8e34 9032 bd31 962a
000000c0: 5b33 1e37 f431 a42d 7d35 0a32 e533 bc2d
000000d0: 352f 432d b030 0632 d231 0d31 3f29 4c2d
000000e0: 4aaa ce23 0032 bc31 252e 4fac 1fb1 7a2d
000000f0: ecb2 8634 faa8 bbaa 27ae 3dae 8435 612f
00000100: 1925 dd21 8533 e129 e22f 74b3 472f dcac
00000110: 1d9a 8c2e df29 382d 5cac 1c9a fea1 982e
00000120: 31ad 3633 5933 8830 6415 82ae d92e b2aa
00000130: 2633 14b3 f6b4 83ae c5b3 c5b4 0bb6 9eb3
00000140: abb5 02ae 572c c930 e932 642f e026 6d2c
00000150: 0f23 572f c62d e4ac 56a8 0bac 64b2 0db4
00000160: 50aa 61b2 3cb2 90b1 83a5 83a6 cbac 79ae
00000170: b328 6cb0 82ab 95ac 64ad 962f 8ca7 69b4
00000180: ac2c 6029 b824 942c 8eb1 dc2c 562e 3d31
00000190: 282a 5d2a 652f 9830 d62d 26a2 79a2 09af
000001a0: 76b2 402e cab5 5331 1ab4 5dac 6bb0 47b4
000001b0: 16a5 9623 baaa a5ae 79aa 8d29 a79d a82b
000001c0: 7b29 23aa 9d22 2daa 3eaf 8dad 242a 2926
000001d0: fe27 c421 5b1e d7ac 5f1e eea2 d432 1125
000001e0: 6daf a5ac 01a4 d39d ff28 d12e 4928 94a5
000001f0: 2faa dfa2 b2a7 daaa 5ea4 4028 04af e325

conv_mid.4.bias f2 [12]
-0.0784 0.00763 0.004017 0.007027 0.00882 0.009766 -0.015594 0.01176
0.01001 0.0576 -0.02646 -0.02966
00000000: 05ad d01f 1d1c 321f 8420 0021 fca3 0522
00000010: 2021 5f2b c6a6 98a7

conv_mid.5.weight f2 [12, 24, 3, 3]
0.11084 0.04773 0.1675 0.04822 -0.3892 0.0537 0.03052 0.04886
-0.06616 -0.002043 -0.05316 -0.003994 0.2234 0.302 -0.1226 0.03223
-0.1743 0.01643 -0.10065 -0.04175 -0.0963 0.0632 -0.03464 -0.1725
0.01633 0.26 -0.0668 0.0949 0.0807 0.02438 -0.1746 0.245
-0.12054 0.1884 0.1482 -0.11224 -0.02165 -0.0176 -0.04678 -0.0478
-0.2778 -0.005524 0.1599 0.2367 0.02687 -0.1525 -0.1617 0.0495
0.04346 0.2374 -0.091 -0.01894 -0.03087 0.02289 0.0414 -0.1184
0.00841 0.01083 -0.3528 0.00933 -0.1914 0.0451 -0.010506 0.04257
-0.0716 -0.001212 -0.02754 -0.4846 0.03082 -0.10956 0.0777 -0.074
0.197 0.12 0.00989 0.01665 0.2322 -0.0826 -0.0638 0.1406
0.00786 -0.11273 -0.1294 0.03146 -0.02504 0.1076 -0.0001732 -0.001197
-0.1105 0.076 -0.04803 -0.0629 -0.2059 0.1436 0.03934 -0.04617
-0.0603 -0.05255 -0.0806 -0.041 -0.05295 0.1404 -0.145 -0.211
0.05362 -0.2578 -0.2783 -0.1186 -0.1395 -0.1975 -0.0402 0.0667
0.2313 -0.03516 -0.03558 -0.0571 -0.011116 0.0223 0.0696 0.0749
-0.1348 -0.298 0.0598 0.0614 0.1731 0.1871 0.05237 0.0865
0.0283 -0.2491 -0.2471 0.0679 -0.03717 -0.06003 0.0962 -0.2527
-0.08276 0.06946 0.1332 -0.1611 0.1884 -0.1378 -0.1676 0.0994
0.11 0.02412 -0.02606 0.117 0.296 -0.1746 -0.05603 -0.04803
-0.1011 0.147 0.0008082 -0.02428 0.372 -0.008995 0.2416 -0.004986
-0.03607 -0.04263 -0.004242 0.0675 -0.0649 0.0896 0.1818 0.0258
0.02419 -0.013145 -0.0748 0.09814 0.1383 0.05432 0.0572 0.3684
0.04745 -0.1305 0.135 0.0821 -0.2612 -0.05032 -0.1255 0.05466
-0.1396 0.03836 0.01843 -0.138 0.0417 0.1932 0.1752 0.06033
0.0486 -0.1704 -0.01153 -0.04877 0.1682 -0.005955 -0.1292 -0.2313
0.03433 0.03128 -0.0202 -0.09503 -0.006374 -0.2507 -0.1426 0.0311
0.11224 -0.05078 -0.04962 0.1426 -0.02359 0.0806 0.1012 -0.003853
-0.0645 -0.1112 -0.007023 -0.0099 0.011604 0.0641 0.04816 0.02847
-0.10486 -0.15 -0.1002 0.05838 -0.11206 0.3923 0.2106 0.01802
0.0826 -0.0461 -0.06824 0.02925 -0.02211 -0.01839 -0.1666 0.006615
-0.08673 -0.04214 -0.0473 0.0619 0.0995 -0.01193 0.075 0.02591
0.0111 0.02588 0.1188 0.1139 0.0968 -0.03134 -0.06305 -0.00944
00000000: 182f 1c2a 5c31 2c2a 3ab6 e02a d027 412a
00000010: 3cac 2f98 ceaa 179c 2633 d534 d9af 2028
00000020: 94b1 3524 71ae 58a9 2aae 0b2c 6fa8 85b1
00000030: 2e24 2934 46ac 132e 2a2d 3e26 96b1 d733
00000040: b7af 0732 be30 2faf 8ba5 81a4 fda9 1eaa
00000050: 72b4 a89d 1e31 9333 e126 e1b0 2db1 562a
00000060: 9029 9933 d3ad d9a4 e7a7 dc25 4d29 94af
00000070: 4e20 8c21 a5b5 c720 20b2 c629 61a1 7329
00000080: 95ac f794 0da7 c1b7 e427 03af f92c bcac
00000090: 4e32 ae2f 1021 4324 6e33 49ad 15ac 8030
000000a0: 0620 37af 24b0 0728 69a6 e32e ad89 e794
000000b0: 12af dd2c 26aa 07ac 97b2 9830 0929 e9a9
000000c0: b8ab baaa 29ad 3fa9 c7aa 7e30 a4b0 c1b2
000000d0: dd2a 20b4 74b4 97af 77b0 52b2 25a9 452c
000000e0: 6733 80a8 8ea8 4fab b1a1 b525 742c cb2c
000000f0: 50b0 c5b4 a82b dc2b 8a31 fd31 b42a 892d
00000100: 3f27 f9b3 e8b3 582c c2a8 afab 282e 0bb4
00000110: 4cad 722c 4330 28b1 0732 69b0 5db1 5d2e
00000120: 0a2f 2d26 aca6 7d2f bc34 96b1 2cab 26aa
00000130: 78ae b430 9f12 37a6 f435 9ba0 bb33 1b9d
00000140: 9ea8 75a9 589c 522c 27ac bc2d d131 9b26
00000150: 3126 bba2 caac 482e 6d30 f42a 522b e535
00000160: 132a 2db0 5230 412d 2eb4 71aa 04b0 ff2a
00000170: 78b0 e928 b824 6ab0 5629 2f32 9b31 b92b
00000180: 392a 74b1 e7a1 3eaa 6231 199e 22b0 67b3
00000190: 6528 0128 2ca5 15ae 879e 03b4 90b0 f627
000001a0: 2f2f 80aa 5aaa 9030 0aa6 292d 7a2e e49b
000001b0: 21ac 1eaf 319f 12a1 f121 1a2c 2a2a 4a27
000001c0: b6ae cdb0 6aae 792b 2caf 4736 bd32 9d24
000001d0: 492d e7a9 5eac 7d27 a9a5 b5a4 55b1 c61e
000001e0: 8dad 65a9 0eaa ec2b 5e2e 1ca2 cd2c a226
000001f0: af21 a026 9a2f 4a2f 322e 03a8 09ac d5a0

conv_mid.5.bias f2 [12]
-0.0549 0.01749 -0.0452 0.01166 0.0166 0.02191 0.02057 0.003933
0.01503 0.0453 0.01262 -0.0563
00000000: 07ab 7a24 c9a9 f821 4024 9c25 4425 071c
00000010: b223 cc29 7622 35ab

conv_mid.6.weight f2 [12, 24, 3, 3]
0.003422 -0.1337 0.03543 -0.009995 -0.1185 -0.04987 0.006958 0.02936
-0.0806 -0.2107 0.0899 0.11694 -0.137 0.208 -0.02892 0.0569
-0.1593 -0.07684 0.0296 0.0171 -0.05707 -0.0455 -0.1246 0.02061
-0.08954 -0.11945 0.03317 -0.02394 0.0016575 0.03062 0.0989 0.02602
0.01213 0.1355 0.1006 -0.011505 -0.0786 0.0901 -0.06335 -0.01813
0.12085 -0.05835 -0.03001 -0.04108 0.04944 0.02805 -0.0909 -0.02762
0.0467 0.0542 0.003233 -0.04794 0.0814 0.0478 0.05557 -0.04785
0.155 0.1371 -0.1588 0.02905 0.0527 0.09064 0.08704 0.1339
0.08466 0.0769 0.04922 -0.01346 0.00904 -0.014046 0.1539 0.1014
-0.04404 -0.0816 -0.139 -0.03873 -0.3137 0.02124 -0.10236 0.0025
0.02768 0.3037 -0.02658 0.2129 0.2388 -0.4167 0.1106 0.1385
0.1747 0.2524 -0.05658 0.0639 0.0893 0.01557 -0.1613 0.003782
0.05563 0.01378 0.01294 -0.02802 0.014915 -0.009315 0.0769 -0.1948
-0.01794 -0.07074 -0.0442 -0.0415 0.05753 0.08057 0.02374 -0.028
-0.02914 0.1378 0.001619 0.00961 0.03674 0.01915 0.11633 -0.0844
-0.02698 0.08954 -0.0807 0.01797 -0.1619 -0.0365 0.03305 -0.03882
0.06604 0.1356 -0.0895 0.00789 0.10205 -0.02011 0.006573 0.02963
-0.01037 -0.002209 0.09705 0.10803 -0.072 -0.1271 0.01729 -0.01724
0.11945 -0.1051 0.08954 -0.0166 -0.165 0.03177 -0.005142 0.02028
-0.06506 -0.1948 -0.1704 -0.2585 -0.2827 0.1054 -0.01435 -0.2827
-0.096 -0.2532 0.001914 0.1575 -0.03824 0.0395 -0.0936 0.07947
-0.02669 -0.0701 -0.01237 -0.04044 -0.04703 0.003897 0.01351 -0.08105
0.0416 -0.03464 -0.0625 0.01772 0.089 0.0852 0.0385 -0.2341
0.4326 0.07495 -0.0873 -0.2898 -0.003553 -0.01842 0.1147 0.115
0.081 0.09247 0.10956 0.1298 0.07263 0.02853 0.00877 0.02808
-0.06384 -0.0209 -0.0573 0.02966 0.01078 -0.04715 -0.02098 0.05432
-0.0898 0.05014 0.0003285 -0.0719 0.02559 0.0959 0.06805 -0.0317
-0.00796 -0.1567 -0.0404 0.06052 -0.1881 0.01197 0.02557 0.00225
0.04663 -0.05133 0.1686 0.0413 0.01015 0.3079 0.01552 0.03024
0.000902 0.02072 -0.00722 0.1257 -0.03662 0.1239 -0.02335 0.06793
0.00661 0.0043 0.0552 -0.004993 -0.10205 0.02719 -0.0206 -0.1464
0.0718 0.01717 0.09644 0.045 0.01522 0.1146 0.02379 -0.1416
00000000: 021b 47b0 8928 1ea1 96af 62aa 201f 8427
00000010: 29ad beb2 c12d 7c2f 62b0 a832 67a7 482b
00000020: 19b1 ebac 9427 6124 4eab d3a9 f9af 4725
00000030: bbad a5af 3f28 21a6 ca16 d727 542e a926
00000040: 3622 5630 702e e4a1 08ad c42d 0eac a4a4
00000050: bc2f 78ab afa7 42a9 542a 2e27 d1ad 12a7
00000060: fa29 f02a 9f1a 23aa 362d 1e2a 1d2b 20aa
00000070: f630 6330 15b1 7027 bf2a cd2d 922d 4930
00000080: 6b2d ec2c 4d2a e4a2 a120 31a3 ed30 7d2e
00000090: a3a9 39ad 73b0 f5a8 05b5 7025 8dae 1f19
000000a0: 1627 dc34 cea6 d032 a433 abb6 142f 6f30
000000b0: 9731 0a34 3eab 172c b72d f923 29b1 bf1b
000000c0: 1f2b 0e23 a022 2ca7 a323 c5a0 ec2c 3cb2
000000d0: 98a4 87ac a8a9 50a9 5d2b 282d 1426 2ba7
000000e0: 76a7 6930 a216 ec20 b428 e724 722f 67ad
000000f0: e8a6 bb2d 2aad 9a24 2eb1 aca8 3b28 f8a8
00000100: 3a2c 5730 baad 0a20 882e 26a5 bb1e 9627
00000110: 4fa1 8698 362e ea2e 9cac 11b0 6d24 6aa4
00000120: a52f baae bb2d 40a4 48b1 1128 449d 3125
00000130: 2aac 3cb2 74b1 23b4 86b4 bf2e 59a3 86b4
00000140: 25ae 0db4 d717 0a31 e5a8 0e29 fead 162d
00000150: d5a6 7dac 55a2 2da9 05aa fb1b eb22 30ad
00000160: 5329 6fa8 00ac 8924 b22d 742d ee28 7eb3
00000170: ec36 cc2c 96ad a3b4 479b b7a4 572f 5c2f
00000180: 2f2d eb2d 032f 2730 a62c 4e27 7e20 3027
00000190: 16ac 5aa5 56ab 9827 8521 09aa 5fa5 f42a
000001a0: bfad 6b2a 620d 9aac 8d26 232e 5b2c 0fa8
000001b0: 13a0 04b1 2ca9 bf2b 05b2 2122 8c26 9c18
000001c0: f829 92aa 6531 4929 3221 ed34 f223 be27
000001d0: 6413 4e25 659f 0630 b0a8 ee2f faa5 592c
000001e0: c51e 671c 112b 1d9d 88ae f626 46a5 afb0
000001f0: 982c 6524 2c2e c329 cb23 562f 1726 88b0

conv_mid.6.bias f2 [12]
-0.00868 0.001223 0.04373 -0.005062 -0.00609 -0.011086 0.0249 0.03693
0.01541 -0.01636 0.03079 0.0002916
00000000: 72a0 0215 9929 2f9d 3c9e ada1 6026 ba28
00000010: e423 30a4 e227 c70c

conv_mid.7.weight f2 [12, 24, 3, 3]
0.01602 0.05307 0.02725 0.01747 0.1577 -0.002687 -0.1194 -0.0447
0.01259 0.01585 0.004547 -0.0276 -0.022 0.03323 -0.04514 -0.05347
0.0436 0.08246 -0.01096 -0.0506 -0.1403 0.00525 0.1255 -0.0803
-0.004948 0.02992 -0.129 0.0834 0.02975 -0.06384 0.0253 0.01467
-0.01361 -0.000837 -0.03693 0.014275 -0.12427 -0.3164 -0.3816 -0.1942
-0.3845 -0.178 0.1176 0.1533 0.1832 0.04053 0.01476 0.0651
-0.003845 -0.0988 -0.07684 0.04645 -0.0159 0.02069 -0.04333 -0.01506
0.05014 0.00948 -0.03238 0.0356 -0.0802 -0.04126 0.01665 -0.0411
-0.0514 0.10864 -0.05026 -0.11237 0.0932 0.0599 -0.0221 0.2051
0.03772 0.0328 0.0949 0.04855 -0.04477 0.10156 -0.0708 -0.0581
0.11206 0.00837 0.06714 0.02711 0.03555 -0.1063 0.0461 6.37e-05
-0.04144 -0.04993 0.11786 0.0489 0.04675 0.073 -0.0265 -0.0317
-0.01823 -0.02571 -0.007866 -0.2974 -0.1321 -0.2094 -0.12177 0.10767
-0.03464 -0.2896 -0.013695 -0.1763 0.1622 0.1833 0.1357 0.1475
-0.05017 0.0911 0.2247 0.1643 0.1547 -0.04987 -0.0257 0.03354
-0.01417 -0.01712 0.0546 0.03134 -0.03802 -0.0806 0.04764 0.04086
0.1832 -0.02776 -0.0706 0.00525 0.06665 -0.01642 0.1731 -0.03598
-0.02826 0.03513 -0.07245 -0.01614 -0.009796 -0.03445 0.01688 0.02917
-0.01296 -0.03087 0.02219 -0.02716 0.00526 -0.04855 -0.08563 -0.1157
-0.0726 -0.0371 -0.0586 -0.0769 -0.05557 0.05978 0.1018 -0.06635
0.04135 -0.01845 -0.05045 -0.0724 -0.02466 -0.03442 -0.0322 -0.05624
0.04413 0.01165 -0.02065 0.04825 0.06198 -0.1317 0.0923 0.08136
-0.1207 0.00933 0.00931 -0.1969 0.0177 -0.04147 -0.0885 -0.00881
-0.00863 -0.0846 0.02928 0.05557 -0.0697 -0.03143 -0.092 0.00876
0.006023 0.04214 -0.0661 -0.0321 0.026 0.0619 -0.1414 -0.0004888
-0.03021 -0.06024 0.0279 0.005177 -0.06146 0.02205 0.00782 0.1812
0.01042 0.006516 0.038 -0.1517 -0.1453 0.1273 -0.1116 -0.08795
0.006535 0.0515 0.0511 -0.03992 0.07556 -0.002846 0.03305 0.03204
0.0646 0.001942 0.0691 0.0725 0.002533 0.3008 0.10065 0.0279
0.0819 0.1987 -0.00686 -0.006912 -0.02338 -0.02904 -0.03906 -0.027
-0.005924 -0.04868 -0.00827 0.0503 0.02216 0.02927 0.0225 -0.342
-0.01102 -0.0355 0.0553 0.08276 0.1472 0.1635 -0.0398 -0.08264
00000000: 1a24 cb2a fa26 7924 0c31 8199 a4af b9a9
00000010: 7222 0f24 a81c 11a7 a2a5 4128 c7a9 d8aa
00000020: 9529 472d 9da1 7aaa 7db0 601d 0430 24ad
00000030: 119d a927 21b0 562d 9e27 16ac 7a26 8323
00000040: f8a2 db92 baa8 4f23 f4af 10b5 1bb6 37b2
00000050: 27b6 b2b1 872f e830 dd31 3029 8f23 2b2c
00000060: e09b 53ae ebac f229 12a4 4c25 8ca9 b6a3
00000070: 6b2a db20 25a8 8f28 22ad 48a9 4324 43a9
00000080: 94aa f42e 6faa 31af f72d ab2b a8a5 9032
00000090: d428 3328 132e 372a bba9 802e 88ac 70ab
000000a0: 2c2f 4920 4c2c f126 8d28 ceae e729 2d04
000000b0: 4ea9 64aa 8b2f 422a fc29 ac2c c9a6 0fa8
000000c0: aba4 95a6 07a0 c2b4 3ab0 b3b2 cbaf e42e
000000d0: 6fa8 a2b4 03a3 a4b1 3131 de31 5830 b830
000000e0: 6caa d52d 3133 4231 f330 62aa 94a6 4b28
000000f0: 41a3 62a4 fd2a 0328 dea8 29ad 192a 3b29
00000100: dd31 1ba7 85ac 601d 442c 34a4 8a31 9ba8
00000110: 3ca7 7f28 a3ac 22a4 04a1 69a8 5224 7827
00000120: a3a2 e7a7 ae25 f4a6 631d 37aa 7bad 68af
00000130: a5ac c0a8 80ab ecac 1dab a72b 842e 3fac
00000140: 4b29 b9a4 75aa a2ac 50a6 68a8 1fa8 33ab
00000150: a629 f721 49a5 2d2a ef2b 37b0 e82d 352d
00000160: baaf c720 c420 4db2 8824 4fa9 aaad 83a0
00000170: 6ba0 6aad 7f27 1d2b 76ac 06a8 e3ad 7c20
00000180: 2b1e 6529 3bac 1ca8 a826 ec2b 86b0 0190
00000190: bca7 b6ab 2427 4d1d deab a525 0120 cc31
000001a0: 5621 ac1e dd28 dbb0 a6b0 1330 24af a1ad
000001b0: b11e 982a 8a2a 1ca9 d62c d499 3b28 1a28
000001c0: 222c f417 6c2c a42c 3019 d034 712e 2427
000001d0: 3e2d 5c32 069f 149f fca5 6fa7 00a9 e9a6
000001e0: 119e 3baa 3ca0 702a ac25 7e27 c325 79b5
000001f0: a4a1 8ba8 142b 4c2d b630 3b31 18a9 4aad

conv_mid.7.bias f2 [12]
-0.01371 -0.010475 0.003504 -0.01319 0.0263 -0.0199 0.033 0.00602
0.0249 -0.02338 -0.0238 -0.01492
00000000: 05a3 5da1 2d1b c1a2 bc26 18a5 3928 2a1e
00000010: 6026 fca5 18a6 a4a3

conv_mid.8.weight f2 [12, 24, 3, 3]
0.04523 -0.0294 0.01276 -0.05038 0.02231 0.02463 -0.00829 0.00656
0.02193 -0.02716 -0.01317 -0.0409 -0.12335 0.0882 -0.1572 -0.045
-0.1361 -0.0974 0.02074 0.02702 0.03125 0.06137 0.02861 -0.0337
-0.02383 0.007484 0.01941 0.1287 -0.0395 -0.02103 0.1431 0.0997
0.1431 0.0699 0.2551 0.1675 -0.00872 -0.00671 0.02863 0.03268
0.132 0.03574 0.02051 0.0304 0.0342 0.1116 0.04727 0.02185
0.255 0.01901 -0.1058 -0.0448 0.01273 0.01274 0.04047 0.0334
-0.02641 0.01492 -0.0639 0.01315 0.04736 0.02805 0.01837 -0.01143
0.01447 0.0563 -0.0494 0.06683 0.01227 -0.01721 -0.0528 0.00775
0.01463 0.008965 0.02095 0.03632 0.03204 -0.02174 0.004257 0.0366
0.004257 -0.01921 0.0638 0.01862 -0.04874 0.11993 -0.00498 0.04922
0.0684 0.0386 0.007156 0.1532 0.01196 -0.0003526 -0.1055 0.00764
-0.05356 -0.06824 0.04837 -0.006878 0.09674 0.10547 -0.04886 -0.05054
0.05893 -0.01974 -0.0538 -0.04062 -0.2302 -0.14 -0.248 -0.162
-0.1807 -0.22 -0.2131 -0.09656 -0.2367 -0.01378 -0.014336 0.00896
0.153 -0.1879 0.1118 0.0266 0.1217 0.05298 -0.01088 -0.01173
-0.007782 -0.05725 0.02379 0.1372 0.05704 0.02454 0.03552 -0.1021
-0.02386 0.003098 -0.1694 -0.1578 -0.07684 -0.092 -0.1477 -0.1102
0.03214 0.02655 0.0055 -0.02588 -0.1849 -0.00806 -0.00833 0.008125
0.01936 -0.08075 -0.048 -0.0181 -0.0784 0.01368 0.02061 0.0793
0.08856 0.00748 -0.03732 0.01084 0.005684 0.00677 0.11334 -0.001963
-0.05627 -0.06415 0.01952 -0.002462 0.05023 0.05063 0.0806 0.0746
0.04135 0.0952 0.02422 0.04193 -0.04434 -0.066 -0.005543 -0.04095
-0.1642 0.01455 -0.012825 -0.05264 -0.0695 0.03168 -0.02466 0.00534
0.05933 0.02817 -0.00951 -0.05576 -0.0826 -0.01389 0.03778 0.0318
-0.00396 0.092 0.1322 0.002821 0.05835 -0.01188 -0.01208 0.014626
-0.0806 -0.0596 0.0378 0.02396 -0.0429 0.02484 0.04065 0.03412
0.01145 -0.01765 0.05823 0.0543 -0.2766 -0.0984 -0.04608 0.1343
0.01556 -0.04117 -0.0725 0.00592 0.03882 0.1951 -0.09674 -0.05286
0.0989 0.03174 -0.02155 -0.02487 -0.01808 0.077 0.2634 0.006493
0.1073 0.0976 0.04388 -0.0642 -0.00923 0.138 -0.08026 -0.1694
-0.001851 0.0482 -0.012146 0.0362 0.03345 -0.04932 -0.001277 0.1871
00000000: ca29 87a7 8822 73aa b625 4e26 3fa0 b81e
00000010: 9d25 f4a6 bea2 3ca9 e5af a52d 08b1 c3a9
00000020: 5bb0 3cae 4f25 eb26 0028 db2b 5327 50a8
00000030: 1aa6 aa1f f824 1e30 0ea9 62a5 9430 612e
00000040: 9430 792c 1534 5c31 77a0 df9e 5427 2f28
00000050: 3930 9328 4025 c827 6128 242f 0d2a 9825
00000060: 1434 de24 c5ae bca9 8522 8622 2e29 4628
00000070: c3a6 a423 17ac bc22 102a 2e27 b424 daa1
00000080: 6923 352b 53aa 472c 4822 68a4 c2aa f01f
00000090: 7e23 9720 5d25 a628 1a28 91a5 5c1c af28
000000a0: 5c1c eba4 152c c424 3daa ad2f 199d 4d2a
000000b0: 612c f128 541f e730 2022 c78d c1ae d31f
000000c0: dbaa 5eac 312a 0b9f 312e c02e 41aa 78aa
000000d0: 8b2b 0ea5 e3aa 33a9 5eb3 7bb0 f0b3 2fb1
000000e0: c8b1 0ab3 d2b2 2eae 93b3 0ea3 57a3 9620
000000f0: e530 03b2 282f cf26 ca2f c82a 92a1 01a2
00000100: f89f 54ab 1726 6430 4d2b 4826 8c28 89ae
00000110: 1ca6 581a 6cb1 0db1 ebac e3ad bab0 0eaf
00000120: 1d28 cc26 a21d a0a6 ebb1 20a0 44a0 2920
00000130: f524 2bad 25aa a2a4 05ad 0123 4725 132d
00000140: ab2d a91f c7a8 8d21 d21d ef1e 412f 0598
00000150: 34ab 1bac ff24 0b99 6e2a 7b2a 292d c62c
00000160: 4b29 182e 3326 5e29 ada9 39ac ad9d 3ea9
00000170: 41b1 7323 91a2 bdaa 73ac 0e28 50a6 781d
00000180: 982b 3627 dea0 23ab 49ad 1da3 d628 1228
00000190: 0e9c e32d 3b30 c719 782b 15a2 2fa2 7d23
000001a0: 29ad a1ab d728 2226 7ea9 5c26 3429 5e28
000001b0: dd21 85a4 742b f32a 6db4 4cae e6a9 4c30
000001c0: f723 45a9 a4ac 101e f828 3e32 31ae c4aa
000001d0: 542e 1028 84a5 5ea6 a1a4 ee2c 3734 a61e
000001e0: de2e 3f2e 9e29 1cac baa0 6a30 23ad 6cb1
000001f0: 9597 2b2a 38a2 a228 4828 50aa 3b95 fd31

conv_mid.8.bias f2 [12]
-0.0008764 -0.00266 0.02216 0.04794 0.0157 -0.001313 0.003553 0.00954
0.003345 -0.01836 -0.02863 -0.00416
00000000: 2e93 7399 ac25 232a 0524 6195 471b e220
00000010: da1a b3a4 54a7 439c

conv_mid.9.weight f2 [12, 24, 3, 3]
-0.05887 -0.11505 0.03436 -0.036 0.1991 -0.1292 -0.05807 -0.1412
0.1737 -0.04538 -0.1309 0.1149 -0.0626 -0.3123 -0.2347 -0.0204
0.0989 -0.04428 -0.1071 -0.06036 0.02109 0.003494 -0.0943 -0.1158
0.0629 0.01955 -0.0633 0.02815 0.0765 -0.0781 -0.01904 0.2189
-0.09235 -0.04596 0.006927 0.00719 0.077 -0.1581 -0.2744 -0.1123
0.04733 0.02708 -0.02066 0.0973 -0.0834 -0.02948 -0.0796 0.02441
0.08026 -0.09985 -0.05215 -0.02167 -0.06866 -0.02876 -0.0498 -0.04742
-0.09216 -0.07306 0.01576 0.004646 0.003914 -0.003384 0.0721 -0.03857
0.12146 0.08466 -0.05423 -0.3943 -0.003876 0.01889 0.1054 0.04422
0.0365 -0.10376 0.00119 -0.02243 0.2056 -0.2256 -0.03613 -0.01392
0.02771 -0.03552 0.01709 -0.1407 -0.1827 -0.05365 -0.1511 -0.03043
-0.1315 -0.0919 0.08563 0.1783 0.089 -0.0765 -0.3596 0.067
0.04327 0.07715 -0.03842 0.0923 0.09546 -0.0816 0.09686 0.261
-0.0647 -0.0282 -0.08704 0.0206 0.06824 -0.1023 -0.10443 0.05862
0.07153 -0.1161 -0.03955 0.07733 -0.03032 0.07556 0.12415 0.103
0.0957 0.3877 0.2397 0.01868 0.01633 0.1312 0.0872 0.1067
-0.03458 0.004375 -0.05606 0.04947 -0.02156 -0.04095 -0.01109 -0.0832
-0.03714 0.02615 0.02753 -0.2212 -0.08484 -0.0208 -0.06946 0.01608
-0.0327 0.1028 0.165 -0.07245 -0.2219 0.1043 0.02052 -0.01026
0.0911 0.02202 -0.0902 -0.09045 -0.1003 0.11273 0.019 -0.03366
0.0425 0.0508 -0.0634 -0.06494 -0.1073 0.3489 0.1393 -0.2053
0.0868 0.05252 -0.04788 0.00964 -0.2028 -0.0664 -0.005135 0.2295
-0.0317 0.00917 -0.02141 -0.03833 -0.009125 0.12054 -0.07996 0.007725
-0.1644 0.1343 -0.0391 0.0001873 -0.01487 0.02007 -0.02686 0.0885
0.0959 -0.07794 0.07916 0.02611 0.08093 -0.02171 -0.10675 -0.3198
-0.2827 -0.07056 0.2585 0.00501 -0.03638 -0.10956 0.01982 -0.011894
0.3845 -0.01675 -0.0856 0.11334 0.2766 -0.02441 -0.02068 -0.1013
0.03186 -0.10645 0.01564 0.0666 0.1484 0.0803 -0.00513 0.0229
-0.00738 0.0432 0.0966 -0.03857 0.0504 0.1846 -0.0813 -0.00832
-0.0701 -0.001959 0.0592 0.0646 0.03143 -0.06805 0.0553 -0.08
-0.07355 -0.1395 -0.08453 0.02182 -0.1382 -0.06445 0.0684 0.2996
0.0401 -0.02895 0.005272 -0.04028 0.1192 0.08344 0.03583 0.02824
00000000: 89ab 5daf 6628 9ca8 5f32 22b0 6fab 85b0
00000010: 8f31 cfa9 30b0 5b2f 02ac ffb4 83b3 39a5
00000020: 542e aba9 dbae baab 6625 281b 09ae 69af
00000030: 072c 0125 0dac 3527 e52c 00ad e0a4 0133
00000040: e9ad e2a9 181f 5d1f ee2c 0fb1 64b4 30af
00000050: 0f2a ef26 4aa5 3a2e 56ad 8ca7 18ad 4026
00000060: 232d 64ae adaa 8ca5 65ac 5da7 60aa 12aa
00000070: e6ad adac 0924 c21c 021c ee9a 9d2c f0a8
00000080: c62f 6b2d f1aa 4fb6 f09b d624 bf2e a929
00000090: ac28 a4ae e014 bea5 9432 38b3 a0a8 21a3
000000a0: 1827 8ca8 6024 81b0 d9b1 deaa d6b0 caa7
000000b0: 35b0 e2ad 7b2d b531 b22d e5ac c1b5 4a2c
000000c0: 8a29 f02c eba8 e82d 1c2e 39ad 332e 2d34
000000d0: 24ac 38a7 92ad 4625 5e2c 8cae afae 812b
000000e0: 942c 6eaf 10a9 f32c c3a7 d62c f22f 982e
000000f0: 202e 3436 ac33 c824 2e24 3330 952d d42e
00000100: 6da8 7b1c 2dab 552a 85a5 3ea9 aea1 53ad
00000110: c1a8 b226 0c27 14b3 6ead 53a5 72ac 1e24
00000120: 30a8 942e 4831 a3ac 1ab3 ad2e 4125 41a1
00000130: d52d a325 c6ad caad 6bae 372f dd24 4fa8
00000140: 7129 812a 0fac 28ac deae 9535 7530 92b2
00000150: 8e2d b92a 21aa f020 7db2 40ac 429d 5833
00000160: 0fa8 b220 7ba5 e8a8 aca0 b72f 1ead e91f
00000170: 43b1 4c30 01a9 230a 9da3 2325 e0a6 aa2d
00000180: 232e fdac 112d af26 2e2d 8fa5 d5ae 1eb5
00000190: 86b4 84ac 2334 211d a8a8 03af 1325 17a2
000001a0: 2736 4aa4 7aad 412f 6d34 40a6 4ba5 7cae
000001b0: 1428 d0ae 0124 432c c030 242d 419d dd25
000001c0: 8f9f 8829 2f2e f0a8 742a e831 34ad 43a0
000001d0: 7dac 0398 942b 222c 0628 5bac 142b 1fad
000001e0: b5ac 77b0 69ad 9625 6cb0 20ac 612c cb34
000001f0: 2229 69a7 661d 28a9 a12f 572d 9628 3b27

conv_mid.9.bias f2 [12]
0.005676 -0.015015 0.007904 0.03516 -0.02936 -0.02237 -0.0008616 -0.02296
-0.01985 -0.01255 -0.01495 0.003338
00000000: d01d b0a3 0c20 8028 84a7 baa5 0f93 e1a5
00000010: 15a5 6da2 a8a3 d61a

conv_mid.10.weight f2 [12, 24, 3, 3]
0.04434 0.03075 -0.00354 -0.1261 -0.424 0.04575 -0.0566 0.04153
-0.0794 0.1394 0.1561 0.02701 0.06113 -0.013466 0.1152 -0.09784
0.03564 0.02998 0.07745 0.09265 -0.08435 -0.1462 0.2157 -0.02159
0.005844 0.03043 0.0451 0.006634 -0.03143 0.0851 -0.0817 0.1471
0.107 -0.02522 0.01291 0.001887 0.02489 0.1182 0.03586 -0.0805
0.2299 -0.02345 -0.01271 0.0118 -0.0626 -0.0571 -0.1026 0.0562
0.01503 0.06146 -0.01584 0.0829 -0.05783 -0.066 0.1143 0.06964
0.04007 -0.00788 -0.1254 -0.2007 0.01851 -0.0765 0.06464 0.01683
0.005867 -0.00868 -0.08026 0.1337 0.006058 0.01874 -0.03098 0.0326
0.01334 0.1959 0.257 0.0935 0.03934 -0.121 -0.001171 0.0582
0.09143 -0.03723 -0.1037 0.04282 -0.0381 0.4287 -0.4272 -0.03084
0.1042 -0.002644 -0.02884 -0.002636 -0.003448 -0.006157 -0.008484 0.04
-0.03204 0.0716 -0.05334 0.04504 0.1802 0.0376 -0.00738 -0.005745
0.0706 0.11005 0.2008 0.004337 -0.005043 0.02313 0.03754 0.05957
0.2778 -0.0066 0.2075 0.2017 -0.005722 -0.006905 -0.03876 -0.02684
-0.1326 0.253 0.0971 0.01764 -0.0704 0.0703 -0.06238 -0.0865
0.11505 -0.0005326 -0.0839 -0.04462 0.03134 -0.127 -0.00905 -0.005203
0.01005 -0.0756 0.09155 -0.2318 -0.04913 0.04187 -0.0197 0.005108
-0.01564 -0.03577 -0.02432 -0.00995 -0.1082 -0.01958 -0.00969 -0.07404
0.003994 0.03857 0.04556 -0.0316 -0.003744 -0.0656 0.001197 -0.05756
-0.011284 0.00341 -0.05975 -0.01424 0.07117 -0.015274 0.1486 -0.04132
0.01174 -0.0708 0.00717 -0.00276 0.1068 0.04123 -0.0797 -0.2058
-0.02902 -0.081 0.02803 -0.06854 0.010605 0.01831 -0.00898 0.0461
-0.1167 -0.03038 -0.04828 -0.02562 -0.01315 0.02824 0.1076 -0.1294
-0.01023 -0.0379 0.1825 -0.0176 -0.02531 -0.00582 -0.005035 -0.1666
-0.0605 0.0322 -0.0759 -0.1115 0.008156 0.1659 0.04507 -0.02899
-0.03397 0.014694 0.03726 -0.01778 -0.02016 -0.0978 -0.119 0.09155
0.06323 -0.1059 -0.02547 -0.00598 0.425 -0.1262 -0.0715 -0.2202
0.02615 -0.01616 -0.0745 -0.0417 0.1498 -0.1299 -0.02165 0.10846
0.0915 0.02654 0.0253 0.1026 0.0312 0.1184 0.0835 0.13
0.0727 0.048 -0.004078 -0.03915 0.08167 -0.0381 -0.09705 0.1364
0.058 -0.01235 -0.001429 -0.054 0.03111 0.02805 -0.02943 -0.006702
00000000: ad29 df27 409b 09b0 c9b6 db29 3fab 5129
00000010: 15ad 7630 ff30 ea26 d32b e5a2 5f2f 43ae
00000020: 9028 ad27 f52c ee2d 66ad aeb0 e732 87a5
00000030: fc1d ca27 c629 cb1e 06a8 722d 3bad b530
00000040: d92e 75a6 9c22 bb17 5f26 912f 9728 27ad
00000050: 5b33 01a6 82a2 0b22 02ac 4fab 91ae 322b
00000060: b223 de2b 0ea4 4e2d 67ab 39ac 512f 752c
00000070: 2129 09a0 03b0 6cb2 bd24 e5ac 232c 4f24
00000080: 021e 72a0 23ad 4730 341e cc24 eea7 2c28
00000090: d522 4532 1d34 fc2d 0929 beaf cc94 732b
000000a0: da2d c4a8 a3ae 7b29 e0a8 dc36 d6b6 e5a7
000000b0: ab2e 6a99 62a7 6699 109b 4e9e 58a0 1f29
000000c0: 1aa8 952c d4aa c429 c431 d028 8f9f e29d
000000d0: 852c 0b2f 6d32 711c 2a9d ec25 ce28 a02b
000000e0: 7234 c29e a432 7432 dc9d 129f f6a8 dfa6
000000f0: 3eb0 0c34 372e 8424 81ac 802c fcab 89ad
00000100: 5d2f 5d90 5fad b6a9 0328 10b0 a2a0 549d
00000110: 2521 d7ac dc2d 6bb3 4aaa 5c29 0ba5 3b1d
00000120: 01a4 94a8 3aa6 18a1 edae 03a5 f6a0 bdac
00000130: 171c f028 d529 0ba8 ab9b 33ac e714 5eab
00000140: c7a1 fc1a a6ab 4aa3 8e2c d2a3 c130 4aa9
00000150: 0322 88ac 581f a799 d62e 4729 1aad 96b2
00000160: 6ea7 2fad 2d27 63ac 6e21 b024 99a0 e729
00000170: 78af c7a7 2eaa 8fa6 bca2 3b27 e32e 24b0
00000180: 3da1 daa8 d731 81a4 7ba6 f69d 289d 55b1
00000190: beab 1f28 dcac 23af 2d20 4f31 c529 6ca7
000001a0: 59a8 8623 c528 8da4 29a5 42ae 9eaf dc2d
000001b0: 0c2c c7ae 85a6 209e cd36 0ab0 93ac 0cb3
000001c0: b226 23a4 c5ac 56a9 cb30 28b0 8ba5 f12e
000001d0: db2d cb26 7a26 912e fd27 942f 582d 2930
000001e0: a72c 252a 2d9c 03a9 3a2d e0a8 36ae 5d30
000001f0: 6d2b 53a2 da95 e9aa f727 2e27 89a7 dd9e

conv_mid.10.bias f2 [12]
0.0001034 0.00548 0.0304 -0.0084 0.00845 0.0148 0.0159 -0.003906
0.006016 0.03696 0.003782 0.01506
00000000: c706 9d1d c827 4da0 5420 9423 1224 009c
00000010: 291e bb28 bf1b b623

conv_mid.11.weight f2 [12, 24, 3, 3]
-0.261 0.0869 0.002735 0.1552 -0.3228 -0.02692 0.02176 -0.2198
0.11676 0.06104 0.03214 -0.0681 -0.08453 0.2158 0.1461 0.01942
0.2517 0.03275 0.0665 -0.01438 -0.0765 -0.2076 -0.232 0.1453
-0.06866 0.0203 -0.06573 -0.2452 -0.10077 0.01878 -0.1506 0.003353
-0.336 -0.1012 -0.02737 -0.034 0.01322 0.02148 -0.09204 -0.1048
-0.1992 -0.06158 0.10016 -0.0976 0.05066 0.1387 -0.12366 -0.00656
0.3706 -0.1655 0.04742 -0.01226 -0.0274 -0.02559 0.07556 0.013504
0.01523 -0.1904 0.2325 -0.02058 0.1366 -0.0387 -0.1421 0.0779
0.03204 0.01493 -0.4817 0.06396 0.004433 0.11676 -0.0808 -0.0678
0.3174 0.2052 0.2382 -0.0933 0.3035 0.2705 0.0926 0.3584
0.1079 -0.08093 -0.0663 -0.0769 0.1967 -0.1372 0.0783 0.03986
-0.1581 -0.0769 -0.2028 -0.0925 0.1248 0.2217 0.1343 -0.03903
0.02916 -0.0642 -0.1885 -0.0599 0.1033 -0.00793 -0.149 0.2625
-0.0252 -0.0533 0.1812 0.316 0.1995 -0.03906 -0.001256 -0.2888
0.396 0.09796 0.1726 0.1494 -0.145 0.0317 0.001965 0.0966
0.1183 -0.1235 -0.259 0.02138 -0.0997 -0.07153 0.1247 -0.05716
0.0566 0.112 0.11456 0.00991 -0.11285 0.05396 0.02522 0.2184
-0.1487 -0.01293 0.0702 -0.5444 0.1575 0.01381 -0.1423 0.079
0.128 0.2017 0.08734 0.1804 0.2625 0.2292 0.08923 0.1545
0.136 -0.1381 0.008575 0.06097 0.1792 0.0366 0.01605 -0.0964
-0.06696 0.01982 0.0334 0.0367 0.00767 0.03732 0.1278 0.0377
-0.03952 0.2837 0.2057 0.002666 0.00417 0.03772 -0.1273 0.0479
0.1396 -0.03183 0.04382 0.053 -0.2588 -0.395 0.05008 0.1493
-0.2284 -0.0658 0.164 -0.1368 -0.01646 0.1062 0.0841 0.1118
0.223 -0.3176 -0.2445 0.01968 -0.03937 0.063 0.0383 -0.02173
0.02882 0.0786 -0.05176 0.0667 0.03363 -0.05258 -0.02686 0.004414
-0.1411 -0.1288 -0.0906 0.3342 0.07324 -0.02048 -0.1353 -0.1537
0.01099 -0.0403 0.04074 -0.0429 -0.10376 0.09503 -0.0949 0.002777
0.04834 -0.06027 -0.1031 0.01194 -0.174 0.004303 -0.02658 -0.02869
-0.05588 -0.01147 0.00702 -0.02812 0.00965 0.011925 -0.1378 -0.01802
-0.00853 0.02159 0.0374 0.04364 -0.1521 -0.02766 -0.016 -0.07837
-0.01666 -0.09717 0.01428 0.02791 0.0174 0.0074 -0.02214 0.0559
00000000: 2db4 902d 9a19 f730 2ab5 e4a6 9225 09b3
00000010: 792f d02b 1d28 5cac 69ad e832 ad30 f924
00000020: 0734 3128 422c 5da3 e5ac a5b2 6db3 a630
00000030: 65ac 3225 35ac d9b3 73ae cf24 d2b0 de1a
00000040: 60b5 7aae 02a7 5aa8 c522 8025 e4ad b5ae
00000050: 60b2 e2ab 692e 3fae 7c2a 7030 eaaf b89e
00000060: ee35 4cb1 122a 47a2 04a7 8da6 d62c ea22
00000070: cc23 18b2 7133 45a5 5f30 f4a8 8cb0 fc2c
00000080: 1a28 a523 b5b7 182c 8a1c 792f 2cad 57ac
00000090: 1435 9132 9f33 f9ad db34 5434 ed2d bc35
000000a0: e82e 2ead 3eac ecac 4b32 64b0 032d 1a29
000000b0: 0fb1 ecac 7db2 ecad fd2f 1833 4c30 ffa8
000000c0: 7727 1cac 08b2 abab 9c2e 0fa0 c5b0 3334
000000d0: 74a6 d3aa cc31 0e35 6232 00a9 2595 9fb4
000000e0: 5636 452e 8631 c830 a4b0 0f28 0618 2f2e
000000f0: 922f e7af 25b4 7925 61ae 94ac fb2f 51ab
00000100: 3f2b 2b2f 552f 1321 39af e82a 7526 fd32
00000110: c2b0 9fa2 7e2c 5bb8 0a31 1223 8eb0 0e2d
00000120: 1930 7432 972d c631 3334 5633 b62d f230
00000130: 5a30 6bb0 6420 ce2b bc31 af28 1c24 2bae
00000140: 49ac 1325 4628 b328 db1f c728 1730 d328
00000150: 0fa9 8a34 9532 7619 451c d428 13b0 222a
00000160: 7830 13a8 9c29 c92a 24b4 52b6 692a c730
00000170: 4fb3 36ac 3f31 61b0 37a4 cc2e 622d 282f
00000180: 2333 15b5 d3b3 0a25 0aa9 082c e728 90a5
00000190: 6127 082d a0aa 452c 4e28 bbaa e0a6 851c
000001a0: 84b0 1fb0 ccad 5935 b02c 3ea5 54b0 ebb0
000001b0: a021 29a9 3729 7ea9 a4ae 152e 13ae b019
000001c0: 302a b7ab 99ae 1d22 91b1 681c cea6 58a7
000001d0: 27ab dfa1 301f 33a7 f120 1b22 69b0 9da4
000001e0: 5ea0 8725 ca28 9629 deb0 15a7 19a4 04ad
000001f0: 44a4 38ae 5023 2527 7424 941f aba5 282b

conv_mid.11.bias f2 [12]
0.00254 0.002748 0.02443 0.003708 0.0006003 0.00503 -0.006725 -0.004627
0.00939 0.0063 -0.006413 -0.012535
00000000: 3419 a119 4126 981b eb10 271d e39e bd9c
00000010: cf20 741e 919e 6ba2
