mymodel/whirlpool.onnx (onnx, 39726 bytes, 16 tensors)

conv_head.weight f2 [12, 3, 3, 3]
0.004215 -0.1693 0.03613 -0.2167 0.1559 -0.1377 -0.1561 0.987
-0.1461 -0.01406 0.2094 -0.055 0.2256 -0.1576 0.1254 0.1157
-1.04 0.1292 0.0245 -0.07477 0.02885 -0.006844 -0.006355 0.000659
-0.00518 0.1444 -0.01851 -0.1345 -0.9653 -0.07355 -0.05908 0.559
0.2603 0.243 0.579 0.03087 -0.3518 -1.109 -0.1224 0.4558
0.4636 -0.06616 -0.2335 0.734 -0.1703 0.03928 -1.321 0.1265
0.2194 0.91 0.2844 -0.2089 0.618 -0.1807 0.1409 -0.0984
0.08264 -0.958 0.808 -0.1497 -0.07135 0.273 -0.08673 0.1815
-0.12006 -0.254 -0.8755 1.034 0.1072 0.2474 -0.1447 -0.1699
0.1378 0.01999 -0.05103 -0.6494 0.8047 -0.1975 0.3467 -0.3923
-0.03552 -0.05194 0.1126 0.05597 0.0509 0.8115 -0.00836 -0.007362
-0.997 -0.02757 -0.2588 0.3171 -0.1941 0.2352 0.9653 0.01994
0.00476 -1.258 0.1997 -3.48e-05 -0.01116 0.02373 0.2102 0.9814
0.0837 -0.1118 -1.231 -0.01018 0.0734 0.1973 0.1127 0.2136
-1.182 0.10767 0.1127 0.2491 0.2593 -0.09656 0.097 -0.1176
0.0858 -0.5967 0.006157 -0.2002 0.1288 -0.1372 -0.03696 0.09814
-0.1929 -0.0991 0.2104 0.3442 0.1029 0.03156 -0.1696 -0.02904
0.1401 -0.1713 -0.0833 -0.02557 0.3994 -0.057 0.1362 -0.2942
-0.1122 0.32 -0.154 -0.1083 -0.473 0.4219 -0.001184 0.1594
-0.0647 0.03275 -0.03784 0.01105 0.5605 -0.93 0.2235 0.3804
0.0821 -0.2954 0.02603 -0.2964 0.1199 0.0604 0.21 -0.1606
-0.0441 -0.06635 0.0333 0.2502 0.004112 0.1528 -0.2512 -0.05682
-0.03607 0.04803 -0.03165 0.04092 -0.1465 -0.5757 0.0684 0.06696
0.692 -0.1705 0.01441 -0.1108 -0.006542 -0.1016 -0.2081 0.096
0.0371 -0.3152 0.2927 -0.08484 0.271 -0.04028 -0.045 -0.0548
0.407 -0.3577 -0.779 0.8037 0.1549 -0.2922 0.2004 -0.1649
-0.1404 0.004772 -0.4019 0.4695 0.2864 -0.0295 -0.1699 0.05798
0.0985 -0.027 -0.007057 0.1656 -0.5645 3.487e-05 -0.3174 0.265
0.263 -0.11395 0.3057 0.1698 0.455 -1.572 0.08405 -0.1823
0.438 0.4116 0.2756 -0.2424 -0.2491 0.4688 -0.934 0.0857
-0.1222 0.12396 0.5557 0.3262 -0.2136 0.2012 -0.529 -0.754
0.2842 0.395 0.03854 0.2433 0.3794 -0.0993 0.2795 -0.4333
00000000: 511c 6bb1 a028 efb2 fd30 68b0 ffb0 e53b
00000010: adb0 33a3 b332 0aab 3833 0bb1 0330 682f
00000020: 29bc 2230 4626 c9ac 6327 029f 829e 6611
00000030: 4e9d 9f30 bda4 4eb0 b9bb b5ac 90ab 7938
00000040: 2a34 c733 a238 e727 a1b5 70bc d5af 4b37
00000050: 6b37 3cac 79b3 df39 73b1 0729 49bd 0c30
00000060: 0533 483b 8d34 afb2 f238 c8b1 8230 4cae
00000070: 4a2d aabb 773a cab0 91ac 5e34 8dad cf31
00000080: afaf 10b4 01bb 233c dc2e eb33 a1b0 70b1
00000090: 6930 1e25 88aa 32b9 703a 52b2 8c35 47b6
000000a0: 8ca8 a6aa 352f 2a2b 842a 7e3a 48a0 8a9f
000000b0: fabb 0fa7 24b4 1335 36b2 8733 b93b 1b25
000000c0: e01c 08bd 6432 4882 b7a1 1326 ba32 da3b
000000d0: 5b2d 28af edbc 36a1 b32c 5032 362f d632
000000e0: babc e42e 362f f933 2634 2eae 352e 87af
000000f0: 7e2d c6b8 4e1e 68b2 1f30 64b0 bba8 482e
00000100: 2cb2 58ae bc32 8235 962e 0a28 6db1 6fa7
00000110: 7c30 7bb1 55ad 8ca6 6436 4cab 5c30 b5b4
00000120: 2eaf 1f35 eeb0 eeae 91b7 c036 da94 1a31
00000130: 24ac 3128 d8a8 a821 7c38 71bb 2733 1636
00000140: 412d bab4 aa26 beb4 ac2f bb2b b832 24b1
00000150: a5a9 3fac 4328 0134 361c e430 05b4 46ab
00000160: 9ea8 262a 0da8 3d29 b0b0 9bb8 612c 492c
00000170: 8939 75b1 6123 17af b39e 81ae a9b2 252e
00000180: c028 0bb5 af34 6ead 5634 28a9 c3a9 04ab
00000190: 8336 b9b5 3bba 6e3a f530 adb4 6a32 47b1
000001a0: 7eb0 e31c 6eb6 8337 9534 8da7 70b1 6c2b
000001b0: 4e2e e9a6 3a9f 4d31 84b8 4902 14b5 3d34
000001c0: 3534 4baf e434 6f31 4837 4abe 612d d5b1
000001d0: 0237 9636 6934 c2b3 f9b3 8037 79bb 7c2d
000001e0: d2af ef2f 7238 3835 d6b2 7032 3bb8 08ba
000001f0: 8c34 5236 ef28 c933 1236 5bae 7934 efb6

conv_head.bias f2 [12]
-0.0005236 -0.538 -0.03925 -0.013 0.11536 -0.00657 0.006664 0.01881
-0.002314 0.1149 -0.10504 -0.2056
00000000: 4a90 4eb8 06a9 a8a2 622f ba9e d31e d124
00000010: bd98 5b2f b9ae 94b2

conv_mid.0.weight f2 [12, 24, 3, 3]
0.2163 -0.0955 -0.11316 -0.08026 -0.02654 0.07837 0.02129 0.006042
-0.03513 0.02647 -0.1332 0.0434 -0.0313 0.00618 0.003906 -0.006157
0.01276 -0.002903 0.02676 0.0733 -0.02975 0.02591 0.1617 0.0359
0.04044 0.01497 -0.0007706 -0.036 -0.02986 -0.05847 0.0945 -0.0713
0.007492 0.014915 -0.068 0.02962 0.0294 0.07733 0.01103 0.02815
0.03638 0.001546 -0.02527 -0.002897 -0.002846 -0.10626 0.1525 -0.01712
-0.2593 0.11273 0.1112 -0.0819 0.04913 0.005203 0.0787 0.10986
0.1145 0.1126 0.1048 0.1702 0.1672 0.04575 0.0744 -0.08606
0.11865 -0.0758 -0.1112 0.09753 -0.04422 0.02003 -0.02037 -0.0904
-0.05954 -0.01588 0.0855 -0.03314 0.0265 0.00869 -0.081 0.00958
-0.02383 -0.1305 -0.00905 -0.0929 -0.2244 -0.06555 0.0935 -0.06125
0.1017 -0.068 0.01426 0.000996 -0.0444 0.133 -0.257 -0.02023
0.0632 -0.0337 -0.03815 0.0656 -0.08264 0.02481 -0.03635 0.07336
0.03912 0.1261 0.0492 0.00899 0.11115 -0.04776 -0.0632 0.01293
-0.00245 -0.002806 0.01726 0.03061 -0.015335 -0.05927 0.1422 -0.03867
-0.0936 0.1053 0.01371 0.05627 -0.0388 -0.01465 -0.1884 0.00938
0.00466 -0.194 0.3335 0.0532 -0.0831 -0.00845 -0.05704 0.1989
-0.0671 -0.005787 -0.2119 0.1349 0.0371 -0.0811 0.0999 0.00306
-0.02596 -0.05234 -0.001104 0.06165 -0.06366 -0.03632 0.007587 -0.01636
-0.01406 -0.04825 -0.02254 0.0784 0.1545 -0.1324 0.04288 -0.0791
0.010185 -0.02422 -0.0983 -0.00671 -0.00167 -0.08136 0.1362 0.0894
0.178 -0.0503 -0.01007 0.10065 -0.03745 -0.02713 0.1804 0.1378
-0.02873 0.1332 0.0891 0.004524 0.02519 0.008995 -0.003546 0.1553
-0.2612 0.006123 0.11414 -0.05246 -0.01202 0.1925 -0.01474 0.05234
0.1926 0.0891 -0.02556 0.0756 -0.02104 -0.00964 -0.001536 0.0269
-0.02415 0.02509 0.04407 0.01825 -0.03674 0.03146 0.04922 -0.0595
0.0908 0.002676 -0.2913 -0.126 0.02823 -0.1351 0.02156 0.0508
-0.2515 0.0763 0.1772 0.01793 0.037 -0.05658 0.01855 0.007507
-0.00465 0.0639 0.003191 -0.01988 -0.1184 0.01236 0.0688 0.0358
-0.00946 -0.002249 0.01527 0.045 0.03552 -0.004124 -0.0639 -0.0163
-0.01437 0.0426 -0.02618 0.1011 0.0571 -0.0417 -0.216 0.0668
0.04376 0.10284 -0.02522 -0.03278 -0.0997 -0.0594 0.1104 -0.00611
00000000: ec32 1dae 3eaf 23ad cba6 042d 7325 301e
00000010: 7fa8 c726 43b0 8e29 02a8 541e 001c 4e9e
00000020: 8822 f299 da26 b12c 9ea7 a226 2d31 9828
00000030: 2d29 aa23 5092 9ca8 a5a7 7cab 0c2e 90ac
00000040: ac1f a323 5aac 9527 8727 f32c a621 3527
00000050: a828 5516 78a6 ef99 d499 cdae e130 62a4
00000060: 26b4 372f 1e2f 3ead 4a2a 541d 092d 082f
00000070: 542f 352f b52e 7231 5a31 db29 c32c 82ad
00000080: 982f daac 1eaf 3e2e a9a9 2125 37a5 c9ad
00000090: 9fab 11a4 792d 3ea8 c926 7320 2fad e820
000000a0: 1aa6 2db0 a2a0 f2ad 2eb3 32ac fc2d d7ab
000000b0: 822e 5aac 4d23 1414 afa9 4230 1db4 2ea5
000000c0: 0b2c 50a8 e2a8 332c 4aad 5a26 a7a8 b22c
000000d0: 0229 0930 4c2a 9a20 1d2f 1daa 0bac 9f22
000000e0: 0599 bf99 6b24 d627 daa3 96ab 8d30 f3a8
000000f0: fead bd2e 0523 342b f7a8 80a3 07b2 cd20
00000100: c61c 35b2 5635 cf2a 52ad 54a0 4dab 5d32
00000110: 4bac ed9d c8b2 5130 c028 31ad 652e 441a
00000120: a5a6 b3aa 8694 e42b 13ac a6a8 c51f 30a4
00000130: 33a3 2daa c5a5 052d f230 3db0 7d29 10ad
00000140: 3721 33a6 4bae df9e d796 35ad 5c30 b92d
00000150: b231 70aa 28a1 712e cba8 f2a6 c631 6930
00000160: 5ba7 4330 b42d a21c 7326 9b20 439b f830
00000170: 2eb4 451e 4e2f b7aa 27a2 2932 8ca3 b32a
00000180: 2a32 b42d 8ba6 d72c 63a5 f0a0 4b96 e326
00000190: 2fa6 6c26 a429 ac24 b4a8 0728 4d2a 9eab
000001a0: d02d 7b19 a9b4 08b0 3a27 53b0 8525 812a
000001b0: 06b4 e22c ac31 9724 bc28 3eab c024 b01f
000001c0: c39c 172c 891a 17a5 94af 5422 672c 9528
000001d0: d8a0 9b98 d123 c329 8c28 399c 17ac 2ca4
000001e0: 5ca3 7429 b4a6 782e 4f2b 56a9 e9b2 462c
000001f0: 9a29 952e 75a6 32a8 61ae 9aab 112f 429e

conv_mid.0.bias f2 [12]
0.0791 -0.0229 -0.007053 0.09076 0.03497 -0.0461 -0.0657 -0.07745
-0.0385 -0.01086 0.08075 -0.01637
00000000: 102d dda5 399f cf2d 7a28 e7a9 34ac f5ac
00000010: eea8 8fa1 2b2d 31a4

conv_mid.1.weight f2 [12, 24, 3, 3]
0.04758 0.02017 0.01743 0.0825 -0.1203 -0.041 -0.01779 -0.00139
0.02167 0.01104 -0.03867 -0.1428 0.1487 0.0274 -0.08215 0.02034
0.0214 0.0701 0.0145 -0.08685 0.1469 -0.03513 -0.0158 -0.0935
-0.0989 -0.003193 -0.0004475 -0.00975 0.0613 -0.11694 -0.01117 0.182
0.01084 -0.14 0.07916 0.01234 -0.0094 0.01653 0.0556 -0.004387
-0.02963 0.04984 -0.01295 -0.0951 -0.03864 0.01869 -0.02513 0.010086
-0.010124 -0.1819 0.0005198 -0.05606 0.003424 -0.06506 0.07764 -0.1714
-0.0099 -0.03934 -0.1431 0.03516 0.001779 -0.002993 5.746e-05 -0.1249
-0.1103 -0.3252 0.02449 -0.09186 -0.1755 0.09094 0.02798 -0.1224
0.00578 0.1207 0.05426 0.09186 -0.02219 0.03 0.0495 0.1189
-0.006393 0.0554 0.0591 0.02472 -0.1112 -0.03062 0.01845 -0.0847
-0.02638 0.01888 0.077 0.07983 0.07166 0.0725 0.04764 0.02263
0.0424 0.0647 0.01265 0.00488 0.02042 -0.03906 -0.0504 0.01075
-0.0228 0.04007 0.02264 0.01596 0.02599 0.04745 -0.01778 -0.05643
-0.06537 -0.1025 0.01288 0.03375 0.0198 0.003712 -0.00993 0.02644
-0.04825 -0.01478 0.1242 -0.03812 0.007637 0.04172 0.07666 -0.098
0.08563 -0.1611 0.206 -0.11255 -0.0444 -0.1532 0.05063 0.04114
-0.02243 -0.06226 0.05237 0.0736 0.04776 -0.04926 -0.0744 0.0845
0.000745 0.02266 0.0402 0.03038 -0.01134 -0.1066 0.04456 -0.00637
-0.03577 -0.11786 0.07806 0.03442 -0.1448 -0.2426 -0.05466 -0.3303
-0.1348 -0.1143 0.02458 -0.041 -0.04907 0.0749 -0.1229 0.03108
-0.01582 -0.0106 -0.0238 0.00662 0.00396 -0.075 -0.042 -0.2502
-0.009674 -0.00862 -0.03345 -0.04886 0.1218 0.1044 0.10736 0.0939
0.0814 0.11957 0.0868 0.0796 0.11444 -0.0236 0.0567 -0.06137
0.07654 -0.08124 0.007294 0.015594 -0.02672 0.09283 0.0592 0.0827
-0.00985 0.10297 0.1593 0.0481 0.03708 0.02289 -0.007053 -0.02802
-0.0667 0.0202 0.0413 0.02089 0.03708 0.07336 0.01698 0.03021
0.0002177 -0.05463 -0.03226 -0.01625 -0.06885 0.007465 -0.0856 -0.02951
-0.01078 -0.1181 0.0417 -0.002928 -5.46e-05 -0.002544 -0.0615 0.1357
0.056 0.009094 -0.005558 -0.0176 -0.0585 0.0082 0.05185 0.05548
-0.03726 -0.0894 -0.0296 -0.11176 0.0227 0.11676 -0.004814 -0.1115
0.085 0.05667 -0.06165 0.1205 0.03528 -0.05032 -0.1481 0.03044
00000000: 172a 2a25 7624 482d b3af 3fa9 8ea4 b295
00000010: 8c25 a721 f3a8 92b0 c230 0427 42ad 3525
00000020: 7a25 7d2c 6d23 8fad b330 7fa8 0ba4 fcad
00000030: 54ae 8a9a 558f fea0 d92b 7caf b8a1 d331
00000040: 8d21 7bb0 112d 5122 d0a0 3b24 1e2b 7e9c
00000050: 96a7 612a a1a2 16ae f2a8 c924 6fa6 2a21
00000060: 2fa1 d2b1 4210 2dab 031b 2aac f82c 7cb1
00000070: 12a1 09a9 94b0 8028 4917 219a c403 feaf
00000080: 0faf 34b5 4526 e1ad 9eb1 d22d 2a27 d5af
00000090: eb1d ba2f f22a e12d aea5 ae27 562a 9c2f
000000a0: 8c9e 172b 912b 5426 1eaf d7a7 b924 6cad
000000b0: c1a6 d524 ee2c 1c2d 962c a42c 192a cb25
000000c0: 6d29 242c 7a22 ff1c 3a25 00a9 74aa 8121
000000d0: d6a5 2129 cc25 1624 a726 132a 8da4 39ab
000000e0: 2fac 8fae 9822 5228 1225 9a1b 16a1 c526
000000f0: 2daa 91a3 f32f e1a8 d21f 5729 e82c 46ae
00000100: 7b2d 28b1 9832 34af afa9 e7b0 7b2a 4429
00000110: bea5 f8ab b42a b62c 1d2a 4eaa c3ac 682d
00000120: 1a12 cd25 2529 c727 cea1 d3ae b429 869e
00000130: 94a8 8baf ff2c 6828 a2b0 c3b3 ffaa 49b5
00000140: 50b0 51af 4b26 3fa9 48aa cb2c deaf f527
00000150: 0da4 6da1 18a6 c71e 0e1c cdac 60a9 01b4
00000160: f4a0 6aa0 48a8 41aa cc2f ae2e df2e 022e
00000170: 362d a72f 8e2d 182d 532f 0ba6 422b dbab
00000180: e62c 33ad 781f fc23 d7a6 f12d 942b 4b2d
00000190: 0ba1 972e 1931 282a bf28 dc25 399f 2ca7
000001a0: 45ac 2c25 4929 5925 bf28 b22c 5924 bc27
000001b0: 220b feaa 21a8 29a4 68ac a51f 7aad 8ea7
000001c0: 85a1 8faf 5629 ff99 9483 3699 dfab 5830
000001d0: 2b2b a820 b19d 81a4 7dab 3320 a32a 1a2b
000001e0: c5a8 b9ad 94a7 27af d025 792f ee9c 23af
000001f0: 712d 412b e4ab b62f 8428 71aa bdb0 cb27

conv_mid.1.bias f2 [12]
0.014885 0.00911 0.01845 0.005733 0.00857 -0.011955 -0.003859 0.004044
0.003006 -0.00527 -0.004677 0.01816
00000000: 9f23 aa20 b924 df1d 6320 1fa2 e79b 241c
00000010: 281a 659d ca9c a624

conv_mid.2.weight f2 [12, 24, 3, 3]
0.01432 0.0948 -0.09424 0.03305 0.05923 -0.01883 0.09503 -0.04974
-0.02217 0.0926 -0.0479 -0.03656 0.0376 0.10516 -0.04486 0.03111
-0.07 0.003786 -0.04697 0.00326 -0.0732 0.011185 -0.1309 0.10114
0.01323 0.05542 -0.04315 -0.0487 0.04697 -0.05936 0.0127 0.1855
0.01944 0.00214 0.03815 -0.02373 0.02321 -0.03403 -0.00157 0.02962
0.01764 -0.02928 0.0017185 0.03485 -0.00856 -0.06097 0.0187 -0.09326
0.10223 0.1355 -0.0438 0.01883 0.03595 0.03885 -0.01409 0.04477
0.02113 -0.05402 0.03183 0.014275 -0.0819 0.01114 -0.006092 0.00556
-0.02985 0.03044 0.00589 -0.06934 0.011055 0.04257 -0.0398 0.0094
0.05478 0.04956 -0.04565 -0.1262 0.1769 -0.07404 -0.0268 0.08514
0.02513 0.01059 -0.03275 0.03455 -0.05472 -0.05728 -0.006836 0.0967
-0.0364 -0.04758 0.0395 -0.03403 0.00608 0.02316 0.02667 -0.004032
0.02176 0.02135 0.00838 0.02443 -0.01588 -0.0358 0.008156 -0.01869
-0.06726 0.02614 -0.02048 0.00818 -0.02034 -0.00909 0.03613 -0.01785
0.00234 -0.02934 -0.0364 0.07886 0.013504 -0.0326 -0.011116 0.006718
-0.0331 -0.01144 0.01468 -0.03061 0.04068 -0.0008707 0.0385 0.01988
0.002728 0.0692 -0.01242 -0.01971 0.03032 -0.02223 0.02803 0.07733
0.01448 0.02261 -0.0342 -0.02701 0.1462 0.0444 -0.05963 -0.003387
0.014175 0.063 -0.0387 0.04254 0.001932 0.004917 0.003395 -0.07245
0.005554 -0.03818 0.0384 -0.05243 0.01234 0.2213 -0.227 -0.11084
0.07 -0.02696 -0.005417 -0.04526 0.03122 -0.07513 -0.0694 0.01349
0.02211 -0.02296 -0.01566 -0.01361 0.02159 -0.03235 0.02702 0.01266
0.01974 -0.03995 0.01366 0.0393 0.000523 0.04498 -0.0183 -0.02588
-0.09406 0.0682 -0.01665 -0.0372 -0.03069 0.01206 -0.02448 -0.00841
0.00808 0.0356 -0.02133 0.001493 0.0483 0.0402 -0.0332 -0.02298
-0.02037 -0.0433 0.04404 0.0452 0.003878 0.01098 -0.01108 -0.002192
0.0238 0.03177 -0.0359 0.1092 0.05927 -0.032 0.007034 -0.02626
-0.0913 0.01127 0.001903 0.01148 -0.0549 0.0779 0.02005 -0.0001488
-0.01894 -0.01756 0.03818 0.000689 0.05838 0.052 0.0994 -0.008995
0.03146 0.0731 0.02141 -0.10315 0.1234 -0.0923 -0.0747 -0.01834
-0.0776 -0.05072 0.001201 0.02275 -0.02649 -0.004807 -0.04257 -0.01595
0.02618 0.0181 0.04303 -0.02936 0.09894 -0.0404 0.0724 0.04083
00000000: 5523 112e 08ae 3b28 952b d2a4 152e 5eaa
00000010: ada5 ed2d 22aa aea8 d028 bb2e bea9 f727
00000020: 7bac c11b 03aa ad1a afac ba21 30b0 792e
00000030: c622 182b 86a9 3caa 032a 99ab 8122 f031
00000040: fa24 6218 e228 13a6 f125 5ba8 6e96 9527
00000050: 8424 7fa7 0a17 7628 62a0 ceab ca24 f8ad
00000060: 8b2e 5630 9ba9 d224 9a28 f928 37a3 bb29
00000070: 6925 eaaa 1328 4f23 3ead b421 3d9e b21d
00000080: a4a7 cb27 081e 70ac a921 7329 18a9 d020
00000090: 032b 582a d8a9 0ab0 a931 bdac dca6 732d
000000a0: 6f26 6c21 31a8 6c28 01ab 55ab 009f 302e
000000b0: a9a8 17aa 0e29 5ba8 3a1e ee25 d426 219c
000000c0: 9225 7725 4a20 4126 11a4 95a8 2d20 c9a4
000000d0: 4eac b126 3ea5 3020 35a5 a7a0 a028 92a4
000000e0: cb18 83a7 a9a8 0c2d ea22 2ca8 b1a1 e11e
000000f0: 3da8 dba1 8423 d6a7 3529 2293 ee28 1725
00000100: 9619 6e2c 5ca2 0ca5 c327 b1a5 2d27 f32c
00000110: 6a23 ca25 61a8 eaa6 ae30 af29 a2ab f09a
00000120: 4223 082c f4a8 7229 ea17 091d f41a a3ac
00000130: b01d e3a8 ea28 b6aa 5122 1533 44b3 18af
00000140: 7b2c e7a6 8c9d cba9 fe27 cfac 71ac e822
00000150: a925 e1a5 02a4 f8a2 8725 24a8 eb26 7b22
00000160: 0e25 1da9 fe22 0829 4910 c229 afa4 a0a6
00000170: 05ae 5d2c 43a4 c3a8 dba7 2d22 44a6 4ea0
00000180: 2320 8f28 76a5 1e16 2f2a 2529 40a8 e2a5
00000190: 37a5 8ba9 a329 c929 f11b 9f21 aca1 7d98
000001a0: 1826 1128 98a8 fd2e 962b 19a8 341f b9a6
000001b0: d8ad c521 cb17 e121 07ab fc2c 2225 e088
000001c0: d9a4 7fa4 e328 a511 792b a82a 5d2e 9ba0
000001d0: 0728 ae2c 7b25 9aae e62f e8ad c8ac b2a4
000001e0: f7ac 7eaa eb14 d325 c8a6 ec9c 73a9 15a4
000001f0: b426 a224 8229 84a7 552e 2ca9 a22c 3a29

conv_mid.2.bias f2 [12]
0.002872 -0.00186 0.03848 -0.02367 0.00806 -0.0864 -0.01407 0.005413
-0.01411 -0.004814 -0.0192 -0.01486
00000000: e219 9e97 ed28 0fa6 2020 88ad 34a3 8b1d
00000010: 39a3 ee9c eaa4 9ca3

conv_mid.3.weight f2 [12, 24, 3, 3]
-0.003925 -0.01573 0.09576 0.1196 -0.08844 -0.08 0.1174 0.002344
-0.03085 -0.1604 -0.1814 -0.2122 -0.1931 -0.02187 -0.2834 -0.09076
-0.224 -0.2377 -0.02484 0.04752 -0.0225 0.004055 0.1197 0.06354
0.003738 0.06726 -0.01427 -0.02055 -0.0574 0.03687 0.004578 -0.1613
0.0424 -0.003845 -0.0633 -0.06885 0.01331 0.12335 0.04175 0.03055
-0.0705 0.0439 -0.03763 -0.04816 -0.0155 0.01564 -0.03038 0.02081
-0.0007987 0.0664 -0.07544 -0.002708 -0.01665 -0.05917 -0.0346 -0.02742
-0.01094 -0.2003 0.02821 -0.1963 -0.0706 -0.128 0.08655 0.0737
-0.0254 -0.02457 0.01533 0.1528 -0.0655 0.013504 -0.00848 -0.0579
-0.03078 0.00801 -0.0716 0.09625 0.0239 0.0204 0.1442 0.007034
0.05304 -0.0565 0.09064 0.02989 -0.1433 0.0472 -0.0225 -0.05554
0.001545 0.1301 -0.03632 0.01921 -0.002722 -0.0448 -0.074 -0.02654
-0.01335 0.1558 -0.0099 0.01334 -0.01113 0.11066 -0.09644 -0.1415
0.1307 0.03406 0.00582 -0.02744 -0.00208 -0.05054 -0.09973 -0.075
0.01505 0.04745 -0.10406 -0.02356 0.0403 0.02267 -0.00892 -0.005577
-0.03323 -0.02946 0.01147 -0.0699 -0.02402 0.1035 0.04434 -0.03114
-0.02237 -0.02298 -0.0432 0.005886 -0.03032 -0.01076 0.0626 -0.1324
-0.09393 -0.1272 -0.03995 0.2756 -0.1279 0.06714 -0.001543 0.0731
-0.03687 -0.3733 -0.0654 -0.2673 0.0671 0.1114 0.0863 -0.01175
-0.087 -0.00938 0.01265 0.003098 0.01512 -0.06573 0.05176 0.01053
0.02698 0.04236 -0.04202 0.0105 -0.002401 -0.0361 0.02654 -0.02841
0.0299 0.02089 0.0245 -0.01743 -0.09985 0.06555 -0.0903 -0.1488
-0.08954 -0.09015 -0.1528 0.01665 -0.00984 0.1433 0.02173 0.0959
0.03918 0.2043 0.2355 0.1663 0.218 0.03418 0.03537 0.05164
0.2805 0.2242 0.3083 0.2368 0.2463 0.1858 0.05634 0.02832
-0.0184 -0.0764 -0.06305 -0.008064 -0.0506 -0.1599 -0.003399 -0.05054
-0.03032 -0.0716 0.0798 0.2073 -0.0092 0.0027 0.04886 0.02617
-0.05774 0.007313 -0.03053 -0.02193 0.0996 -0.1704 0.03235 -0.01709
-0.1023 0.04636 -0.01181 -0.04086 0.11523 0.0236 -0.0504 0.0792
0.0003757 0.04202 0.0115 -0.063 0.01489 -0.09625 0.0911 0.02917
-0.0601 0.03833 0.0354 0.0271 0.059 -0.05304 -0.02904 0.12354
-0.0229 -0.02788 0.02939 -0.018 0.01906 -0.015175 -0.03427 0.05746
00000000: 059c 07a4 212e a82f a9ad 1fad 832f cd18
00000010: e6a7 22b1 ceb1 cab2 2eb2 99a5 89b4 cfad
00000020: 2bb3 9bb3 5ca6 152a c3a5 271c a92f 112c
00000030: a81b 4e2c 4ea3 43a5 59ab b828 b01c 29b1
00000040: 6d29 e09b 0dac 68ac d122 e52f 5829 d227
00000050: 83ac 9f29 d1a8 2aaa f0a3 0124 c7a7 5425
00000060: 8b92 402c d4ac 8c99 43a4 93ab 6ea8 05a7
00000070: 9aa1 69b2 3927 48b2 85ac 19b0 8a2d b82c
00000080: 81a6 4aa6 d923 e430 31ac ea22 57a0 69ab
00000090: e1a7 1a20 95ac 292e 1e26 3925 9d30 341f
000000a0: ca2a 3bab cd2d a727 96b0 0b2a c3a5 1cab
000000b0: 5416 2a30 a6a8 eb24 9399 bca9 bcac cba6
000000c0: d6a2 fc30 12a1 d522 b3a1 152f 2cae 87b0
000000d0: 2f30 5c28 f61d 06a7 4398 78aa 62ae cdac
000000e0: b523 132a a9ae 08a6 2929 ce25 91a0 b69d
000000f0: 41a8 8ba7 df21 79ac 26a6 a02e ad29 f9a7
00000100: baa5 e2a5 88a9 071e c3a7 82a1 022c 3db0
00000110: 03ae 12b0 1da9 6934 18b0 4c2c 5296 ae2c
00000120: b8a8 f9b5 30ac 47b4 4b2c 212f 862d 04a2
00000130: 91ad cda0 7a22 581a be23 35ac a02a 6421
00000140: e826 6c29 61a9 6021 eb98 9fa8 cb26 46a7
00000150: a827 5925 4626 76a4 64ae 322c c7ad c3b0
00000160: bbad c5ad e4b0 4324 0aa1 9630 9025 232e
00000170: 0429 8a32 8933 5231 fa32 6028 8728 9c2a
00000180: 7d34 2d33 ef34 9433 e233 f231 362b 4027
00000190: b6a4 e4ac 09ac 21a0 7aaa 1eb1 f69a 78aa
000001a0: c3a7 95ac 1b2d a232 b6a0 8819 412a b326
000001b0: 64ab 7d1f d1a7 9da5 602e 74b1 2428 60a4
000001c0: 8cae ef29 0ca2 3ba9 602f 0b26 74aa 122d
000001d0: 280e 6129 e321 08ac a023 29ae d52d 7827
000001e0: b1ab e828 8828 f026 8d2b caaa 6fa7 e82f
000001f0: dda5 23a7 8627 9ca4 e124 c5a3 63a8 5b2b

conv_mid.3.bias f2 [12]
0.003471 -0.00327 0.01119 -0.008705 0.011566 -0.006687 0.003204 -0.002714
0.001484 0.0001327 -0.01103 -0.00586
00000000: 1c1b b29a bb21 75a0 ec21 d99e 901a 8f99
00000010: 1416 5908 a6a1 009e

conv_mid.4.weight f2 [12, 24, 3, 3]
-0.03445 0.0357 -0.04538 0.01799 0.1399 0.04666 0.043 0.0413
-0.1464 0.03867 -0.06384 0.00977 0.1832 0.1013 0.0666 0.3286
0.2085 0.012825 0.02475 0.00553 0.03072 -0.01198 -0.0897 0.01539
-0.01527 0.01607 0.007378 0.03784 -0.1217 0.02884 0.01619 0.05844
-0.03738 0.0847 0.01224 -0.1063 -0.06964 -0.007423 -0.0199 -0.1166
-0.09607 -0.01508 -0.0935 0.02269 -0.001297 -0.0479 -0.01974 0.0136
0.2087 0.1299 0.04294 0.04858 -0.04654 -0.02428 -0.0684 -0.1584
0.0528 0.02876 0.05185 -0.1748 0.06494 0.03763 0.0421 -2.533e-05
-0.003477 -0.1635 0.04373 0.1128 0.04794 -0.143 -0.1593 -0.1554
0.1595 0.0399 0.007507 0.0975 -0.21 -0.10376 0.0641 0.05124
0.198 0.2034 -0.0591 0.02582 -0.2042 0.0715 0.0006986 -0.005367
-0.036 0.01549 -0.1858 -0.009 0.0483 -0.03955 -0.1344 -0.2295
-0.0435 0.1971 -0.01604 -0.01668 0.005116 0.1 -0.0751 -0.02158
-0.04587 0.06604 -0.0672 -0.009415 0.0654 -0.003437 0.1504 0.02954
0.0353 -0.004814 0.0818 0.04752 0.1001 0.01021 0.0462 -0.0314
0.01317 -0.01166 0.1791 -0.03357 -0.0686 0.0799 0.02267 -0.1936
0.1102 0.0974 -0.4033 -0.0854 0.03296 0.1638 -0.083 0.0534
0.1175 -0.00843 0.0623 -0.0637 0.02661 -0.05856 0.2637 0.08124
0.1233 0.1133 -0.02788 0.03766 -0.02888 0.256 0.1521 0.2021
-0.08026 0.014595 -0.04697 0.007603 -0.09235 -0.1085 -0.02583 -0.1161
-0.05954 0.02177 0.002214 0.1263 0.0203 -0.0602 0.264 -0.1157
-0.02818 -0.0637 -0.06152 0.3032 0.1947 0.3704 0.237 0.0993
0.339 0.3528 0.465 0.4722 -0.129 -0.1008 0.005383 -0.03995
-0.05026 0.001196 -0.0742 -0.1512 -0.0933 -0.02713 -0.03738 -0.01201
0.03757 0.2241 -0.1323 0.0832 0.07544 -0.04752 0.1209 0.04327
0.0712 0.03824 0.0785 0.08075 0.0691 -0.00311 0.0316 0.02394
-0.0712 -0.05933 0.02887 -0.0838 -0.1246 -0.0007744 -0.1698 -0.0383
0.0764 0.2096 -0.04044 0.002739 0.1669 -0.1266 -0.05026 0.05823
0.02214 -0.12177 -0.10156 0.02672 -0.06128 -0.1858 -0.07983 0.0004365
-0.1143 0.1837 -0.02962 -0.1619 -0.02881 0.03598 -0.2695 -0.06506
0.01602 -0.0783 -0.01304 -0.11865 0.02676 0.01362 -0.05417 -0.00793
-0.04007 -0.08563 -0.1523 -0.01727 0.0792 -0.053 -0.0723 0.045
00000000: 69a8 9228 cfa9 9b24 7a30 f929 8129 4929
00000010: afb0 f328 16ac 0121 dd31 7c2e 432c 4235
00000020: ac32 9122 5626 aa1d dd27 22a2 bead e123
00000030: d1a3 1d24 8e1f d828 caaf 6227 2524 7b2b
00000040: c9a8 6c2d 4422 ceae 75ac 9a9f 18a5 76af
00000050: 26ae b9a3 fcad cf25 5095 22aa 0ea5 f722
00000060: ae32 2830 7f29 382a f5a9 37a6 61ac 12b1
00000070: c22a 5d27 a32a 98b1 282c d128 6429 a981
00000080: 1f9b 3bb1 9929 382f 232a 93b0 19b1 f9b0
00000090: 1b31 1b29 b01f 3d2e b8b2 a4ae 1a2c 8f2a
000000a0: 5632 8232 91ab 9c26 89b2 932c b911 7f9d
000000b0: 9ca8 ee23 f2b1 9ca0 2f2a 10a9 4db0 58b3
000000c0: 91a9 4f32 1ba4 45a4 3d1d 662e ceac 86a5
000000d0: dfa9 3a2c 4dac d2a0 302c 0a9b d030 9027
000000e0: 8528 ee9c 3c2d 152a 682e 3a21 ea29 05a8
000000f0: be22 f8a1 bb31 4ca8 64ac 1d2d ce25 32b2
00000100: 0e2f 3c2e 74b6 77ad 3828 3e31 50ad d62a
00000110: 852f 51a0 f92b 14ac d026 7fab 3834 332d
00000120: e42f 402f 23a7 d228 65a7 1934 de30 7832
00000130: 23ad 7923 03aa c91f e9ad f2ae 9da6 6eaf
00000140: 9fab 9325 8918 0b30 3225 b5ab 3934 68af
00000150: 37a7 14ac e0ab da34 3b32 ed35 9633 5b2e
00000160: 6d35 a535 7137 8e37 21b0 74ae 831d 1da9
00000170: 6faa e614 c0ac d7b0 f9ad f2a6 c9a8 26a2
00000180: cf28 2c33 3cb0 532d d42c 15aa bd2f 8a29
00000190: 8f2c e528 062d 2b2d 6c2c 5f9a 0b28 2126
000001a0: 8fac 98ab 6427 5dad f9af 5892 6fb1 e7a8
000001b0: e42c b532 2da9 9c19 5731 0db0 6faa 742b
000001c0: ab25 cbaf 80ae d726 d8ab f2b1 1cad 270f
000001d0: 51af e131 95a7 2eb1 60a7 9b28 50b4 2aac
000001e0: 1a24 03ad ada2 98af da26 f922 efaa 0fa0
000001f0: 21a9 7bad e0b0 6ca4 122d c9aa a1ac c329

conv_mid.4.bias f2 [12]
-0.015465 -0.01299 -0.00561 0.0012045 0.013145 0.00775 0.00991 -0.003283
0.01625 -0.007187 0.002861 -0.004692
00000000: eba3 a7a2 bf9d ef14 bb22 f01f 1321 b99a
00000010: 2924 5c9f dc19 ce9c

conv_mid.5.weight f2 [12, 24, 3, 3]
-0.0996 -0.0766 -0.0492 -0.0738 -0.07495 0.01071 -0.06198 -0.03842
-0.0543 -0.0893 0.2485 -0.0596 -0.1434 0.197 -0.04697 0.05066
0.0612 0.01973 0.02782 0.02829 0.05106 0.0776 0.289 0.1103
0.02739 0.01958 0.02887 -0.013725 -0.1603 0.004696 -0.02182 0.1476
0.005013 -0.00916 0.1383 -0.0195 -0.01297 -0.069 0.003181 0.1414
0.08075 0.02994 0.03345 0.11163 0.004932 -0.04126 0.11993 0.0602
0.002281 -0.00797 -0.0644 0.03065 0.08545 0.03424 0.003304 -0.04947
0.02292 -0.02728 -0.01567 0.04382 0.0001627 0.04855 0.00667 0.0055
0.0536 0.0322 -0.0786 0.097 0.06903 -0.04266 0.019 0.01697
-0.01653 -0.02284 -0.0763 -0.05707 -0.0698 -0.1002 -0.06854 -0.1312
-0.03723 -0.0934 0.1285 -0.04373 -0.0804 0.1013 -0.326 0.06168
0.02715 -0.03076 -0.007748 0.03775 -0.0679 -0.1152 -0.2524 -0.0661
0.0526 0.1974 0.1261 -0.0933 -0.081 -0.11365 -0.07733 -0.0923
-0.02574 -0.0146 -0.07324 -0.01988 0.0498 0.07513 0.105 0.03653
-0.001936 0.1371 0.1608 0.0949 0.04813 0.0931 -0.01845 -0.0749
-0.08923 -0.02164 -0.07434 -0.002258 0.01264 0.0442 -0.08246 -0.0217
-0.0762 -0.00777 -0.1707 -0.02267 0.0175 -0.006725 -0.0946 0.0669
0.1387 0.001736 -0.0394 0.04578 0.04712 0.03815 -0.10004 -0.0159
0.01784 0.06604 0.07825 0.001315 -0.4365 0.06094 -0.04605 -0.0347
-0.01467 -0.1698 -0.1505 0.05957 0.1354 0.03406 -0.04977 -0.1282
-0.0901 -0.05215 -0.0006533 -0.0802 -0.00851 -0.0198 0.3298 -0.02579
-0.12225 -0.257 -0.008965 0.06088 -0.067 -0.03906 0.379 -0.2783
-0.03296 -0.0453 0.1268 -0.1039 -0.0825 -0.04324 0.06256 0.1298
0.2927 0.00804 -0.01531 -0.1117 0.0882 -0.03644 -0.1254 0.02322
-0.04633 0.01041 -0.01965 -0.0504 -0.000342 0.05524 0.06012 0.07275
-0.002949 0.0811 0.12256 -0.0371 0.0697 -0.01762 -0.00928 0.03894
-0.0667 0.06354 -0.02707 -0.2944 0.05887 -0.02487 -0.00863 -0.003006
0.0571 0.02364 -0.001568 -0.03137 -0.059 -0.0329 0.03146 0.00721
-0.000643 0.263 -0.608 0.1376 0.3801 -0.621 0.542 -0.06964
-0.001272 0.07385 -0.1251 -0.004185 0.1178 0.1816 -0.379 0.2617
-0.08276 0.0329 -0.1293 0.02176 -0.12396 0.05212 0.1997 -0.4233
0.0924 -0.06113 0.01863 -0.0691 0.02943 0.0689 0.014305 -0.2382
00000000: 60ae e7ac 4caa b9ac ccac 7c21 efab eba8
00000010: f3aa b7ad f433 a1ab 97b0 4e32 03aa 7c2a
00000020: d52b 0d25 1f27 3e27 892a f72c a034 0f2f
00000030: 0327 0325 6427 07a3 21b1 cf1c 96a5 b930
00000040: 221d b1a0 6d30 fea4 a4a2 6aac 841a 8630
00000050: 2b2d aa27 4828 252f 0d1d 48a9 ad2f b52b
00000060: ac18 15a0 1fac d927 782d 6228 c41a 55aa
00000070: de25 fca6 03a4 9c29 5509 372a d51e a21d
00000080: dc2a 1f28 08ad 352e 6b2c 76a9 dd24 5824
00000090: 3ba4 d9a5 e2ac 4eab 78ac 6aae 63ac 33b0
000000a0: c4a8 faad 1d30 99a9 25ad 7c2e 37b5 e52b
000000b0: f326 e0a7 ef9f d528 58ac 5faf 0ab4 3bac
000000c0: bc2a 5132 0930 f9ad 2fad 46af f3ac e8ad
000000d0: 97a6 7aa3 b0ac 17a5 602a cf2c b82e ad28
000000e0: ee97 6330 2531 132e 292a f52d b9a4 cbac
000000f0: b6ad 8aa5 c2ac a098 7922 a829 47ad 8ea5
00000100: e0ac f59f 76b1 cea5 7b24 e39e 0eae 482c
00000110: 7030 1c17 0ba9 dc29 082a e228 67ae 12a4
00000120: 9124 3a2c 022d 6315 fcb6 cd2b e5a9 71a8
00000130: 83a3 6fb1 d1b0 a02b 5530 5c28 5faa 1ab0
00000140: c4ad adaa 5a91 22ad 5ba0 12a5 4735 9aa6
00000150: d3af 1db4 97a0 cb2b 4aac 00a9 1036 74b4
00000160: 38a8 cca9 0f30 a6ae 48ad 89a9 012c 2730
00000170: af34 1e20 d7a3 26af a52d aaa8 03b0 f225
00000180: eea9 5421 08a5 74aa 9a8d 122b b22b a82c
00000190: 0a9a 312d d82f c0a8 762c 83a4 c0a0 fc28
000001a0: 45ac 112c eea6 b6b4 892b 5ea6 6ba0 289a
000001b0: 4f2b 0d26 6c96 04a8 8dab 36a8 0728 621f
000001c0: 4491 3534 ddb8 6730 1536 f8b8 5638 75ac
000001d0: 3695 ba2c 01b0 499c 8a2f d031 10b6 3034
000001e0: 4cad 3628 23b0 9225 efaf ac2a 6432 c6b6
000001f0: ea2d d3ab c524 6cac 8927 692c 5323 9fb3

conv_mid.5.bias f2 [12]
-0.011826 0.00856 -0.002466 -0.004883 0.003569 0.000936 -0.0005803 0.00856
0.003914 -0.0007424 0.01006 0.0001321
00000000: 0ea2 6220 0d99 009d 4f1b ab13 c190 6220
00000010: 021c 1592 2721 5408

conv_tail.weight f2 [12, 120, 1, 1]
0.0921 0.0252 0.1052 0.006077 0.10706 -0.05865 -0.00455 0.08875
0.0861 0.08105 -0.008835 0.005367 0.02148 -0.03586 -0.05243 0.00161
-0.215 -0.1209 -0.02255 -0.0695 0.03482 -0.0908 0.1512 0.01303
-0.1631 -0.0468 0.0574 0.1022 0.10516 -0.01354 -0.04926 -0.00776
0.02594 -0.0314 -0.1991 0.02988 0.09094 0.04828 -0.0261 -0.0954
-0.1569 0.02986 0.0609 -0.005375 -0.01965 0.04623 0.2146 -0.02695
-0.00906 0.0177 0.01805 0.010345 0.0004308 0.01338 -0.007423 -0.04614
-0.0112 -0.03217 0.04037 -0.010124 0.00888 -0.1023 0.002579 -0.02455
0.05246 -0.000647 0.00674 0.02815 0.03372 0.0277 0.00576 0.04065
-0.002153 -0.0964 -0.1066 -0.1388 -0.0134 -0.03146 -0.0265 -0.04343
0.01513 0.1181 0.1007 -0.0499 -0.002708 -0.006336 0.00834 -0.02283
0.0994 0.0167 0.075 0.08746 -0.03802 -0.00744 -0.0607 -0.05963
-0.3184 0.03094 0.42 -0.21 0.001804 -0.1372 0.161 0.03027
0.1873 -0.04922 0.3518 -0.1276 0.0228 -0.3345 -0.0842 0.03397
0.317 -0.0405 0.1729 0.2319 -0.6367 0.2068 -0.1558 -0.013054
-0.005848 0.01625 -0.0489 0.0364 0.0252 -0.0718 0.00872 0.0987
0.00912 0.0743 -0.03885 -0.001169 -0.03845 -0.006874 -0.0306 -0.0261
-0.2391 0.015396 0.02014 -0.00669 -0.002542 -0.02022 0.2128 0.004845
-0.1346 0.002333 0.0678 -0.00859 0.0574 -0.004356 -0.12244 -0.099
0.02383 0.02611 0.0643 -0.01878 0.1566 -0.001846 -0.0371 0.01558
-0.0548 0.006348 0.08875 0.12085 -0.006897 -0.0417 -0.0916 0.03308
-0.03406 0.01111 0.00857 -0.001006 -0.003109 0.02254 -0.02194 -0.01547
-0.00516 -0.0245 -0.0711 -0.00526 -0.010345 0.02032 -0.02585 -0.00357
-0.05353 -0.02278 -0.01825 0.0282 0.03348 0.02719 0.000994 0.0449
-0.05743 0.0182 -0.11725 -0.0683 -0.02548 -0.11414 -0.03403 0.0194
-0.02182 -0.1137 0.122 -0.05667 0.038 -0.0004296 0.0297 0.0971
-0.0864 0.01494 0.058 0.05206 -0.0489 0.02682 -0.02434 0.0648
-0.3286 -0.056 -0.04996 0.2477 0.01053 -0.1968 0.2239 -0.04483
-0.04742 0.1848 0.2761 0.12427 0.02138 0.2474 -0.0863 -0.07025
0.27 -0.02855 0.09247 -0.3179 0.1222 -0.598 -0.1509 0.234
0.0813 -0.02873 0.1813 -0.03156 0.1114 -0.01393 0.01572 -0.03116
0.06934 -0.04434 -0.00855 0.002277 0.0974 -0.01445 -0.002893 0.04425
00000000: e52d 7426 bc2e 391e da2e 82ab a99c ae2d
00000010: 832d 302d 86a0 7f1d 8025 97a8 b6aa 9816
00000020: e1b2 bdaf c6a5 73ac 7528 d0ad d730 ac22
00000030: 38b1 fea9 592b 8a2e bb2e efa2 4eaa f29f
00000040: a426 05a8 5fb2 a627 d22d 2e2a aea6 1bae
00000050: 05b1 a527 cc2b 819d 08a5 eb29 de32 e6a6
00000060: a4a0 8824 9f24 4c21 0f0f da22 9a9f e8a9
00000070: bca1 1ea8 2b29 2fa1 8c20 8cae 4819 49a6
00000080: b72a 4d91 e71e 3527 5128 1727 e61d 3429
00000090: 6998 2bae d3ae 71b0 dca2 07a8 c9a6 8fa9
000000a0: bf23 8f2f 722e 63aa 8c99 7d9e 4520 d8a5
000000b0: 5d2e 4624 cd2c 992d dea8 9e9f c5ab a2ab
000000c0: 18b5 ec27 b836 b8b2 6417 64b0 2731 c027
000000d0: fe31 4daa a135 15b0 d625 5ab5 64ad 5928
000000e0: 1235 2fa9 8831 6c33 18b9 9e32 fcb0 afa2
000000f0: fd9d 2924 42aa a928 7426 98ac 7720 512e
00000100: ab20 c12c f9a8 ca94 eca8 0a9f d5a7 aea6
00000110: a7b3 e223 2825 da9e 3599 2da5 cf32 f61c
00000120: 4fb0 c718 572c 66a0 592b 769c d6af 56ae
00000130: 1a26 af26 1d2c cfa4 0331 9097 c0a8 fa23
00000140: 04ab 801e ae2d bc2f 109f 56a9 ddad 3c28
00000150: 5ca8 b021 6320 1f94 5e9a c525 9ea5 eca3
00000160: 499d 46a6 8dac 639d 4ca1 3425 9ea6 509b
00000170: daaa d5a5 aca4 3827 4928 f626 1214 bf29
00000180: 5aab a924 81af 5fac 86a6 4eaf 5ba8 f724
00000190: 96a5 47af cf2f 41ab dd28 0a8f 9a27 372e
000001a0: 88ad a623 6d2b aa2a 42aa de26 3ba6 262c
000001b0: 42b5 2bab 65aa ed33 6421 4cb2 2a33 bda9
000001c0: 12aa ea31 6b34 f42f 7925 eb33 86ad 7fac
000001d0: 5234 4fa7 eb2d 16b5 d22f c9b8 d4b0 7d33
000001e0: 342d 5ba7 cd31 0aa8 212f 22a3 0624 faa7
000001f0: 702c ada9 61a0 aa18 3c2e 66a3 ed99 aa29

conv_tail.bias f2 [12]
-0.0082 -0.003063 -0.003725 0.001356 -0.004715 -0.0009274 -0.00363 -0.0003521
-0.002169 0.0001881 -0.003674 -0.002415
00000000: 33a0 469a a19b 8e15 d49c 9993 6f9b c58d
00000010: 7198 2a0a 869b f298
